…
                  Copyright 1984-2014 The MathWorks, Inc.
                    R2014a (8.3.0.532) 64-bit (glnxa64)
                             February 11, 2014

 
To get started, type one of these: helpwin, helpdesk, or demo.
For product information, visit www.mathworks.com.
 
Cleared 0 solvers and 0 stand-alone nets
WARNING: Logging before InitGoogleLogging() is written to STDERR
I0506 13:05:51.463500 18696 net.cpp:49] Initializing net from parameters: 
name: "GoogleNet"
input: "data"
input_dim: 140
input_dim: 3
input_dim: 224
input_dim: 224
state {
  phase: TEST
}
layer {
  name: "conv1/7x7_s2"
  type: "Convolution"
  bottom: "data"
  top: "conv1/7x7_s2"
  param {
    lr_mult: 1
    decay_mult: 1
  }
  param {
    lr_mult: 2
    decay_mult: 0
  }
  convolution_param {
    num_output: 64
    pad: 3
    kernel_size: 7
    stride: 2
    weight_filler {
      type: "xavier"
      std: 0.1
    }
    bias_filler {
      type: "constant"
      value: 0.2
    }
  }
}
layer {
  name: "conv1/relu_7x7"
  type: "ReLU"
  bottom: "conv1/7x7_s2"
  top: "conv1/7x7_s2"
}
layer {
  name: "pool1/3x3_s2"
  type: "Pooling"
  bottom: "conv1/7x7_s2"
  top: "pool1/3x3_s2"
  pooling_param {
    pool: MAX
    kernel_size: 3
    stride: 2
  }
}
layer {
  name: "pool1/norm1"
  type: "LRN"
  bottom: "pool1/3x3_s2"
  top: "pool1/norm1"
  lrn_param {
    local_size: 5
    alpha: 0.0001
    beta: 0.75
  }
}
layer {
  name: "conv2/3x3_reduce"
  type: "Convolution"
  bottom: "pool1/norm1"
  top: "conv2/3x3_reduce"
  param {
    lr_mult: 1
    decay_mult: 1
  }
  param {
    lr_mult: 2
    decay_mult: 0
  }
  convolution_param {
    num_output: 64
    kernel_size: 1
    weight_filler {
      type: "xavier"
      std: 0.1
    }
    bias_filler {
      type: "constant"
      value: 0.2
    }
  }
}
layer {
  name: "conv2/relu_3x3_reduce"
  type: "ReLU"
  bottom: "conv2/3x3_reduce"
  top: "conv2/3x3_reduce"
}
layer {
  name: "conv2/3x3"
  type: "Convolution"
  bottom: "conv2/3x3_reduce"
  top: "conv2/3x3"
  param {
    lr_mult: 1
    decay_mult: 1
  }
  param {
    lr_mult: 2
    decay_mult: 0
  }
  convolution_param {
    num_output: 192
    pad: 1
    kernel_size: 3
    weight_filler {
      type: "xavier"
      std: 0.03
    }
    bias_filler {
      type: "constant"
      value: 0.2
    }
  }
}
layer {
  name: "conv2/relu_3x3"
  type: "ReLU"
  bottom: "conv2/3x3"
  top: "conv2/3x3"
}
layer {
  name: "conv2/norm2"
  type: "LRN"
  bottom: "conv2/3x3"
  top: "conv2/norm2"
  lrn_param {
    local_size: 5
    alpha: 0.0001
    beta: 0.75
  }
}
layer {
  name: "pool2/3x3_s2"
  type: "Pooling"
  bottom: "conv2/norm2"
  top: "pool2/3x3_s2"
  pooling_param {
    pool: MAX
    kernel_size: 3
    stride: 2
  }
}
layer {
  name: "inception_3a/1x1"
  type: "Convolution"
  bottom: "pool2/3x3_s2"
  top: "inception_3a/1x1"
  param {
    lr_mult: 1
    decay_mult: 1
  }
  param {
    lr_mult: 2
    decay_mult: 0
  }
  convolution_param {
    num_output: 64
    kernel_size: 1
    weight_filler {
      type: "xavier"
      std: 0.03
    }
    bias_filler {
      type: "constant"
      value: 0.2
    }
  }
}
layer {
  name: "inception_3a/relu_1x1"
  type: "ReLU"
  bottom: "inception_3a/1x1"
  top: "inception_3a/1x1"
}
layer {
  name: "inception_3a/3x3_reduce"
  type: "Convolution"
  bottom: "pool2/3x3_s2"
  top: "inception_3a/3x3_reduce"
  param {
    lr_mult: 1
    decay_mult: 1
  }
  param {
    lr_mult: 2
    decay_mult: 0
  }
  convolution_param {
    num_output: 96
    kernel_size: 1
    weight_filler {
      type: "xavier"
      std: 0.09
    }
    bias_filler {
      type: "constant"
      value: 0.2
    }
  }
}
layer {
  name: "inception_3a/relu_3x3_reduce"
  type: "ReLU"
  bottom: "inception_3a/3x3_reduce"
  top: "inception_3a/3x3_reduce"
}
layer {
  name: "inception_3a/3x3"
  type: "Convolution"
  bottom: "inception_3a/3x3_reduce"
  top: "inception_3a/3x3"
  param {
    lr_mult: 1
    decay_mult: 1
  }
  param {
    lr_mult: 2
    decay_mult: 0
  }
  convolution_param {
    num_output: 128
    pad: 1
    kernel_size: 3
    weight_filler {
      type: "xavier"
      std: 0.03
    }
    bias_filler {
      type: "constant"
      value: 0.2
    }
  }
}
layer {
  name: "inception_3a/relu_3x3"
  type: "ReLU"
  bottom: "inception_3a/3x3"
  top: "inception_3a/3x3"
}
layer {
  name: "inception_3a/5x5_reduce"
  type: "Convolution"
  bottom: "pool2/3x3_s2"
  top: "inception_3a/5x5_reduce"
  param {
    lr_mult: 1
    decay_mult: 1
  }
  param {
    lr_mult: 2
    decay_mult: 0
  }
  convolution_param {
    num_output: 16
    kernel_size: 1
    weight_filler {
      type: "xavier"
      std: 0.2
    }
    bias_filler {
      type: "constant"
      value: 0.2
    }
  }
}
layer {
  name: "inception_3a/relu_5x5_reduce"
  type: "ReLU"
  bottom: "inception_3a/5x5_reduce"
  top: "inception_3a/5x5_reduce"
}
layer {
  name: "inception_3a/5x5"
  type: "Convolution"
  bottom: "inception_3a/5x5_reduce"
  top: "inception_3a/5x5"
  param {
    lr_mult: 1
    decay_mult: 1
  }
  param {
    lr_mult: 2
    decay_mult: 0
  }
  convolution_param {
    num_output: 32
    pad: 2
    kernel_size: 5
    weight_filler {
      type: "xavier"
      std: 0.03
    }
    bias_filler {
      type: "constant"
      value: 0.2
    }
  }
}
layer {
  name: "inception_3a/relu_5x5"
  type: "ReLU"
  bottom: "inception_3a/5x5"
  top: "inception_3a/5x5"
}
layer {
  name: "inception_3a/pool"
  type: "Pooling"
  bottom: "pool2/3x3_s2"
  top: "inception_3a/pool"
  pooling_param {
    pool: MAX
    kernel_size: 3
    stride: 1
    pad: 1
  }
}
layer {
  name: "inception_3a/pool_proj"
  type: "Convolution"
  bottom: "inception_3a/pool"
  top: "inception_3a/pool_proj"
  param {
    lr_mult: 1
    decay_mult: 1
  }
  param {
    lr_mult: 2
    decay_mult: 0
  }
  convolution_param {
    num_output: 32
    kernel_size: 1
    weight_filler {
      type: "xavier"
      std: 0.1
    }
    bias_filler {
      type: "constant"
      value: 0.2
    }
  }
}
layer {
  name: "inception_3a/relu_pool_proj"
  type: "ReLU"
  bottom: "inception_3a/pool_proj"
  top: "inception_3a/pool_proj"
}
layer {
  name: "inception_3a/output"
  type: "Concat"
  bottom: "inception_3a/1x1"
  bottom: "inception_3a/3x3"
  bottom: "inception_3a/5x5"
  bottom: "inception_3a/pool_proj"
  top: "inception_3a/output"
}
layer {
  name: "inception_3b/1x1"
  type: "Convolution"
  bottom: "inception_3a/output"
  top: "inception_3b/1x1"
  param {
    lr_mult: 1
    decay_mult: 1
  }
  param {
    lr_mult: 2
    decay_mult: 0
  }
  convolution_param {
    num_output: 128
    kernel_size: 1
    weight_filler {
      type: "xavier"
      std: 0.03
    }
    bias_filler {
      type: "constant"
      value: 0.2
    }
  }
}
layer {
  name: "inception_3b/relu_1x1"
  type: "ReLU"
  bottom: "inception_3b/1x1"
  top: "inception_3b/1x1"
}
layer {
  name: "inception_3b/3x3_reduce"
  type: "Convolution"
  bottom: "inception_3a/output"
  top: "inception_3b/3x3_reduce"
  param {
    lr_mult: 1
    decay_mult: 1
  }
  param {
    lr_mult: 2
    decay_mult: 0
  }
  convolution_param {
    num_output: 128
    kernel_size: 1
    weight_filler {
      type: "xavier"
      std: 0.09
    }
    bias_filler {
      type: "constant"
      value: 0.2
    }
  }
}
layer {
  name: "inception_3b/relu_3x3_reduce"
  type: "ReLU"
  bottom: "inception_3b/3x3_reduce"
  top: "inception_3b/3x3_reduce"
}
layer {
  name: "inception_3b/3x3"
  type: "Convolution"
  bottom: "inception_3b/3x3_reduce"
  top: "inception_3b/3x3"
  param {
    lr_mult: 1
    decay_mult: 1
  }
  param {
    lr_mult: 2
    decay_mult: 0
  }
  convolution_param {
    num_output: 192
    pad: 1
    kernel_size: 3
    weight_filler {
      type: "xavier"
      std: 0.03
    }
    bias_filler {
      type: "constant"
      value: 0.2
    }
  }
}
layer {
  name: "inception_3b/relu_3x3"
  type: "ReLU"
  bottom: "inception_3b/3x3"
  top: "inception_3b/3x3"
}
layer {
  name: "inception_3b/5x5_reduce"
  type: "Convolution"
  bottom: "inception_3a/output"
  top: "inception_3b/5x5_reduce"
  param {
    lr_mult: 1
    decay_mult: 1
  }
  param {
    lr_mult: 2
    decay_mult: 0
  }
  convolution_param {
    num_output: 32
    kernel_size: 1
    weight_filler {
      type: "xavier"
      std: 0.2
    }
    bias_filler {
      type: "constant"
      value: 0.2
    }
  }
}
layer {
  name: "inception_3b/relu_5x5_reduce"
  type: "ReLU"
  bottom: "inception_3b/5x5_reduce"
  top: "inception_3b/5x5_reduce"
}
layer {
  name: "inception_3b/5x5"
  type: "Convolution"
  bottom: "inception_3b/5x5_reduce"
  top: "inception_3b/5x5"
  param {
    lr_mult: 1
    decay_mult: 1
  }
  param {
    lr_mult: 2
    decay_mult: 0
  }
  convolution_param {
    num_output: 96
    pad: 2
    kernel_size: 5
    weight_filler {
      type: "xavier"
      std: 0.03
    }
    bias_filler {
      type: "constant"
      value: 0.2
    }
  }
}
layer {
  name: "inception_3b/relu_5x5"
  type: "ReLU"
  bottom: "inception_3b/5x5"
  top: "inception_3b/5x5"
}
layer {
  name: "inception_3b/pool"
  type: "Pooling"
  bottom: "inception_3a/output"
  top: "inception_3b/pool"
  pooling_param {
    pool: MAX
    kernel_size: 3
    stride: 1
    pad: 1
  }
}
layer {
  name: "inception_3b/pool_proj"
  type: "Convolution"
  bottom: "inception_3b/pool"
  top: "inception_3b/pool_proj"
  param {
    lr_mult: 1
    decay_mult: 1
  }
  param {
    lr_mult: 2
    decay_mult: 0
  }
  convolution_param {
    num_output: 64
    kernel_size: 1
    weight_filler {
      type: "xavier"
      std: 0.1
    }
    bias_filler {
      type: "constant"
      value: 0.2
    }
  }
}
layer {
  name: "inception_3b/relu_pool_proj"
  type: "ReLU"
  bottom: "inception_3b/pool_proj"
  top: "inception_3b/pool_proj"
}
layer {
  name: "inception_3b/output"
  type: "Concat"
  bottom: "inception_3b/1x1"
  bottom: "inception_3b/3x3"
  bottom: "inception_3b/5x5"
  bottom: "inception_3b/pool_proj"
  top: "inception_3b/output"
}
layer {
  name: "pool3/3x3_s2"
  type: "Pooling"
  bottom: "inception_3b/output"
  top: "pool3/3x3_s2"
  pooling_param {
    pool: MAX
    kernel_size: 3
    stride: 2
  }
}
layer {
  name: "inception_4a/1x1"
  type: "Convolution"
  bottom: "pool3/3x3_s2"
  top: "inception_4a/1x1"
  param {
    lr_mult: 1
    decay_mult: 1
  }
  param {
    lr_mult: 2
    decay_mult: 0
  }
  convolution_param {
    num_output: 192
    kernel_size: 1
    weight_filler {
      type: "xavier"
      std: 0.03
    }
    bias_filler {
      type: "constant"
      value: 0.2
    }
  }
}
layer {
  name: "inception_4a/relu_1x1"
  type: "ReLU"
  bottom: "inception_4a/1x1"
  top: "inception_4a/1x1"
}
layer {
  name: "inception_4a/3x3_reduce"
  type: "Convolution"
  bottom: "pool3/3x3_s2"
  top: "inception_4a/3x3_reduce"
  param {
    lr_mult: 1
    decay_mult: 1
  }
  param {
    lr_mult: 2
    decay_mult: 0
  }
  convolution_param {
    num_output: 96
    kernel_size: 1
    weight_filler {
      type: "xavier"
      std: 0.09
    }
    bias_filler {
      type: "constant"
      value: 0.2
    }
  }
}
layer {
  name: "inception_4a/relu_3x3_reduce"
  type: "ReLU"
  bottom: "inception_4a/3x3_reduce"
  top: "inception_4a/3x3_reduce"
}
layer {
  name: "inception_4a/3x3"
  type: "Convolution"
  bottom: "inception_4a/3x3_reduce"
  top: "inception_4a/3x3"
  param {
    lr_mult: 1
    decay_mult: 1
  }
  param {
    lr_mult: 2
    decay_mult: 0
  }
  convolution_param {
    num_output: 208
    pad: 1
    kernel_size: 3
    weight_filler {
      type: "xavier"
      std: 0.03
    }
    bias_filler {
      type: "constant"
      value: 0.2
    }
  }
}
layer {
  name: "inception_4a/relu_3x3"
  type: "ReLU"
  bottom: "inception_4a/3x3"
  top: "inception_4a/3x3"
}
layer {
  name: "inception_4a/5x5_reduce"
  type: "Convolution"
  bottom: "pool3/3x3_s2"
  top: "inception_4a/5x5_reduce"
  param {
    lr_mult: 1
    decay_mult: 1
  }
  param {
    lr_mult: 2
    decay_mult: 0
  }
  convolution_param {
    num_output: 16
    kernel_size: 1
    weight_filler {
      type: "xavier"
      std: 0.2
    }
    bias_filler {
      type: "constant"
      value: 0.2
    }
  }
}
layer {
  name: "inception_4a/relu_5x5_reduce"
  type: "ReLU"
  bottom: "inception_4a/5x5_reduce"
  top: "inception_4a/5x5_reduce"
}
layer {
  name: "inception_4a/5x5"
  type: "Convolution"
  bottom: "inception_4a/5x5_reduce"
  top: "inception_4a/5x5"
  param {
    lr_mult: 1
    decay_mult: 1
  }
  param {
    lr_mult: 2
    decay_mult: 0
  }
  convolution_param {
    num_output: 48
    pad: 2
    kernel_size: 5
    weight_filler {
      type: "xavier"
      std: 0.03
    }
    bias_filler {
      type: "constant"
      value: 0.2
    }
  }
}
layer {
  name: "inception_4a/relu_5x5"
  type: "ReLU"
  bottom: "inception_4a/5x5"
  top: "inception_4a/5x5"
}
layer {
  name: "inception_4a/pool"
  type: "Pooling"
  bottom: "pool3/3x3_s2"
  top: "inception_4a/pool"
  pooling_param {
    pool: MAX
    kernel_size: 3
    stride: 1
    pad: 1
  }
}
layer {
  name: "inception_4a/pool_proj"
  type: "Convolution"
  bottom: "inception_4a/pool"
  top: "inception_4a/pool_proj"
  param {
    lr_mult: 1
    decay_mult: 1
  }
  param {
    lr_mult: 2
    decay_mult: 0
  }
  convolution_param {
    num_output: 64
    kernel_size: 1
    weight_filler {
      type: "xavier"
      std: 0.1
    }
    bias_filler {
      type: "constant"
      value: 0.2
    }
  }
}
layer {
  name: "inception_4a/relu_pool_proj"
  type: "ReLU"
  bottom: "inception_4a/pool_proj"
  top: "inception_4a/pool_proj"
}
layer {
  name: "inception_4a/output"
  type: "Concat"
  bottom: "inception_4a/1x1"
  bottom: "inception_4a/3x3"
  bottom: "inception_4a/5x5"
  bottom: "inception_4a/pool_proj"
  top: "inception_4a/output"
}
layer {
  name: "inception_4b/1x1"
  type: "Convolution"
  bottom: "inception_4a/output"
  top: "inception_4b/1x1"
  param {
    lr_mult: 1
    decay_mult: 1
  }
  param {
    lr_mult: 2
    decay_mult: 0
  }
  convolution_param {
    num_output: 160
    kernel_size: 1
    weight_filler {
      type: "xavier"
      std: 0.03
    }
    bias_filler {
      type: "constant"
      value: 0.2
    }
  }
}
layer {
  name: "inception_4b/relu_1x1"
  type: "ReLU"
  bottom: "inception_4b/1x1"
  top: "inception_4b/1x1"
}
layer {
  name: "inception_4b/3x3_reduce"
  type: "Convolution"
  bottom: "inception_4a/output"
  top: "inception_4b/3x3_reduce"
  param {
    lr_mult: 1
    decay_mult: 1
  }
  param {
    lr_mult: 2
    decay_mult: 0
  }
  convolution_param {
    num_output: 112
    kernel_size: 1
    weight_filler {
      type: "xavier"
      std: 0.09
    }
    bias_filler {
      type: "constant"
      value: 0.2
    }
  }
}
layer {
  name: "inception_4b/relu_3x3_reduce"
  type: "ReLU"
  bottom: "inception_4b/3x3_reduce"
  top: "inception_4b/3x3_reduce"
}
layer {
  name: "inception_4b/3x3"
  type: "Convolution"
  bottom: "inception_4b/3x3_reduce"
  top: "inception_4b/3x3"
  param {
    lr_mult: 1
    decay_mult: 1
  }
  param {
    lr_mult: 2
    decay_mult: 0
  }
  convolution_param {
    num_output: 224
    pad: 1
    kernel_size: 3
    weight_filler {
      type: "xavier"
      std: 0.03
    }
    bias_filler {
      type: "constant"
      value: 0.2
    }
  }
}
layer {
  name: "inception_4b/relu_3x3"
  type: "ReLU"
  bottom: "inception_4b/3x3"
  top: "inception_4b/3x3"
}
layer {
  name: "inception_4b/5x5_reduce"
  type: "Convolution"
  bottom: "inception_4a/output"
  top: "inception_4b/5x5_reduce"
  param {
    lr_mult: 1
    decay_mult: 1
  }
  param {
    lr_mult: 2
    decay_mult: 0
  }
  convolution_param {
    num_output: 24
    kernel_size: 1
    weight_filler {
      type: "xavier"
      std: 0.2
    }
    bias_filler {
      type: "constant"
      value: 0.2
    }
  }
}
layer {
  name: "inception_4b/relu_5x5_reduce"
  type: "ReLU"
  bottom: "inception_4b/5x5_reduce"
  top: "inception_4b/5x5_reduce"
}
layer {
  name: "inception_4b/5x5"
  type: "Convolution"
  bottom: "inception_4b/5x5_reduce"
  top: "inception_4b/5x5"
  param {
    lr_mult: 1
    decay_mult: 1
  }
  param {
    lr_mult: 2
    decay_mult: 0
  }
  convolution_param {
    num_output: 64
    pad: 2
    kernel_size: 5
    weight_filler {
      type: "xavier"
      std: 0.03
    }
    bias_filler {
      type: "constant"
      value: 0.2
    }
  }
}
layer {
  name: "inception_4b/relu_5x5"
  type: "ReLU"
  bottom: "inception_4b/5x5"
  top: "inception_4b/5x5"
}
layer {
  name: "inception_4b/pool"
  type: "Pooling"
  bottom: "inception_4a/output"
  top: "inception_4b/pool"
  pooling_param {
    pool: MAX
    kernel_size: 3
    stride: 1
    pad: 1
  }
}
layer {
  name: "inception_4b/pool_proj"
  type: "Convolution"
  bottom: "inception_4b/pool"
  top: "inception_4b/pool_proj"
  param {
    lr_mult: 1
    decay_mult: 1
  }
  param {
    lr_mult: 2
    decay_mult: 0
  }
  convolution_param {
    num_output: 64
    kernel_size: 1
    weight_filler {
      type: "xavier"
      std: 0.1
    }
    bias_filler {
      type: "constant"
      value: 0.2
    }
  }
}
layer {
  name: "inception_4b/relu_pool_proj"
  type: "ReLU"
  bottom: "inception_4b/pool_proj"
  top: "inception_4b/pool_proj"
}
layer {
  name: "inception_4b/output"
  type: "Concat"
  bottom: "inception_4b/1x1"
  bottom: "inception_4b/3x3"
  bottom: "inception_4b/5x5"
  bottom: "inception_4b/pool_proj"
  top: "inception_4b/output"
}
layer {
  name: "inception_4c/1x1"
  type: "Convolution"
  bottom: "inception_4b/output"
  top: "inception_4c/1x1"
  param {
    lr_mult: 1
    decay_mult: 1
  }
  param {
    lr_mult: 2
    decay_mult: 0
  }
  convolution_param {
    num_output: 128
    kernel_size: 1
    weight_filler {
      type: "xavier"
      std: 0.03
    }
    bias_filler {
      type: "constant"
      value: 0.2
    }
  }
}
layer {
  name: "inception_4c/relu_1x1"
  type: "ReLU"
  bottom: "inception_4c/1x1"
  top: "inception_4c/1x1"
}
layer {
  name: "inception_4c/3x3_reduce"
  type: "Convolution"
  bottom: "inception_4b/output"
  top: "inception_4c/3x3_reduce"
  param {
    lr_mult: 1
    decay_mult: 1
  }
  param {
    lr_mult: 2
    decay_mult: 0
  }
  convolution_param {
    num_output: 128
    kernel_size: 1
    weight_filler {
      type: "xavier"
      std: 0.09
    }
    bias_filler {
      type: "constant"
      value: 0.2
    }
  }
}
layer {
  name: "inception_4c/relu_3x3_reduce"
  type: "ReLU"
  bottom: "inception_4c/3x3_reduce"
  top: "inception_4c/3x3_reduce"
}
layer {
  name: "inception_4c/3x3"
  type: "Convolution"
  bottom: "inception_4c/3x3_reduce"
  top: "inception_4c/3x3"
  param {
    lr_mult: 1
    decay_mult: 1
  }
  param {
    lr_mult: 2
    decay_mult: 0
  }
  convolution_param {
    num_output: 256
    pad: 1
    kernel_size: 3
    weight_filler {
      type: "xavier"
      std: 0.03
    }
    bias_filler {
      type: "constant"
      value: 0.2
    }
  }
}
layer {
  name: "inception_4c/relu_3x3"
  type: "ReLU"
  bottom: "inception_4c/3x3"
  top: "inception_4c/3x3"
}
layer {
  name: "inception_4c/5x5_reduce"
  type: "Convolution"
  bottom: "inception_4b/output"
  top: "inception_4c/5x5_reduce"
  param {
    lr_mult: 1
    decay_mult: 1
  }
  param {
    lr_mult: 2
    decay_mult: 0
  }
  convolution_param {
    num_output: 24
    kernel_size: 1
    weight_filler {
      type: "xavier"
      std: 0.2
    }
    bias_filler {
      type: "constant"
      value: 0.2
    }
  }
}
layer {
  name: "inception_4c/relu_5x5_reduce"
  type: "ReLU"
  bottom: "inception_4c/5x5_reduce"
  top: "inception_4c/5x5_reduce"
}
layer {
  name: "inception_4c/5x5"
  type: "Convolution"
  bottom: "inception_4c/5x5_reduce"
  top: "inception_4c/5x5"
  param {
    lr_mult: 1
    decay_mult: 1
  }
  param {
    lr_mult: 2
    decay_mult: 0
  }
  convolution_param {
    num_output: 64
    pad: 2
    kernel_size: 5
    weight_filler {
      type: "xavier"
      std: 0.03
    }
    bias_filler {
      type: "constant"
      value: 0.2
    }
  }
}
layer {
  name: "inception_4c/relu_5x5"
  type: "ReLU"
  bottom: "inception_4c/5x5"
  top: "inception_4c/5x5"
}
layer {
  name: "inception_4c/pool"
  type: "Pooling"
  bottom: "inception_4b/output"
  top: "inception_4c/pool"
  pooling_param {
    pool: MAX
    kernel_size: 3
    stride: 1
    pad: 1
  }
}
layer {
  name: "inception_4c/pool_proj"
  type: "Convolution"
  bottom: "inception_4c/pool"
  top: "inception_4c/pool_proj"
  param {
    lr_mult: 1
    decay_mult: 1
  }
  param {
    lr_mult: 2
    decay_mult: 0
  }
  convolution_param {
    num_output: 64
    kernel_size: 1
    weight_filler {
      type: "xavier"
      std: 0.1
    }
    bias_filler {
      type: "constant"
      value: 0.2
    }
  }
}
layer {
  name: "inception_4c/relu_pool_proj"
  type: "ReLU"
  bottom: "inception_4c/pool_proj"
  top: "inception_4c/pool_proj"
}
layer {
  name: "inception_4c/output"
  type: "Concat"
  bottom: "inception_4c/1x1"
  bottom: "inception_4c/3x3"
  bottom: "inception_4c/5x5"
  bottom: "inception_4c/pool_proj"
  top: "inception_4c/output"
}
layer {
  name: "inception_4d/1x1"
  type: "Convolution"
  bottom: "inception_4c/output"
  top: "inception_4d/1x1"
  param {
    lr_mult: 1
    decay_mult: 1
  }
  param {
    lr_mult: 2
    decay_mult: 0
  }
  convolution_param {
    num_output: 112
    kernel_size: 1
    weight_filler {
      type: "xavier"
      std: 0.03
    }
    bias_filler {
      type: "constant"
      value: 0.2
    }
  }
}
layer {
  name: "inception_4d/relu_1x1"
  type: "ReLU"
  bottom: "inception_4d/1x1"
  top: "inception_4d/1x1"
}
layer {
  name: "inception_4d/3x3_reduce"
  type: "Convolution"
  bottom: "inception_4c/output"
  top: "inception_4d/3x3_reduce"
  param {
    lr_mult: 1
    decay_mult: 1
  }
  param {
    lr_mult: 2
    decay_mult: 0
  }
  convolution_param {
    num_output: 144
    kernel_size: 1
    weight_filler {
      type: "xavier"
      std: 0.09
    }
    bias_filler {
      type: "constant"
      value: 0.2
    }
  }
}
layer {
  name: "inception_4d/relu_3x3_reduce"
  type: "ReLU"
  bottom: "inception_4d/3x3_reduce"
  top: "inception_4d/3x3_reduce"
}
layer {
  name: "inception_4d/3x3"
  type: "Convolution"
  bottom: "inception_4d/3x3_reduce"
  top: "inception_4d/3x3"
  param {
    lr_mult: 1
    decay_mult: 1
  }
  param {
    lr_mult: 2
    decay_mult: 0
  }
  convolution_param {
    num_output: 288
    pad: 1
    kernel_size: 3
    weight_filler {
      type: "xavier"
      std: 0.03
    }
    bias_filler {
      type: "constant"
      value: 0.2
    }
  }
}
layer {
  name: "inception_4d/relu_3x3"
  type: "ReLU"
  bottom: "inception_4d/3x3"
  top: "inception_4d/3x3"
}
layer {
  name: "inception_4d/5x5_reduce"
  type: "Convolution"
  bottom: "inception_4c/output"
  top: "inception_4d/5x5_reduce"
  param {
    lr_mult: 1
    decay_mult: 1
  }
  param {
    lr_mult: 2
    decay_mult: 0
  }
  convolution_param {
    num_output: 32
    kernel_size: 1
    weight_filler {
      type: "xavier"
      std: 0.2
    }
    bias_filler {
      type: "constant"
      value: 0.2
    }
  }
}
layer {
  name: "inception_4d/relu_5x5_reduce"
  type: "ReLU"
  bottom: "inception_4d/5x5_reduce"
  top: "inception_4d/5x5_reduce"
}
layer {
  name: "inception_4d/5x5"
  type: "Convolution"
  bottom: "inception_4d/5x5_reduce"
  top: "inception_4d/5x5"
  param {
    lr_mult: 1
    decay_mult: 1
  }
  param {
    lr_mult: 2
    decay_mult: 0
  }
  convolution_param {
    num_output: 64
    pad: 2
    kernel_size: 5
    weight_filler {
      type: "xavier"
      std: 0.03
    }
    bias_filler {
      type: "constant"
      value: 0.2
    }
  }
}
layer {
  name: "inception_4d/relu_5x5"
  type: "ReLU"
  bottom: "inception_4d/5x5"
  top: "inception_4d/5x5"
}
layer {
  name: "inception_4d/pool"
  type: "Pooling"
  bottom: "inception_4c/output"
  top: "inception_4d/pool"
  pooling_param {
    pool: MAX
    kernel_size: 3
    stride: 1
    pad: 1
  }
}
layer {
  name: "inception_4d/pool_proj"
  type: "Convolution"
  bottom: "inception_4d/pool"
  top: "inception_4d/pool_proj"
  param {
    lr_mult: 1
    decay_mult: 1
  }
  param {
    lr_mult: 2
    decay_mult: 0
  }
  convolution_param {
    num_output: 64
    kernel_size: 1
    weight_filler {
      type: "xavier"
      std: 0.1
    }
    bias_filler {
      type: "constant"
      value: 0.2
    }
  }
}
layer {
  name: "inception_4d/relu_pool_proj"
  type: "ReLU"
  bottom: "inception_4d/pool_proj"
  top: "inception_4d/pool_proj"
}
layer {
  name: "inception_4d/output"
  type: "Concat"
  bottom: "inception_4d/1x1"
  bottom: "inception_4d/3x3"
  bottom: "inception_4d/5x5"
  bottom: "inception_4d/pool_proj"
  top: "inception_4d/output"
}
layer {
  name: "inception_4e/1x1"
  type: "Convolution"
  bottom: "inception_4d/output"
  top: "inception_4e/1x1"
  param {
    lr_mult: 1
    decay_mult: 1
  }
  param {
    lr_mult: 2
    decay_mult: 0
  }
  convolution_param {
    num_output: 256
    kernel_size: 1
    weight_filler {
      type: "xavier"
      std: 0.03
    }
    bias_filler {
      type: "constant"
      value: 0.2
    }
  }
}
layer {
  name: "inception_4e/relu_1x1"
  type: "ReLU"
  bottom: "inception_4e/1x1"
  top: "inception_4e/1x1"
}
layer {
  name: "inception_4e/3x3_reduce"
  type: "Convolution"
  bottom: "inception_4d/output"
  top: "inception_4e/3x3_reduce"
  param {
    lr_mult: 1
    decay_mult: 1
  }
  param {
    lr_mult: 2
    decay_mult: 0
  }
  convolution_param {
    num_output: 160
    kernel_size: 1
    weight_filler {
      type: "xavier"
      std: 0.09
    }
    bias_filler {
      type: "constant"
      value: 0.2
    }
  }
}
layer {
  name: "inception_4e/relu_3x3_reduce"
  type: "ReLU"
  bottom: "inception_4e/3x3_reduce"
  top: "inception_4e/3x3_reduce"
}
layer {
  name: "inception_4e/3x3"
  type: "Convolution"
  bottom: "inception_4e/3x3_reduce"
  top: "inception_4e/3x3"
  param {
    lr_mult: 1
    decay_mult: 1
  }
  param {
    lr_mult: 2
    decay_mult: 0
  }
  convolution_param {
    num_output: 320
    pad: 1
    kernel_size: 3
    weight_filler {
      type: "xavier"
      std: 0.03
    }
    bias_filler {
      type: "constant"
      value: 0.2
    }
  }
}
layer {
  name: "inception_4e/relu_3x3"
  type: "ReLU"
  bottom: "inception_4e/3x3"
  top: "inception_4e/3x3"
}
layer {
  name: "inception_4e/5x5_reduce"
  type: "Convolution"
  bottom: "inception_4d/output"
  top: "inception_4e/5x5_reduce"
  param {
    lr_mult: 1
    decay_mult: 1
  }
  param {
    lr_mult: 2
    decay_mult: 0
  }
  convolution_param {
    num_output: 32
    kernel_size: 1
    weight_filler {
      type: "xavier"
      std: 0.2
    }
    bias_filler {
      type: "constant"
      value: 0.2
    }
  }
}
layer {
  name: "inception_4e/relu_5x5_reduce"
  type: "ReLU"
  bottom: "inception_4e/5x5_reduce"
  top: "inception_4e/5x5_reduce"
}
layer {
  name: "inception_4e/5x5"
  type: "Convolution"
  bottom: "inception_4e/5x5_reduce"
  top: "inception_4e/5x5"
  param {
    lr_mult: 1
    decay_mult: 1
  }
  param {
    lr_mult: 2
    decay_mult: 0
  }
  convolution_param {
    num_output: 128
    pad: 2
    kernel_size: 5
    weight_filler {
      type: "xavier"
      std: 0.03
    }
    bias_filler {
      type: "constant"
      value: 0.2
    }
  }
}
layer {
  name: "inception_4e/relu_5x5"
  type: "ReLU"
  bottom: "inception_4e/5x5"
  top: "inception_4e/5x5"
}
layer {
  name: "inception_4e/pool"
  type: "Pooling"
  bottom: "inception_4d/output"
  top: "inception_4e/pool"
  pooling_param {
    pool: MAX
    kernel_size: 3
    stride: 1
    pad: 1
  }
}
layer {
  name: "inception_4e/pool_proj"
  type: "Convolution"
  bottom: "inception_4e/pool"
  top: "inception_4e/pool_proj"
  param {
    lr_mult: 1
    decay_mult: 1
  }
  param {
    lr_mult: 2
    decay_mult: 0
  }
  convolution_param {
    num_output: 128
    kernel_size: 1
    weight_filler {
      type: "xavier"
      std: 0.1
    }
    bias_filler {
      type: "constant"
      value: 0.2
    }
  }
}
layer {
  name: "inception_4e/relu_pool_proj"
  type: "ReLU"
  bottom: "inception_4e/pool_proj"
  top: "inception_4e/pool_proj"
}
layer {
  name: "inception_4e/output"
  type: "Concat"
  bottom: "inception_4e/1x1"
  bottom: "inception_4e/3x3"
  bottom: "inception_4e/5x5"
  bottom: "inception_4e/pool_proj"
  top: "inception_4e/output"
}
layer {
  name: "pool4/3x3_s2"
  type: "Pooling"
  bottom: "inception_4e/output"
  top: "pool4/3x3_s2"
  pooling_param {
    pool: MAX
    kernel_size: 3
    stride: 2
  }
}
layer {
  name: "inception_5a/1x1"
  type: "Convolution"
  bottom: "pool4/3x3_s2"
  top: "inception_5a/1x1"
  param {
    lr_mult: 1
    decay_mult: 1
  }
  param {
    lr_mult: 2
    decay_mult: 0
  }
  convolution_param {
    num_output: 256
    kernel_size: 1
    weight_filler {
      type: "xavier"
      std: 0.03
    }
    bias_filler {
      type: "constant"
      value: 0.2
    }
  }
}
layer {
  name: "inception_5a/relu_1x1"
  type: "ReLU"
  bottom: "inception_5a/1x1"
  top: "inception_5a/1x1"
}
layer {
  name: "inception_5a/3x3_reduce"
  type: "Convolution"
  bottom: "pool4/3x3_s2"
  top: "inception_5a/3x3_reduce"
  param {
    lr_mult: 1
    decay_mult: 1
  }
  param {
    lr_mult: 2
    decay_mult: 0
  }
  convolution_param {
    num_output: 160
    kernel_size: 1
    weight_filler {
      type: "xavier"
      std: 0.09
    }
    bias_filler {
      type: "constant"
      value: 0.2
    }
  }
}
layer {
  name: "inception_5a/relu_3x3_reduce"
  type: "ReLU"
  bottom: "inception_5a/3x3_reduce"
  top: "inception_5a/3x3_reduce"
}
layer {
  name: "inception_5a/3x3"
  type: "Convolution"
  bottom: "inception_5a/3x3_reduce"
  top: "inception_5a/3x3"
  param {
    lr_mult: 1
    decay_mult: 1
  }
  param {
    lr_mult: 2
    decay_mult: 0
  }
  convolution_param {
    num_output: 320
    pad: 1
    kernel_size: 3
    weight_filler {
      type: "xavier"
      std: 0.03
    }
    bias_filler {
      type: "constant"
      value: 0.2
    }
  }
}
layer {
  name: "inception_5a/relu_3x3"
  type: "ReLU"
  bottom: "inception_5a/3x3"
  top: "inception_5a/3x3"
}
layer {
  name: "inception_5a/5x5_reduce"
  type: "Convolution"
  bottom: "pool4/3x3_s2"
  top: "inception_5a/5x5_reduce"
  param {
    lr_mult: 1
    decay_mult: 1
  }
  param {
    lr_mult: 2
    decay_mult: 0
  }
  convolution_param {
    num_output: 32
    kernel_size: 1
    weight_filler {
      type: "xavier"
      std: 0.2
    }
    bias_filler {
      type: "constant"
      value: 0.2
    }
  }
}
layer {
  name: "inception_5a/relu_5x5_reduce"
  type: "ReLU"
  bottom: 
I0506 13:05:51.507522 18696 net.cpp:413] Input 0 -> data
I0506 13:05:51.525080 18696 layer_factory.hpp:77] Creating layer conv1/7x7_s2
I0506 13:05:51.529618 18696 net.cpp:106] Creating Layer conv1/7x7_s2
I0506 13:05:51.533727 18696 net.cpp:454] conv1/7x7_s2 <- data
I0506 13:05:51.541599 18696 net.cpp:411] conv1/7x7_s2 -> conv1/7x7_s2
I0506 13:05:51.714624 18696 net.cpp:150] Setting up conv1/7x7_s2
I0506 13:05:51.729809 18696 net.cpp:157] Top shape: 140 64 112 112 (112394240)
I0506 13:05:51.741325 18696 net.cpp:165] Memory required for data: 449576960
I0506 13:05:51.745439 18696 layer_factory.hpp:77] Creating layer conv1/relu_7x7
I0506 13:05:51.752141 18696 net.cpp:106] Creating Layer conv1/relu_7x7
I0506 13:05:51.755373 18696 net.cpp:454] conv1/relu_7x7 <- conv1/7x7_s2
I0506 13:05:51.776255 18696 net.cpp:397] conv1/relu_7x7 -> conv1/7x7_s2 (in-place)
I0506 13:05:51.796186 18696 net.cpp:150] Setting up conv1/relu_7x7
I0506 13:05:51.802201 18696 net.cpp:157] Top shape: 140 64 112 112 (112394240)
I0506 13:05:51.813480 18696 net.cpp:165] Memory required for data: 899153920
I0506 13:05:51.821280 18696 layer_factory.hpp:77] Creating layer pool1/3x3_s2
I0506 13:05:51.821972 18696 net.cpp:106] Creating Layer pool1/3x3_s2
I0506 13:05:51.822419 18696 net.cpp:454] pool1/3x3_s2 <- conv1/7x7_s2
I0506 13:05:51.822782 18696 net.cpp:411] pool1/3x3_s2 -> pool1/3x3_s2
I0506 13:05:51.840641 18696 net.cpp:150] Setting up pool1/3x3_s2
I0506 13:05:51.852121 18696 net.cpp:157] Top shape: 140 64 56 56 (28098560)
I0506 13:05:51.863700 18696 net.cpp:165] Memory required for data: 1011548160
I0506 13:05:51.868562 18696 layer_factory.hpp:77] Creating layer pool1/norm1
I0506 13:05:51.868631 18696 net.cpp:106] Creating Layer pool1/norm1
I0506 13:05:51.872392 18696 net.cpp:454] pool1/norm1 <- pool1/3x3_s2
I0506 13:05:51.877555 18696 net.cpp:411] pool1/norm1 -> pool1/norm1
I0506 13:05:51.886852 18696 net.cpp:150] Setting up pool1/norm1
I0506 13:05:51.892447 18696 net.cpp:157] Top shape: 140 64 56 56 (28098560)
I0506 13:05:51.892591 18696 net.cpp:165] Memory required for data: 1123942400
I0506 13:05:51.901002 18696 layer_factory.hpp:77] Creating layer conv2/3x3_reduce
I0506 13:05:51.911870 18696 net.cpp:106] Creating Layer conv2/3x3_reduce
I0506 13:05:51.919217 18696 net.cpp:454] conv2/3x3_reduce <- pool1/norm1
I0506 13:05:51.928129 18696 net.cpp:411] conv2/3x3_reduce -> conv2/3x3_reduce
I0506 13:05:51.940378 18696 net.cpp:150] Setting up conv2/3x3_reduce
I0506 13:05:51.943289 18696 net.cpp:157] Top shape: 140 64 56 56 (28098560)
I0506 13:05:51.953742 18696 net.cpp:165] Memory required for data: 1236336640
I0506 13:05:51.954808 18696 layer_factory.hpp:77] Creating layer conv2/relu_3x3_reduce
I0506 13:05:51.966069 18696 net.cpp:106] Creating Layer conv2/relu_3x3_reduce
I0506 13:05:51.980609 18696 net.cpp:454] conv2/relu_3x3_reduce <- conv2/3x3_reduce
I0506 13:05:51.980734 18696 net.cpp:397] conv2/relu_3x3_reduce -> conv2/3x3_reduce (in-place)
I0506 13:05:51.984374 18696 net.cpp:150] Setting up conv2/relu_3x3_reduce
I0506 13:05:51.993151 18696 net.cpp:157] Top shape: 140 64 56 56 (28098560)
I0506 13:05:51.996810 18696 net.cpp:165] Memory required for data: 1348730880
I0506 13:05:52.004508 18696 layer_factory.hpp:77] Creating layer conv2/3x3
I0506 13:05:52.004930 18696 net.cpp:106] Creating Layer conv2/3x3
I0506 13:05:52.018983 18696 net.cpp:454] conv2/3x3 <- conv2/3x3_reduce
I0506 13:05:52.026080 18696 net.cpp:411] conv2/3x3 -> conv2/3x3
I0506 13:05:52.031064 18696 net.cpp:150] Setting up conv2/3x3
I0506 13:05:52.047008 18696 net.cpp:157] Top shape: 140 192 56 56 (84295680)
I0506 13:05:52.053831 18696 net.cpp:165] Memory required for data: 1685913600
I0506 13:05:52.059016 18696 layer_factory.hpp:77] Creating layer conv2/relu_3x3
I0506 13:05:52.059427 18696 net.cpp:106] Creating Layer conv2/relu_3x3
I0506 13:05:52.060024 18696 net.cpp:454] conv2/relu_3x3 <- conv2/3x3
I0506 13:05:52.064978 18696 net.cpp:397] conv2/relu_3x3 -> conv2/3x3 (in-place)
I0506 13:05:52.068958 18696 net.cpp:150] Setting up conv2/relu_3x3
I0506 13:05:52.077136 18696 net.cpp:157] Top shape: 140 192 56 56 (84295680)
I0506 13:05:52.084934 18696 net.cpp:165] Memory required for data: 2023096320
I0506 13:05:52.085861 18696 layer_factory.hpp:77] Creating layer conv2/norm2
I0506 13:05:52.089742 18696 net.cpp:106] Creating Layer conv2/norm2
I0506 13:05:52.098812 18696 net.cpp:454] conv2/norm2 <- conv2/3x3
I0506 13:05:52.107439 18696 net.cpp:411] conv2/norm2 -> conv2/norm2
I0506 13:05:52.120650 18696 net.cpp:150] Setting up conv2/norm2
I0506 13:05:52.141013 18696 net.cpp:157] Top shape: 140 192 56 56 (84295680)
I0506 13:05:52.147454 18696 net.cpp:165] Memory required for data: 2360279040
I0506 13:05:52.162598 18696 layer_factory.hpp:77] Creating layer pool2/3x3_s2
I0506 13:05:52.166100 18696 net.cpp:106] Creating Layer pool2/3x3_s2
I0506 13:05:52.177884 18696 net.cpp:454] pool2/3x3_s2 <- conv2/norm2
I0506 13:05:52.187150 18696 net.cpp:411] pool2/3x3_s2 -> pool2/3x3_s2
I0506 13:05:52.190814 18696 net.cpp:150] Setting up pool2/3x3_s2
I0506 13:05:52.199026 18696 net.cpp:157] Top shape: 140 192 28 28 (21073920)
I0506 13:05:52.208371 18696 net.cpp:165] Memory required for data: 2444574720
I0506 13:05:52.214325 18696 layer_factory.hpp:77] Creating layer pool2/3x3_s2_pool2/3x3_s2_0_split
I0506 13:05:52.223371 18696 net.cpp:106] Creating Layer pool2/3x3_s2_pool2/3x3_s2_0_split
I0506 13:05:52.238075 18696 net.cpp:454] pool2/3x3_s2_pool2/3x3_s2_0_split <- pool2/3x3_s2
I0506 13:05:52.254119 18696 net.cpp:411] pool2/3x3_s2_pool2/3x3_s2_0_split -> pool2/3x3_s2_pool2/3x3_s2_0_split_0
I0506 13:05:52.266248 18696 net.cpp:411] pool2/3x3_s2_pool2/3x3_s2_0_split -> pool2/3x3_s2_pool2/3x3_s2_0_split_1
I0506 13:05:52.274292 18696 net.cpp:411] pool2/3x3_s2_pool2/3x3_s2_0_split -> pool2/3x3_s2_pool2/3x3_s2_0_split_2
I0506 13:05:52.278461 18696 net.cpp:411] pool2/3x3_s2_pool2/3x3_s2_0_split -> pool2/3x3_s2_pool2/3x3_s2_0_split_3
I0506 13:05:52.279523 18696 net.cpp:150] Setting up pool2/3x3_s2_pool2/3x3_s2_0_split
I0506 13:05:52.293009 18696 net.cpp:157] Top shape: 140 192 28 28 (21073920)
I0506 13:05:52.311838 18696 net.cpp:157] Top shape: 140 192 28 28 (21073920)
I0506 13:05:52.325474 18696 net.cpp:157] Top shape: 140 192 28 28 (21073920)
I0506 13:05:52.332809 18696 net.cpp:157] Top shape: 140 192 28 28 (21073920)
I0506 13:05:52.341305 18696 net.cpp:165] Memory required for data: 2781757440
I0506 13:05:52.344907 18696 layer_factory.hpp:77] Creating layer inception_3a/1x1
I0506 13:05:52.351444 18696 net.cpp:106] Creating Layer inception_3a/1x1
I0506 13:05:52.366272 18696 net.cpp:454] inception_3a/1x1 <- pool2/3x3_s2_pool2/3x3_s2_0_split_0
I0506 13:05:52.366909 18696 net.cpp:411] inception_3a/1x1 -> inception_3a/1x1
I0506 13:05:52.368785 18696 net.cpp:150] Setting up inception_3a/1x1
I0506 13:05:52.373838 18696 net.cpp:157] Top shape: 140 64 28 28 (7024640)
I0506 13:05:52.389578 18696 net.cpp:165] Memory required for data: 2809856000
I0506 13:05:52.389950 18696 layer_factory.hpp:77] Creating layer inception_3a/relu_1x1
I0506 13:05:52.404686 18696 net.cpp:106] Creating Layer inception_3a/relu_1x1
I0506 13:05:52.413722 18696 net.cpp:454] inception_3a/relu_1x1 <- inception_3a/1x1
I0506 13:05:52.429647 18696 net.cpp:397] inception_3a/relu_1x1 -> inception_3a/1x1 (in-place)
I0506 13:05:52.437682 18696 net.cpp:150] Setting up inception_3a/relu_1x1
I0506 13:05:52.447872 18696 net.cpp:157] Top shape: 140 64 28 28 (7024640)
I0506 13:05:52.457442 18696 net.cpp:165] Memory required for data: 2837954560
I0506 13:05:52.471072 18696 layer_factory.hpp:77] Creating layer inception_3a/3x3_reduce
I0506 13:05:52.482697 18696 net.cpp:106] Creating Layer inception_3a/3x3_reduce
I0506 13:05:52.490145 18696 net.cpp:454] inception_3a/3x3_reduce <- pool2/3x3_s2_pool2/3x3_s2_0_split_1
I0506 13:05:52.507858 18696 net.cpp:411] inception_3a/3x3_reduce -> inception_3a/3x3_reduce
I0506 13:05:52.518332 18696 net.cpp:150] Setting up inception_3a/3x3_reduce
I0506 13:05:52.529748 18696 net.cpp:157] Top shape: 140 96 28 28 (10536960)
I0506 13:05:52.530495 18696 net.cpp:165] Memory required for data: 2880102400
I0506 13:05:52.552681 18696 layer_factory.hpp:77] Creating layer inception_3a/relu_3x3_reduce
I0506 13:05:52.561512 18696 net.cpp:106] Creating Layer inception_3a/relu_3x3_reduce
I0506 13:05:52.567306 18696 net.cpp:454] inception_3a/relu_3x3_reduce <- inception_3a/3x3_reduce
I0506 13:05:52.578894 18696 net.cpp:397] inception_3a/relu_3x3_reduce -> inception_3a/3x3_reduce (in-place)
I0506 13:05:52.583658 18696 net.cpp:150] Setting up inception_3a/relu_3x3_reduce
I0506 13:05:52.587635 18696 net.cpp:157] Top shape: 140 96 28 28 (10536960)
I0506 13:05:52.593459 18696 net.cpp:165] Memory required for data: 2922250240
I0506 13:05:52.593578 18696 layer_factory.hpp:77] Creating layer inception_3a/3x3
I0506 13:05:52.604121 18696 net.cpp:106] Creating Layer inception_3a/3x3
I0506 13:05:52.607887 18696 net.cpp:454] inception_3a/3x3 <- inception_3a/3x3_reduce
I0506 13:05:52.614042 18696 net.cpp:411] inception_3a/3x3 -> inception_3a/3x3
I0506 13:05:52.620304 18696 net.cpp:150] Setting up inception_3a/3x3
I0506 13:05:52.630048 18696 net.cpp:157] Top shape: 140 128 28 28 (14049280)
I0506 13:05:52.647469 18696 net.cpp:165] Memory required for data: 2978447360
I0506 13:05:52.662019 18696 layer_factory.hpp:77] Creating layer inception_3a/relu_3x3
I0506 13:05:52.671486 18696 net.cpp:106] Creating Layer inception_3a/relu_3x3
I0506 13:05:52.681661 18696 net.cpp:454] inception_3a/relu_3x3 <- inception_3a/3x3
I0506 13:05:52.687937 18696 net.cpp:397] inception_3a/relu_3x3 -> inception_3a/3x3 (in-place)
I0506 13:05:52.691159 18696 net.cpp:150] Setting up inception_3a/relu_3x3
I0506 13:05:52.708000 18696 net.cpp:157] Top shape: 140 128 28 28 (14049280)
I0506 13:05:52.708801 18696 net.cpp:165] Memory required for data: 3034644480
I0506 13:05:52.715713 18696 layer_factory.hpp:77] Creating layer inception_3a/5x5_reduce
I0506 13:05:52.723597 18696 net.cpp:106] Creating Layer inception_3a/5x5_reduce
I0506 13:05:52.739212 18696 net.cpp:454] inception_3a/5x5_reduce <- pool2/3x3_s2_pool2/3x3_s2_0_split_2
I0506 13:05:52.753576 18696 net.cpp:411] inception_3a/5x5_reduce -> inception_3a/5x5_reduce
I0506 13:05:52.768131 18696 net.cpp:150] Setting up inception_3a/5x5_reduce
I0506 13:05:52.788718 18696 net.cpp:157] Top shape: 140 16 28 28 (1756160)
I0506 13:05:52.793195 18696 net.cpp:165] Memory required for data: 3041669120
I0506 13:05:52.806432 18696 layer_factory.hpp:77] Creating layer inception_3a/relu_5x5_reduce
I0506 13:05:52.821432 18696 net.cpp:106] Creating Layer inception_3a/relu_5x5_reduce
I0506 13:05:52.831246 18696 net.cpp:454] inception_3a/relu_5x5_reduce <- inception_3a/5x5_reduce
I0506 13:05:52.836293 18696 net.cpp:397] inception_3a/relu_5x5_reduce -> inception_3a/5x5_reduce (in-place)
I0506 13:05:52.852776 18696 net.cpp:150] Setting up inception_3a/relu_5x5_reduce
I0506 13:05:52.872625 18696 net.cpp:157] Top shape: 140 16 28 28 (1756160)
I0506 13:05:52.881355 18696 net.cpp:165] Memory required for data: 3048693760
I0506 13:05:52.881407 18696 layer_factory.hpp:77] Creating layer inception_3a/5x5
I0506 13:05:52.886814 18696 net.cpp:106] Creating Layer inception_3a/5x5
I0506 13:05:52.894268 18696 net.cpp:454] inception_3a/5x5 <- inception_3a/5x5_reduce
I0506 13:05:52.903681 18696 net.cpp:411] inception_3a/5x5 -> inception_3a/5x5
I0506 13:05:52.909142 18696 net.cpp:150] Setting up inception_3a/5x5
I0506 13:05:52.922875 18696 net.cpp:157] Top shape: 140 32 28 28 (3512320)
I0506 13:05:52.928341 18696 net.cpp:165] Memory required for data: 3062743040
I0506 13:05:52.936502 18696 layer_factory.hpp:77] Creating layer inception_3a/relu_5x5
I0506 13:05:52.943672 18696 net.cpp:106] Creating Layer inception_3a/relu_5x5
I0506 13:05:52.950042 18696 net.cpp:454] inception_3a/relu_5x5 <- inception_3a/5x5
I0506 13:05:52.956094 18696 net.cpp:397] inception_3a/relu_5x5 -> inception_3a/5x5 (in-place)
I0506 13:05:52.959417 18696 net.cpp:150] Setting up inception_3a/relu_5x5
I0506 13:05:52.960273 18696 net.cpp:157] Top shape: 140 32 28 28 (3512320)
I0506 13:05:52.976164 18696 net.cpp:165] Memory required for data: 3076792320
I0506 13:05:52.976490 18696 layer_factory.hpp:77] Creating layer inception_3a/pool
I0506 13:05:52.980865 18696 net.cpp:106] Creating Layer inception_3a/pool
I0506 13:05:52.991377 18696 net.cpp:454] inception_3a/pool <- pool2/3x3_s2_pool2/3x3_s2_0_split_3
I0506 13:05:53.003270 18696 net.cpp:411] inception_3a/pool -> inception_3a/pool
I0506 13:05:53.013838 18696 net.cpp:150] Setting up inception_3a/pool
I0506 13:05:53.024253 18696 net.cpp:157] Top shape: 140 192 28 28 (21073920)
I0506 13:05:53.027245 18696 net.cpp:165] Memory required for data: 3161088000
I0506 13:05:53.042304 18696 layer_factory.hpp:77] Creating layer inception_3a/pool_proj
I0506 13:05:53.053071 18696 net.cpp:106] Creating Layer inception_3a/pool_proj
I0506 13:05:53.056915 18696 net.cpp:454] inception_3a/pool_proj <- inception_3a/pool
I0506 13:05:53.061668 18696 net.cpp:411] inception_3a/pool_proj -> inception_3a/pool_proj
I0506 13:05:53.077004 18696 net.cpp:150] Setting up inception_3a/pool_proj
I0506 13:05:53.084187 18696 net.cpp:157] Top shape: 140 32 28 28 (3512320)
I0506 13:05:53.097743 18696 net.cpp:165] Memory required for data: 3175137280
I0506 13:05:53.104701 18696 layer_factory.hpp:77] Creating layer inception_3a/relu_pool_proj
I0506 13:05:53.116736 18696 net.cpp:106] Creating Layer inception_3a/relu_pool_proj
I0506 13:05:53.117527 18696 net.cpp:454] inception_3a/relu_pool_proj <- inception_3a/pool_proj
I0506 13:05:53.121073 18696 net.cpp:397] inception_3a/relu_pool_proj -> inception_3a/pool_proj (in-place)
I0506 13:05:53.140318 18696 net.cpp:150] Setting up inception_3a/relu_pool_proj
I0506 13:05:53.149194 18696 net.cpp:157] Top shape: 140 32 28 28 (3512320)
I0506 13:05:53.159643 18696 net.cpp:165] Memory required for data: 3189186560
I0506 13:05:53.164651 18696 layer_factory.hpp:77] Creating layer inception_3a/output
I0506 13:05:53.175925 18696 net.cpp:106] Creating Layer inception_3a/output
I0506 13:05:53.181905 18696 net.cpp:454] inception_3a/output <- inception_3a/1x1
I0506 13:05:53.182849 18696 net.cpp:454] inception_3a/output <- inception_3a/3x3
I0506 13:05:53.190760 18696 net.cpp:454] inception_3a/output <- inception_3a/5x5
I0506 13:05:53.200778 18696 net.cpp:454] inception_3a/output <- inception_3a/pool_proj
I0506 13:05:53.205224 18696 net.cpp:411] inception_3a/output -> inception_3a/output
I0506 13:05:53.213174 18696 net.cpp:150] Setting up inception_3a/output
I0506 13:05:53.227030 18696 net.cpp:157] Top shape: 140 256 28 28 (28098560)
I0506 13:05:53.237009 18696 net.cpp:165] Memory required for data: 3301580800
I0506 13:05:53.250985 18696 layer_factory.hpp:77] Creating layer inception_3a/output_inception_3a/output_0_split
I0506 13:05:53.261579 18696 net.cpp:106] Creating Layer inception_3a/output_inception_3a/output_0_split
I0506 13:05:53.273030 18696 net.cpp:454] inception_3a/output_inception_3a/output_0_split <- inception_3a/output
I0506 13:05:53.293496 18696 net.cpp:411] inception_3a/output_inception_3a/output_0_split -> inception_3a/output_inception_3a/output_0_split_0
I0506 13:05:53.303551 18696 net.cpp:411] inception_3a/output_inception_3a/output_0_split -> inception_3a/output_inception_3a/output_0_split_1
I0506 13:05:53.311444 18696 net.cpp:411] inception_3a/output_inception_3a/output_0_split -> inception_3a/output_inception_3a/output_0_split_2
I0506 13:05:53.322253 18696 net.cpp:411] inception_3a/output_inception_3a/output_0_split -> inception_3a/output_inception_3a/output_0_split_3
I0506 13:05:53.334130 18696 net.cpp:150] Setting up inception_3a/output_inception_3a/output_0_split
I0506 13:05:53.342768 18696 net.cpp:157] Top shape: 140 256 28 28 (28098560)
I0506 13:05:53.356376 18696 net.cpp:157] Top shape: 140 256 28 28 (28098560)
I0506 13:05:53.374171 18696 net.cpp:157] Top shape: 140 256 28 28 (28098560)
I0506 13:05:53.384496 18696 net.cpp:157] Top shape: 140 256 28 28 (28098560)
I0506 13:05:53.391993 18696 net.cpp:165] Memory required for data: 3751157760
I0506 13:05:53.406858 18696 layer_factory.hpp:77] Creating layer inception_3b/1x1
I0506 13:05:53.410958 18696 net.cpp:106] Creating Layer inception_3b/1x1
I0506 13:05:53.427052 18696 net.cpp:454] inception_3b/1x1 <- inception_3a/output_inception_3a/output_0_split_0
I0506 13:05:53.432600 18696 net.cpp:411] inception_3b/1x1 -> inception_3b/1x1
I0506 13:05:53.452152 18696 net.cpp:150] Setting up inception_3b/1x1
I0506 13:05:53.460520 18696 net.cpp:157] Top shape: 140 128 28 28 (14049280)
I0506 13:05:53.461325 18696 net.cpp:165] Memory required for data: 3807354880
I0506 13:05:53.471184 18696 layer_factory.hpp:77] Creating layer inception_3b/relu_1x1
I0506 13:05:53.488729 18696 net.cpp:106] Creating Layer inception_3b/relu_1x1
I0506 13:05:53.489462 18696 net.cpp:454] inception_3b/relu_1x1 <- inception_3b/1x1
I0506 13:05:53.507863 18696 net.cpp:397] inception_3b/relu_1x1 -> inception_3b/1x1 (in-place)
I0506 13:05:53.516878 18696 net.cpp:150] Setting up inception_3b/relu_1x1
I0506 13:05:53.533393 18696 net.cpp:157] Top shape: 140 128 28 28 (14049280)
I0506 13:05:53.536942 18696 net.cpp:165] Memory required for data: 3863552000
I0506 13:05:53.537482 18696 layer_factory.hpp:77] Creating layer inception_3b/3x3_reduce
I0506 13:05:53.542487 18696 net.cpp:106] Creating Layer inception_3b/3x3_reduce
I0506 13:05:53.545816 18696 net.cpp:454] inception_3b/3x3_reduce <- inception_3a/output_inception_3a/output_0_split_1
I0506 13:05:53.556440 18696 net.cpp:411] inception_3b/3x3_reduce -> inception_3b/3x3_reduce
I0506 13:05:53.564821 18696 net.cpp:150] Setting up inception_3b/3x3_reduce
I0506 13:05:53.567595 18696 net.cpp:157] Top shape: 140 128 28 28 (14049280)
I0506 13:05:53.573174 18696 net.cpp:165] Memory required for data: 3919749120
I0506 13:05:53.574285 18696 layer_factory.hpp:77] Creating layer inception_3b/relu_3x3_reduce
I0506 13:05:53.575659 18696 net.cpp:106] Creating Layer inception_3b/relu_3x3_reduce
I0506 13:05:53.585032 18696 net.cpp:454] inception_3b/relu_3x3_reduce <- inception_3b/3x3_reduce
I0506 13:05:53.590739 18696 net.cpp:397] inception_3b/relu_3x3_reduce -> inception_3b/3x3_reduce (in-place)
I0506 13:05:53.601088 18696 net.cpp:150] Setting up inception_3b/relu_3x3_reduce
I0506 13:05:53.618408 18696 net.cpp:157] Top shape: 140 128 28 28 (14049280)
I0506 13:05:53.627532 18696 net.cpp:165] Memory required for data: 3975946240
I0506 13:05:53.635800 18696 layer_factory.hpp:77] Creating layer inception_3b/3x3
I0506 13:05:53.647995 18696 net.cpp:106] Creating Layer inception_3b/3x3
I0506 13:05:53.651916 18696 net.cpp:454] inception_3b/3x3 <- inception_3b/3x3_reduce
I0506 13:05:53.656786 18696 net.cpp:411] inception_3b/3x3 -> inception_3b/3x3
I0506 13:05:53.659821 18696 net.cpp:150] Setting up inception_3b/3x3
I0506 13:05:53.669548 18696 net.cpp:157] Top shape: 140 192 28 28 (21073920)
I0506 13:05:53.672415 18696 net.cpp:165] Memory required for data: 4060241920
I0506 13:05:53.681859 18696 layer_factory.hpp:77] Creating layer inception_3b/relu_3x3
I0506 13:05:53.686920 18696 net.cpp:106] Creating Layer inception_3b/relu_3x3
I0506 13:05:53.688683 18696 net.cpp:454] inception_3b/relu_3x3 <- inception_3b/3x3
I0506 13:05:53.689443 18696 net.cpp:397] inception_3b/relu_3x3 -> inception_3b/3x3 (in-place)
I0506 13:05:53.692536 18696 net.cpp:150] Setting up inception_3b/relu_3x3
I0506 13:05:53.697556 18696 net.cpp:157] Top shape: 140 192 28 28 (21073920)
I0506 13:05:53.710167 18696 net.cpp:165] Memory required for data: 4144537600
I0506 13:05:53.717576 18696 layer_factory.hpp:77] Creating layer inception_3b/5x5_reduce
I0506 13:05:53.725177 18696 net.cpp:106] Creating Layer inception_3b/5x5_reduce
I0506 13:05:53.740057 18696 net.cpp:454] inception_3b/5x5_reduce <- inception_3a/output_inception_3a/output_0_split_2
I0506 13:05:53.740654 18696 net.cpp:411] inception_3b/5x5_reduce -> inception_3b/5x5_reduce
I0506 13:05:53.745223 18696 net.cpp:150] Setting up inception_3b/5x5_reduce
I0506 13:05:53.746199 18696 net.cpp:157] Top shape: 140 32 28 28 (3512320)
I0506 13:05:53.750174 18696 net.cpp:165] Memory required for data: 4158586880
I0506 13:05:53.753770 18696 layer_factory.hpp:77] Creating layer inception_3b/relu_5x5_reduce
I0506 13:05:53.754127 18696 net.cpp:106] Creating Layer inception_3b/relu_5x5_reduce
I0506 13:05:53.767254 18696 net.cpp:454] inception_3b/relu_5x5_reduce <- inception_3b/5x5_reduce
I0506 13:05:53.776665 18696 net.cpp:397] inception_3b/relu_5x5_reduce -> inception_3b/5x5_reduce (in-place)
I0506 13:05:53.777343 18696 net.cpp:150] Setting up inception_3b/relu_5x5_reduce
I0506 13:05:53.787946 18696 net.cpp:157] Top shape: 140 32 28 28 (3512320)
I0506 13:05:53.798032 18696 net.cpp:165] Memory required for data: 4172636160
I0506 13:05:53.817637 18696 layer_factory.hpp:77] Creating layer inception_3b/5x5
I0506 13:05:53.826798 18696 net.cpp:106] Creating Layer inception_3b/5x5
I0506 13:05:53.831828 18696 net.cpp:454] inception_3b/5x5 <- inception_3b/5x5_reduce
I0506 13:05:53.841399 18696 net.cpp:411] inception_3b/5x5 -> inception_3b/5x5
I0506 13:05:53.850127 18696 net.cpp:150] Setting up inception_3b/5x5
I0506 13:05:53.859946 18696 net.cpp:157] Top shape: 140 96 28 28 (10536960)
I0506 13:05:53.864851 18696 net.cpp:165] Memory required for data: 4214784000
I0506 13:05:53.878736 18696 layer_factory.hpp:77] Creating layer inception_3b/relu_5x5
I0506 13:05:53.888870 18696 net.cpp:106] Creating Layer inception_3b/relu_5x5
I0506 13:05:53.888953 18696 net.cpp:454] inception_3b/relu_5x5 <- inception_3b/5x5
I0506 13:05:53.889006 18696 net.cpp:397] inception_3b/relu_5x5 -> inception_3b/5x5 (in-place)
I0506 13:05:53.897919 18696 net.cpp:150] Setting up inception_3b/relu_5x5
I0506 13:05:53.904639 18696 net.cpp:157] Top shape: 140 96 28 28 (10536960)
I0506 13:05:53.916069 18696 net.cpp:165] Memory required for data: 4256931840
I0506 13:05:53.934430 18696 layer_factory.hpp:77] Creating layer inception_3b/pool
I0506 13:05:53.942420 18696 net.cpp:106] Creating Layer inception_3b/pool
I0506 13:05:53.955168 18696 net.cpp:454] inception_3b/pool <- inception_3a/output_inception_3a/output_0_split_3
I0506 13:05:53.964197 18696 net.cpp:411] inception_3b/pool -> inception_3b/pool
I0506 13:05:53.965425 18696 net.cpp:150] Setting up inception_3b/pool
I0506 13:05:53.972024 18696 net.cpp:157] Top shape: 140 256 28 28 (28098560)
I0506 13:05:53.985679 18696 net.cpp:165] Memory required for data: 4369326080
I0506 13:05:53.998095 18696 layer_factory.hpp:77] Creating layer inception_3b/pool_proj
I0506 13:05:53.998539 18696 net.cpp:106] Creating Layer inception_3b/pool_proj
I0506 13:05:54.002246 18696 net.cpp:454] inception_3b/pool_proj <- inception_3b/pool
I0506 13:05:54.014849 18696 net.cpp:411] inception_3b/pool_proj -> inception_3b/pool_proj
I0506 13:05:54.034550 18696 net.cpp:150] Setting up inception_3b/pool_proj
I0506 13:05:54.039111 18696 net.cpp:157] Top shape: 140 64 28 28 (7024640)
I0506 13:05:54.042103 18696 net.cpp:165] Memory required for data: 4397424640
I0506 13:05:54.052389 18696 layer_factory.hpp:77] Creating layer inception_3b/relu_pool_proj
I0506 13:05:54.065800 18696 net.cpp:106] Creating Layer inception_3b/relu_pool_proj
I0506 13:05:54.076520 18696 net.cpp:454] inception_3b/relu_pool_proj <- inception_3b/pool_proj
I0506 13:05:54.093622 18696 net.cpp:397] inception_3b/relu_pool_proj -> inception_3b/pool_proj (in-place)
I0506 13:05:54.106844 18696 net.cpp:150] Setting up inception_3b/relu_pool_proj
I0506 13:05:54.107306 18696 net.cpp:157] Top shape: 140 64 28 28 (7024640)
I0506 13:05:54.107570 18696 net.cpp:165] Memory required for data: 4425523200
I0506 13:05:54.120723 18696 layer_factory.hpp:77] Creating layer inception_3b/output
I0506 13:05:54.139221 18696 net.cpp:106] Creating Layer inception_3b/output
I0506 13:05:54.143846 18696 net.cpp:454] inception_3b/output <- inception_3b/1x1
I0506 13:05:54.160190 18696 net.cpp:454] inception_3b/output <- inception_3b/3x3
I0506 13:05:54.167675 18696 net.cpp:454] inception_3b/output <- inception_3b/5x5
I0506 13:05:54.175611 18696 net.cpp:454] inception_3b/output <- inception_3b/pool_proj
I0506 13:05:54.182981 18696 net.cpp:411] inception_3b/output -> inception_3b/output
I0506 13:05:54.193056 18696 net.cpp:150] Setting up inception_3b/output
I0506 13:05:54.202620 18696 net.cpp:157] Top shape: 140 480 28 28 (52684800)
I0506 13:05:54.209961 18696 net.cpp:165] Memory required for data: 4636262400
I0506 13:05:54.215587 18696 layer_factory.hpp:77] Creating layer pool3/3x3_s2
I0506 13:05:54.226075 18696 net.cpp:106] Creating Layer pool3/3x3_s2
I0506 13:05:54.233976 18696 net.cpp:454] pool3/3x3_s2 <- inception_3b/output
I0506 13:05:54.251401 18696 net.cpp:411] pool3/3x3_s2 -> pool3/3x3_s2
I0506 13:05:54.265651 18696 net.cpp:150] Setting up pool3/3x3_s2
I0506 13:05:54.268317 18696 net.cpp:157] Top shape: 140 480 14 14 (13171200)
I0506 13:05:54.271482 18696 net.cpp:165] Memory required for data: 4688947200
I0506 13:05:54.290208 18696 layer_factory.hpp:77] Creating layer pool3/3x3_s2_pool3/3x3_s2_0_split
I0506 13:05:54.304396 18696 net.cpp:106] Creating Layer pool3/3x3_s2_pool3/3x3_s2_0_split
I0506 13:05:54.319473 18696 net.cpp:454] pool3/3x3_s2_pool3/3x3_s2_0_split <- pool3/3x3_s2
I0506 13:05:54.332818 18696 net.cpp:411] pool3/3x3_s2_pool3/3x3_s2_0_split -> pool3/3x3_s2_pool3/3x3_s2_0_split_0
I0506 13:05:54.341933 18696 net.cpp:411] pool3/3x3_s2_pool3/3x3_s2_0_split -> pool3/3x3_s2_pool3/3x3_s2_0_split_1
I0506 13:05:54.356539 18696 net.cpp:411] pool3/3x3_s2_pool3/3x3_s2_0_split -> pool3/3x3_s2_pool3/3x3_s2_0_split_2
I0506 13:05:54.366408 18696 net.cpp:411] pool3/3x3_s2_pool3/3x3_s2_0_split -> pool3/3x3_s2_pool3/3x3_s2_0_split_3
I0506 13:05:54.385399 18696 net.cpp:150] Setting up pool3/3x3_s2_pool3/3x3_s2_0_split
I0506 13:05:54.388836 18696 net.cpp:157] Top shape: 140 480 14 14 (13171200)
I0506 13:05:54.395375 18696 net.cpp:157] Top shape: 140 480 14 14 (13171200)
I0506 13:05:54.402575 18696 net.cpp:157] Top shape: 140 480 14 14 (13171200)
I0506 13:05:54.407598 18696 net.cpp:157] Top shape: 140 480 14 14 (13171200)
I0506 13:05:54.421952 18696 net.cpp:165] Memory required for data: 4899686400
I0506 13:05:54.433717 18696 layer_factory.hpp:77] Creating layer inception_4a/1x1
I0506 13:05:54.434713 18696 net.cpp:106] Creating Layer inception_4a/1x1
I0506 13:05:54.438475 18696 net.cpp:454] inception_4a/1x1 <- pool3/3x3_s2_pool3/3x3_s2_0_split_0
I0506 13:05:54.461887 18696 net.cpp:411] inception_4a/1x1 -> inception_4a/1x1
I0506 13:05:54.488870 18696 net.cpp:150] Setting up inception_4a/1x1
I0506 13:05:54.493234 18696 net.cpp:157] Top shape: 140 192 14 14 (5268480)
I0506 13:05:54.502017 18696 net.cpp:165] Memory required for data: 4920760320
I0506 13:05:54.505322 18696 layer_factory.hpp:77] Creating layer inception_4a/relu_1x1
I0506 13:05:54.516008 18696 net.cpp:106] Creating Layer inception_4a/relu_1x1
I0506 13:05:54.531074 18696 net.cpp:454] inception_4a/relu_1x1 <- inception_4a/1x1
I0506 13:05:54.549435 18696 net.cpp:397] inception_4a/relu_1x1 -> inception_4a/1x1 (in-place)
I0506 13:05:54.555029 18696 net.cpp:150] Setting up inception_4a/relu_1x1
I0506 13:05:54.555558 18696 net.cpp:157] Top shape: 140 192 14 14 (5268480)
I0506 13:05:54.570181 18696 net.cpp:165] Memory required for data: 4941834240
I0506 13:05:54.573881 18696 layer_factory.hpp:77] Creating layer inception_4a/3x3_reduce
I0506 13:05:54.584058 18696 net.cpp:106] Creating Layer inception_4a/3x3_reduce
I0506 13:05:54.600653 18696 net.cpp:454] inception_4a/3x3_reduce <- pool3/3x3_s2_pool3/3x3_s2_0_split_1
I0506 13:05:54.604924 18696 net.cpp:411] inception_4a/3x3_reduce -> inception_4a/3x3_reduce
I0506 13:05:54.610210 18696 net.cpp:150] Setting up inception_4a/3x3_reduce
I0506 13:05:54.618978 18696 net.cpp:157] Top shape: 140 96 14 14 (2634240)
I0506 13:05:54.631850 18696 net.cpp:165] Memory required for data: 4952371200
I0506 13:05:54.631985 18696 layer_factory.hpp:77] Creating layer inception_4a/relu_3x3_reduce
I0506 13:05:54.634870 18696 net.cpp:106] Creating Layer inception_4a/relu_3x3_reduce
I0506 13:05:54.642518 18696 net.cpp:454] inception_4a/relu_3x3_reduce <- inception_4a/3x3_reduce
I0506 13:05:54.651861 18696 net.cpp:397] inception_4a/relu_3x3_reduce -> inception_4a/3x3_reduce (in-place)
I0506 13:05:54.653323 18696 net.cpp:150] Setting up inception_4a/relu_3x3_reduce
I0506 13:05:54.674082 18696 net.cpp:157] Top shape: 140 96 14 14 (2634240)
I0506 13:05:54.684013 18696 net.cpp:165] Memory required for data: 4962908160
I0506 13:05:54.700182 18696 layer_factory.hpp:77] Creating layer inception_4a/3x3
I0506 13:05:54.709800 18696 net.cpp:106] Creating Layer inception_4a/3x3
I0506 13:05:54.717461 18696 net.cpp:454] inception_4a/3x3 <- inception_4a/3x3_reduce
I0506 13:05:54.736294 18696 net.cpp:411] inception_4a/3x3 -> inception_4a/3x3
I0506 13:05:54.753418 18696 net.cpp:150] Setting up inception_4a/3x3
I0506 13:05:54.756100 18696 net.cpp:157] Top shape: 140 208 14 14 (5707520)
I0506 13:05:54.761255 18696 net.cpp:165] Memory required for data: 4985738240
I0506 13:05:54.778416 18696 layer_factory.hpp:77] Creating layer inception_4a/relu_3x3
I0506 13:05:54.783071 18696 net.cpp:106] Creating Layer inception_4a/relu_3x3
I0506 13:05:54.790416 18696 net.cpp:454] inception_4a/relu_3x3 <- inception_4a/3x3
I0506 13:05:54.797767 18696 net.cpp:397] inception_4a/relu_3x3 -> inception_4a/3x3 (in-place)
I0506 13:05:54.800768 18696 net.cpp:150] Setting up inception_4a/relu_3x3
I0506 13:05:54.806161 18696 net.cpp:157] Top shape: 140 208 14 14 (5707520)
I0506 13:05:54.820801 18696 net.cpp:165] Memory required for data: 5008568320
I0506 13:05:54.826911 18696 layer_factory.hpp:77] Creating layer inception_4a/5x5_reduce
I0506 13:05:54.837275 18696 net.cpp:106] Creating Layer inception_4a/5x5_reduce
I0506 13:05:54.840312 18696 net.cpp:454] inception_4a/5x5_reduce <- pool3/3x3_s2_pool3/3x3_s2_0_split_2
I0506 13:05:54.841145 18696 net.cpp:411] inception_4a/5x5_reduce -> inception_4a/5x5_reduce
I0506 13:05:54.842607 18696 net.cpp:150] Setting up inception_4a/5x5_reduce
I0506 13:05:54.845850 18696 net.cpp:157] Top shape: 140 16 14 14 (439040)
I0506 13:05:54.855759 18696 net.cpp:165] Memory required for data: 5010324480
I0506 13:05:54.856483 18696 layer_factory.hpp:77] Creating layer inception_4a/relu_5x5_reduce
I0506 13:05:54.871973 18696 net.cpp:106] Creating Layer inception_4a/relu_5x5_reduce
I0506 13:05:54.875180 18696 net.cpp:454] inception_4a/relu_5x5_reduce <- inception_4a/5x5_reduce
I0506 13:05:54.889067 18696 net.cpp:397] inception_4a/relu_5x5_reduce -> inception_4a/5x5_reduce (in-place)
I0506 13:05:54.889905 18696 net.cpp:150] Setting up inception_4a/relu_5x5_reduce
I0506 13:05:54.894181 18696 net.cpp:157] Top shape: 140 16 14 14 (439040)
I0506 13:05:54.894246 18696 net.cpp:165] Memory required for data: 5012080640
I0506 13:05:54.902869 18696 layer_factory.hpp:77] Creating layer inception_4a/5x5
I0506 13:05:54.905423 18696 net.cpp:106] Creating Layer inception_4a/5x5
I0506 13:05:54.918776 18696 net.cpp:454] inception_4a/5x5 <- inception_4a/5x5_reduce
I0506 13:05:54.928031 18696 net.cpp:411] inception_4a/5x5 -> inception_4a/5x5
I0506 13:05:54.939584 18696 net.cpp:150] Setting up inception_4a/5x5
I0506 13:05:54.953130 18696 net.cpp:157] Top shape: 140 48 14 14 (1317120)
I0506 13:05:54.957010 18696 net.cpp:165] Memory required for data: 5017349120
I0506 13:05:54.962030 18696 layer_factory.hpp:77] Creating layer inception_4a/relu_5x5
I0506 13:05:54.974441 18696 net.cpp:106] Creating Layer inception_4a/relu_5x5
I0506 13:05:54.988081 18696 net.cpp:454] inception_4a/relu_5x5 <- inception_4a/5x5
I0506 13:05:55.001807 18696 net.cpp:397] inception_4a/relu_5x5 -> inception_4a/5x5 (in-place)
I0506 13:05:55.013355 18696 net.cpp:150] Setting up inception_4a/relu_5x5
I0506 13:05:55.017529 18696 net.cpp:157] Top shape: 140 48 14 14 (1317120)
I0506 13:05:55.028203 18696 net.cpp:165] Memory required for data: 5022617600
I0506 13:05:55.040720 18696 layer_factory.hpp:77] Creating layer inception_4a/pool
I0506 13:05:55.044139 18696 net.cpp:106] Creating Layer inception_4a/pool
I0506 13:05:55.052016 18696 net.cpp:454] inception_4a/pool <- pool3/3x3_s2_pool3/3x3_s2_0_split_3
I0506 13:05:55.072898 18696 net.cpp:411] inception_4a/pool -> inception_4a/pool
I0506 13:05:55.087826 18696 net.cpp:150] Setting up inception_4a/pool
I0506 13:05:55.097744 18696 net.cpp:157] Top shape: 140 480 14 14 (13171200)
I0506 13:05:55.108319 18696 net.cpp:165] Memory required for data: 5075302400
I0506 13:05:55.112782 18696 layer_factory.hpp:77] Creating layer inception_4a/pool_proj
I0506 13:05:55.118449 18696 net.cpp:106] Creating Layer inception_4a/pool_proj
I0506 13:05:55.132978 18696 net.cpp:454] inception_4a/pool_proj <- inception_4a/pool
I0506 13:05:55.141712 18696 net.cpp:411] inception_4a/pool_proj -> inception_4a/pool_proj
I0506 13:05:55.151222 18696 net.cpp:150] Setting up inception_4a/pool_proj
I0506 13:05:55.151789 18696 net.cpp:157] Top shape: 140 64 14 14 (1756160)
I0506 13:05:55.159904 18696 net.cpp:165] Memory required for data: 5082327040
I0506 13:05:55.167470 18696 layer_factory.hpp:77] Creating layer inception_4a/relu_pool_proj
I0506 13:05:55.173591 18696 net.cpp:106] Creating Layer inception_4a/relu_pool_proj
I0506 13:05:55.185580 18696 net.cpp:454] inception_4a/relu_pool_proj <- inception_4a/pool_proj
I0506 13:05:55.190963 18696 net.cpp:397] inception_4a/relu_pool_proj -> inception_4a/pool_proj (in-place)
I0506 13:05:55.199178 18696 net.cpp:150] Setting up inception_4a/relu_pool_proj
I0506 13:05:55.214038 18696 net.cpp:157] Top shape: 140 64 14 14 (1756160)
I0506 13:05:55.214153 18696 net.cpp:165] Memory required for data: 5089351680
I0506 13:05:55.235450 18696 layer_factory.hpp:77] Creating layer inception_4a/output
I0506 13:05:55.254405 18696 net.cpp:106] Creating Layer inception_4a/output
I0506 13:05:55.265254 18696 net.cpp:454] inception_4a/output <- inception_4a/1x1
I0506 13:05:55.284147 18696 net.cpp:454] inception_4a/output <- inception_4a/3x3
I0506 13:05:55.293489 18696 net.cpp:454] inception_4a/output <- inception_4a/5x5
I0506 13:05:55.308912 18696 net.cpp:454] inception_4a/output <- inception_4a/pool_proj
I0506 13:05:55.309031 18696 net.cpp:411] inception_4a/output -> inception_4a/output
I0506 13:05:55.309741 18696 net.cpp:150] Setting up inception_4a/output
I0506 13:05:55.325588 18696 net.cpp:157] Top shape: 140 512 14 14 (14049280)
I0506 13:05:55.337930 18696 net.cpp:165] Memory required for data: 5145548800
I0506 13:05:55.345600 18696 layer_factory.hpp:77] Creating layer inception_4a/output_inception_4a/output_0_split
I0506 13:05:55.348374 18696 net.cpp:106] Creating Layer inception_4a/output_inception_4a/output_0_split
I0506 13:05:55.364341 18696 net.cpp:454] inception_4a/output_inception_4a/output_0_split <- inception_4a/output
I0506 13:05:55.368845 18696 net.cpp:411] inception_4a/output_inception_4a/output_0_split -> inception_4a/output_inception_4a/output_0_split_0
I0506 13:05:55.372234 18696 net.cpp:411] inception_4a/output_inception_4a/output_0_split -> inception_4a/output_inception_4a/output_0_split_1
I0506 13:05:55.390347 18696 net.cpp:411] inception_4a/output_inception_4a/output_0_split -> inception_4a/output_inception_4a/output_0_split_2
I0506 13:05:55.400044 18696 net.cpp:411] inception_4a/output_inception_4a/output_0_split -> inception_4a/output_inception_4a/output_0_split_3
I0506 13:05:55.400745 18696 net.cpp:150] Setting up inception_4a/output_inception_4a/output_0_split
I0506 13:05:55.401178 18696 net.cpp:157] Top shape: 140 512 14 14 (14049280)
I0506 13:05:55.401434 18696 net.cpp:157] Top shape: 140 512 14 14 (14049280)
I0506 13:05:55.402362 18696 net.cpp:157] Top shape: 140 512 14 14 (14049280)
I0506 13:05:55.402479 18696 net.cpp:157] Top shape: 140 512 14 14 (14049280)
I0506 13:05:55.416378 18696 net.cpp:165] Memory required for data: 5370337280
I0506 13:05:55.419625 18696 layer_factory.hpp:77] Creating layer inception_4b/1x1
I0506 13:05:55.420078 18696 net.cpp:106] Creating Layer inception_4b/1x1
I0506 13:05:55.429589 18696 net.cpp:454] inception_4b/1x1 <- inception_4a/output_inception_4a/output_0_split_0
I0506 13:05:55.443447 18696 net.cpp:411] inception_4b/1x1 -> inception_4b/1x1
I0506 13:05:55.448915 18696 net.cpp:150] Setting up inception_4b/1x1
I0506 13:05:55.454180 18696 net.cpp:157] Top shape: 140 160 14 14 (4390400)
I0506 13:05:55.456940 18696 net.cpp:165] Memory required for data: 5387898880
I0506 13:05:55.463546 18696 layer_factory.hpp:77] Creating layer inception_4b/relu_1x1
I0506 13:05:55.467942 18696 net.cpp:106] Creating Layer inception_4b/relu_1x1
I0506 13:05:55.478200 18696 net.cpp:454] inception_4b/relu_1x1 <- inception_4b/1x1
I0506 13:05:55.490496 18696 net.cpp:397] inception_4b/relu_1x1 -> inception_4b/1x1 (in-place)
I0506 13:05:55.494463 18696 net.cpp:150] Setting up inception_4b/relu_1x1
I0506 13:05:55.499793 18696 net.cpp:157] Top shape: 140 160 14 14 (4390400)
I0506 13:05:55.504833 18696 net.cpp:165] Memory required for data: 5405460480
I0506 13:05:55.510833 18696 layer_factory.hpp:77] Creating layer inception_4b/3x3_reduce
I0506 13:05:55.518257 18696 net.cpp:106] Creating Layer inception_4b/3x3_reduce
I0506 13:05:55.526057 18696 net.cpp:454] inception_4b/3x3_reduce <- inception_4a/output_inception_4a/output_0_split_1
I0506 13:05:55.529892 18696 net.cpp:411] inception_4b/3x3_reduce -> inception_4b/3x3_reduce
I0506 13:05:55.540513 18696 net.cpp:150] Setting up inception_4b/3x3_reduce
I0506 13:05:55.548607 18696 net.cpp:157] Top shape: 140 112 14 14 (3073280)
I0506 13:05:55.566779 18696 net.cpp:165] Memory required for data: 5417753600
I0506 13:05:55.567188 18696 layer_factory.hpp:77] Creating layer inception_4b/relu_3x3_reduce
I0506 13:05:55.576916 18696 net.cpp:106] Creating Layer inception_4b/relu_3x3_reduce
I0506 13:05:55.581655 18696 net.cpp:454] inception_4b/relu_3x3_reduce <- inception_4b/3x3_reduce
I0506 13:05:55.595082 18696 net.cpp:397] inception_4b/relu_3x3_reduce -> inception_4b/3x3_reduce (in-place)
I0506 13:05:55.605355 18696 net.cpp:150] Setting up inception_4b/relu_3x3_reduce
I0506 13:05:55.611187 18696 net.cpp:157] Top shape: 140 112 14 14 (3073280)
I0506 13:05:55.619730 18696 net.cpp:165] Memory required for data: 5430046720
I0506 13:05:55.627142 18696 layer_factory.hpp:77] Creating layer inception_4b/3x3
I0506 13:05:55.630926 18696 net.cpp:106] Creating Layer inception_4b/3x3
I0506 13:05:55.642941 18696 net.cpp:454] inception_4b/3x3 <- inception_4b/3x3_reduce
I0506 13:05:55.643420 18696 net.cpp:411] inception_4b/3x3 -> inception_4b/3x3
I0506 13:05:55.659060 18696 net.cpp:150] Setting up inception_4b/3x3
I0506 13:05:55.659615 18696 net.cpp:157] Top shape: 140 224 14 14 (6146560)
I0506 13:05:55.669986 18696 net.cpp:165] Memory required for data: 5454632960
I0506 13:05:55.670111 18696 layer_factory.hpp:77] Creating layer inception_4b/relu_3x3
I0506 13:05:55.670230 18696 net.cpp:106] Creating Layer inception_4b/relu_3x3
I0506 13:05:55.683765 18696 net.cpp:454] inception_4b/relu_3x3 <- inception_4b/3x3
I0506 13:05:55.688522 18696 net.cpp:397] inception_4b/relu_3x3 -> inception_4b/3x3 (in-place)
I0506 13:05:55.692827 18696 net.cpp:150] Setting up inception_4b/relu_3x3
I0506 13:05:55.700860 18696 net.cpp:157] Top shape: 140 224 14 14 (6146560)
I0506 13:05:55.709985 18696 net.cpp:165] Memory required for data: 5479219200
I0506 13:05:55.715556 18696 layer_factory.hpp:77] Creating layer inception_4b/5x5_reduce
I0506 13:05:55.719590 18696 net.cpp:106] Creating Layer inception_4b/5x5_reduce
I0506 13:05:55.719712 18696 net.cpp:454] inception_4b/5x5_reduce <- inception_4a/output_inception_4a/output_0_split_2
I0506 13:05:55.732197 18696 net.cpp:411] inception_4b/5x5_reduce -> inception_4b/5x5_reduce
I0506 13:05:55.740006 18696 net.cpp:150] Setting up inception_4b/5x5_reduce
I0506 13:05:55.750434 18696 net.cpp:157] Top shape: 140 24 14 14 (658560)
I0506 13:05:55.759387 18696 net.cpp:165] Memory required for data: 5481853440
I0506 13:05:55.771464 18696 layer_factory.hpp:77] Creating layer inception_4b/relu_5x5_reduce
I0506 13:05:55.781345 18696 net.cpp:106] Creating Layer inception_4b/relu_5x5_reduce
I0506 13:05:55.791007 18696 net.cpp:454] inception_4b/relu_5x5_reduce <- inception_4b/5x5_reduce
I0506 13:05:55.801079 18696 net.cpp:397] inception_4b/relu_5x5_reduce -> inception_4b/5x5_reduce (in-place)
I0506 13:05:55.807194 18696 net.cpp:150] Setting up inception_4b/relu_5x5_reduce
I0506 13:05:55.816622 18696 net.cpp:157] Top shape: 140 24 14 14 (658560)
I0506 13:05:55.829311 18696 net.cpp:165] Memory required for data: 5484487680
I0506 13:05:55.838841 18696 layer_factory.hpp:77] Creating layer inception_4b/5x5
I0506 13:05:55.845166 18696 net.cpp:106] Creating Layer inception_4b/5x5
I0506 13:05:55.859144 18696 net.cpp:454] inception_4b/5x5 <- inception_4b/5x5_reduce
I0506 13:05:55.872895 18696 net.cpp:411] inception_4b/5x5 -> inception_4b/5x5
I0506 13:05:55.884673 18696 net.cpp:150] Setting up inception_4b/5x5
I0506 13:05:55.886540 18696 net.cpp:157] Top shape: 140 64 14 14 (1756160)
I0506 13:05:55.890326 18696 net.cpp:165] Memory required for data: 5491512320
I0506 13:05:55.895154 18696 layer_factory.hpp:77] Creating layer inception_4b/relu_5x5
I0506 13:05:55.895225 18696 net.cpp:106] Creating Layer inception_4b/relu_5x5
I0506 13:05:55.908397 18696 net.cpp:454] inception_4b/relu_5x5 <- inception_4b/5x5
I0506 13:05:55.916837 18696 net.cpp:397] inception_4b/relu_5x5 -> inception_4b/5x5 (in-place)
I0506 13:05:55.923544 18696 net.cpp:150] Setting up inception_4b/relu_5x5
I0506 13:05:55.932445 18696 net.cpp:157] Top shape: 140 64 14 14 (1756160)
I0506 13:05:55.948674 18696 net.cpp:165] Memory required for data: 5498536960
I0506 13:05:55.961848 18696 layer_factory.hpp:77] Creating layer inception_4b/pool
I0506 13:05:55.964357 18696 net.cpp:106] Creating Layer inception_4b/pool
I0506 13:05:55.971979 18696 net.cpp:454] inception_4b/pool <- inception_4a/output_inception_4a/output_0_split_3
I0506 13:05:55.992139 18696 net.cpp:411] inception_4b/pool -> inception_4b/pool
I0506 13:05:56.005267 18696 net.cpp:150] Setting up inception_4b/pool
I0506 13:05:56.005710 18696 net.cpp:157] Top shape: 140 512 14 14 (14049280)
I0506 13:05:56.006523 18696 net.cpp:165] Memory required for data: 5554734080
I0506 13:05:56.012333 18696 layer_factory.hpp:77] Creating layer inception_4b/pool_proj
I0506 13:05:56.026027 18696 net.cpp:106] Creating Layer inception_4b/pool_proj
I0506 13:05:56.037017 18696 net.cpp:454] inception_4b/pool_proj <- inception_4b/pool
I0506 13:05:56.042040 18696 net.cpp:411] inception_4b/pool_proj -> inception_4b/pool_proj
I0506 13:05:56.059538 18696 net.cpp:150] Setting up inception_4b/pool_proj
I0506 13:05:56.067456 18696 net.cpp:157] Top shape: 140 64 14 14 (1756160)
I0506 13:05:56.071529 18696 net.cpp:165] Memory required for data: 5561758720
I0506 13:05:56.086066 18696 layer_factory.hpp:77] Creating layer inception_4b/relu_pool_proj
I0506 13:05:56.090893 18696 net.cpp:106] Creating Layer inception_4b/relu_pool_proj
I0506 13:05:56.105327 18696 net.cpp:454] inception_4b/relu_pool_proj <- inception_4b/pool_proj
I0506 13:05:56.109118 18696 net.cpp:397] inception_4b/relu_pool_proj -> inception_4b/pool_proj (in-place)
I0506 13:05:56.123288 18696 net.cpp:150] Setting up inception_4b/relu_pool_proj
I0506 13:05:56.134254 18696 net.cpp:157] Top shape: 140 64 14 14 (1756160)
I0506 13:05:56.141160 18696 net.cpp:165] Memory required for data: 5568783360
I0506 13:05:56.154652 18696 layer_factory.hpp:77] Creating layer inception_4b/output
I0506 13:05:56.160202 18696 net.cpp:106] Creating Layer inception_4b/output
I0506 13:05:56.161185 18696 net.cpp:454] inception_4b/output <- inception_4b/1x1
I0506 13:05:56.162154 18696 net.cpp:454] inception_4b/output <- inception_4b/3x3
I0506 13:05:56.166082 18696 net.cpp:454] inception_4b/output <- inception_4b/5x5
I0506 13:05:56.172143 18696 net.cpp:454] inception_4b/output <- inception_4b/pool_proj
I0506 13:05:56.176750 18696 net.cpp:411] inception_4b/output -> inception_4b/output
I0506 13:05:56.184728 18696 net.cpp:150] Setting up inception_4b/output
I0506 13:05:56.195794 18696 net.cpp:157] Top shape: 140 512 14 14 (14049280)
I0506 13:05:56.200685 18696 net.cpp:165] Memory required for data: 5624980480
I0506 13:05:56.203733 18696 layer_factory.hpp:77] Creating layer inception_4b/output_inception_4b/output_0_split
I0506 13:05:56.214859 18696 net.cpp:106] Creating Layer inception_4b/output_inception_4b/output_0_split
I0506 13:05:56.222270 18696 net.cpp:454] inception_4b/output_inception_4b/output_0_split <- inception_4b/output
I0506 13:05:56.242044 18696 net.cpp:411] inception_4b/output_inception_4b/output_0_split -> inception_4b/output_inception_4b/output_0_split_0
I0506 13:05:56.242470 18696 net.cpp:411] inception_4b/output_inception_4b/output_0_split -> inception_4b/output_inception_4b/output_0_split_1
I0506 13:05:56.251482 18696 net.cpp:411] inception_4b/output_inception_4b/output_0_split -> inception_4b/output_inception_4b/output_0_split_2
I0506 13:05:56.270535 18696 net.cpp:411] inception_4b/output_inception_4b/output_0_split -> inception_4b/output_inception_4b/output_0_split_3
I0506 13:05:56.283529 18696 net.cpp:150] Setting up inception_4b/output_inception_4b/output_0_split
I0506 13:05:56.289096 18696 net.cpp:157] Top shape: 140 512 14 14 (14049280)
I0506 13:05:56.307770 18696 net.cpp:157] Top shape: 140 512 14 14 (14049280)
I0506 13:05:56.315102 18696 net.cpp:157] Top shape: 140 512 14 14 (14049280)
I0506 13:05:56.319972 18696 net.cpp:157] Top shape: 140 512 14 14 (14049280)
I0506 13:05:56.337510 18696 net.cpp:165] Memory required for data: 5849768960
I0506 13:05:56.346242 18696 layer_factory.hpp:77] Creating layer inception_4c/1x1
I0506 13:05:56.355947 18696 net.cpp:106] Creating Layer inception_4c/1x1
I0506 13:05:56.361440 18696 net.cpp:454] inception_4c/1x1 <- inception_4b/output_inception_4b/output_0_split_0
I0506 13:05:56.369420 18696 net.cpp:411] inception_4c/1x1 -> inception_4c/1x1
I0506 13:05:56.371440 18696 net.cpp:150] Setting up inception_4c/1x1
I0506 13:05:56.390449 18696 net.cpp:157] Top shape: 140 128 14 14 (3512320)
I0506 13:05:56.397776 18696 net.cpp:165] Memory required for data: 5863818240
I0506 13:05:56.401485 18696 layer_factory.hpp:77] Creating layer inception_4c/relu_1x1
I0506 13:05:56.407254 18696 net.cpp:106] Creating Layer inception_4c/relu_1x1
I0506 13:05:56.421686 18696 net.cpp:454] inception_4c/relu_1x1 <- inception_4c/1x1
I0506 13:05:56.428879 18696 net.cpp:397] inception_4c/relu_1x1 -> inception_4c/1x1 (in-place)
I0506 13:05:56.443831 18696 net.cpp:150] Setting up inception_4c/relu_1x1
I0506 13:05:56.444280 18696 net.cpp:157] Top shape: 140 128 14 14 (3512320)
I0506 13:05:56.454536 18696 net.cpp:165] Memory required for data: 5877867520
I0506 13:05:56.461520 18696 layer_factory.hpp:77] Creating layer inception_4c/3x3_reduce
I0506 13:05:56.461856 18696 net.cpp:106] Creating Layer inception_4c/3x3_reduce
I0506 13:05:56.462853 18696 net.cpp:454] inception_4c/3x3_reduce <- inception_4b/output_inception_4b/output_0_split_1
I0506 13:05:56.476302 18696 net.cpp:411] inception_4c/3x3_reduce -> inception_4c/3x3_reduce
I0506 13:05:56.487118 18696 net.cpp:150] Setting up inception_4c/3x3_reduce
I0506 13:05:56.497107 18696 net.cpp:157] Top shape: 140 128 14 14 (3512320)
I0506 13:05:56.504878 18696 net.cpp:165] Memory required for data: 5891916800
I0506 13:05:56.529886 18696 layer_factory.hpp:77] Creating layer inception_4c/relu_3x3_reduce
I0506 13:05:56.544322 18696 net.cpp:106] Creating Layer inception_4c/relu_3x3_reduce
I0506 13:05:56.555693 18696 net.cpp:454] inception_4c/relu_3x3_reduce <- inception_4c/3x3_reduce
I0506 13:05:56.563622 18696 net.cpp:397] inception_4c/relu_3x3_reduce -> inception_4c/3x3_reduce (in-place)
I0506 13:05:56.576426 18696 net.cpp:150] Setting up inception_4c/relu_3x3_reduce
I0506 13:05:56.576993 18696 net.cpp:157] Top shape: 140 128 14 14 (3512320)
I0506 13:05:56.580126 18696 net.cpp:165] Memory required for data: 5905966080
I0506 13:05:56.591742 18696 layer_factory.hpp:77] Creating layer inception_4c/3x3
I0506 13:05:56.597792 18696 net.cpp:106] Creating Layer inception_4c/3x3
I0506 13:05:56.600733 18696 net.cpp:454] inception_4c/3x3 <- inception_4c/3x3_reduce
I0506 13:05:56.612609 18696 net.cpp:411] inception_4c/3x3 -> inception_4c/3x3
I0506 13:05:56.619683 18696 net.cpp:150] Setting up inception_4c/3x3
I0506 13:05:56.626410 18696 net.cpp:157] Top shape: 140 256 14 14 (7024640)
I0506 13:05:56.636466 18696 net.cpp:165] Memory required for data: 5934064640
I0506 13:05:56.637004 18696 layer_factory.hpp:77] Creating layer inception_4c/relu_3x3
I0506 13:05:56.642693 18696 net.cpp:106] Creating Layer inception_4c/relu_3x3
I0506 13:05:56.642817 18696 net.cpp:454] inception_4c/relu_3x3 <- inception_4c/3x3
I0506 13:05:56.653067 18696 net.cpp:397] inception_4c/relu_3x3 -> inception_4c/3x3 (in-place)
I0506 13:05:56.659792 18696 net.cpp:150] Setting up inception_4c/relu_3x3
I0506 13:05:56.672015 18696 net.cpp:157] Top shape: 140 256 14 14 (7024640)
I0506 13:05:56.683437 18696 net.cpp:165] Memory required for data: 5962163200
I0506 13:05:56.699517 18696 layer_factory.hpp:77] Creating layer inception_4c/5x5_reduce
I0506 13:05:56.711815 18696 net.cpp:106] Creating Layer inception_4c/5x5_reduce
I0506 13:05:56.717411 18696 net.cpp:454] inception_4c/5x5_reduce <- inception_4b/output_inception_4b/output_0_split_2
I0506 13:05:56.718334 18696 net.cpp:411] inception_4c/5x5_reduce -> inception_4c/5x5_reduce
I0506 13:05:56.731570 18696 net.cpp:150] Setting up inception_4c/5x5_reduce
I0506 13:05:56.743800 18696 net.cpp:157] Top shape: 140 24 14 14 (658560)
I0506 13:05:56.744113 18696 net.cpp:165] Memory required for data: 5964797440
I0506 13:05:56.761013 18696 layer_factory.hpp:77] Creating layer inception_4c/relu_5x5_reduce
I0506 13:05:56.761502 18696 net.cpp:106] Creating Layer inception_4c/relu_5x5_reduce
I0506 13:05:56.780707 18696 net.cpp:454] inception_4c/relu_5x5_reduce <- inception_4c/5x5_reduce
I0506 13:05:56.792040 18696 net.cpp:397] inception_4c/relu_5x5_reduce -> inception_4c/5x5_reduce (in-place)
I0506 13:05:56.792346 18696 net.cpp:150] Setting up inception_4c/relu_5x5_reduce
I0506 13:05:56.796692 18696 net.cpp:157] Top shape: 140 24 14 14 (658560)
I0506 13:05:56.805445 18696 net.cpp:165] Memory required for data: 5967431680
I0506 13:05:56.825196 18696 layer_factory.hpp:77] Creating layer inception_4c/5x5
I0506 13:05:56.831377 18696 net.cpp:106] Creating Layer inception_4c/5x5
I0506 13:05:56.842640 18696 net.cpp:454] inception_4c/5x5 <- inception_4c/5x5_reduce
I0506 13:05:56.861098 18696 net.cpp:411] inception_4c/5x5 -> inception_4c/5x5
I0506 13:05:56.869992 18696 net.cpp:150] Setting up inception_4c/5x5
I0506 13:05:56.870962 18696 net.cpp:157] Top shape: 140 64 14 14 (1756160)
I0506 13:05:56.873890 18696 net.cpp:165] Memory required for data: 5974456320
I0506 13:05:56.874279 18696 layer_factory.hpp:77] Creating layer inception_4c/relu_5x5
I0506 13:05:56.882999 18696 net.cpp:106] Creating Layer inception_4c/relu_5x5
I0506 13:05:56.889493 18696 net.cpp:454] inception_4c/relu_5x5 <- inception_4c/5x5
I0506 13:05:56.903867 18696 net.cpp:397] inception_4c/relu_5x5 -> inception_4c/5x5 (in-place)
I0506 13:05:56.904224 18696 net.cpp:150] Setting up inception_4c/relu_5x5
I0506 13:05:56.910538 18696 net.cpp:157] Top shape: 140 64 14 14 (1756160)
I0506 13:05:56.921653 18696 net.cpp:165] Memory required for data: 5981480960
I0506 13:05:56.936933 18696 layer_factory.hpp:77] Creating layer inception_4c/pool
I0506 13:05:56.947974 18696 net.cpp:106] Creating Layer inception_4c/pool
I0506 13:05:56.962507 18696 net.cpp:454] inception_4c/pool <- inception_4b/output_inception_4b/output_0_split_3
I0506 13:05:56.970851 18696 net.cpp:411] inception_4c/pool -> inception_4c/pool
I0506 13:05:56.974853 18696 net.cpp:150] Setting up inception_4c/pool
I0506 13:05:56.984990 18696 net.cpp:157] Top shape: 140 512 14 14 (14049280)
I0506 13:05:56.998409 18696 net.cpp:165] Memory required for data: 6037678080
I0506 13:05:57.008888 18696 layer_factory.hpp:77] Creating layer inception_4c/pool_proj
I0506 13:05:57.019666 18696 net.cpp:106] Creating Layer inception_4c/pool_proj
I0506 13:05:57.028717 18696 net.cpp:454] inception_4c/pool_proj <- inception_4c/pool
I0506 13:05:57.034152 18696 net.cpp:411] inception_4c/pool_proj -> inception_4c/pool_proj
I0506 13:05:57.042315 18696 net.cpp:150] Setting up inception_4c/pool_proj
I0506 13:05:57.049762 18696 net.cpp:157] Top shape: 140 64 14 14 (1756160)
I0506 13:05:57.052773 18696 net.cpp:165] Memory required for data: 6044702720
I0506 13:05:57.062150 18696 layer_factory.hpp:77] Creating layer inception_4c/relu_pool_proj
I0506 13:05:57.077711 18696 net.cpp:106] Creating Layer inception_4c/relu_pool_proj
I0506 13:05:57.088156 18696 net.cpp:454] inception_4c/relu_pool_proj <- inception_4c/pool_proj
I0506 13:05:57.088431 18696 net.cpp:397] inception_4c/relu_pool_proj -> inception_4c/pool_proj (in-place)
I0506 13:05:57.097535 18696 net.cpp:150] Setting up inception_4c/relu_pool_proj
I0506 13:05:57.110275 18696 net.cpp:157] Top shape: 140 64 14 14 (1756160)
I0506 13:05:57.124111 18696 net.cpp:165] Memory required for data: 6051727360
I0506 13:05:57.127733 18696 layer_factory.hpp:77] Creating layer inception_4c/output
I0506 13:05:57.139173 18696 net.cpp:106] Creating Layer inception_4c/output
I0506 13:05:57.147986 18696 net.cpp:454] inception_4c/output <- inception_4c/1x1
I0506 13:05:57.148368 18696 net.cpp:454] inception_4c/output <- inception_4c/3x3
I0506 13:05:57.156505 18696 net.cpp:454] inception_4c/output <- inception_4c/5x5
I0506 13:05:57.169301 18696 net.cpp:454] inception_4c/output <- inception_4c/pool_proj
I0506 13:05:57.174935 18696 net.cpp:411] inception_4c/output -> inception_4c/output
I0506 13:05:57.191313 18696 net.cpp:150] Setting up inception_4c/output
I0506 13:05:57.211447 18696 net.cpp:157] Top shape: 140 512 14 14 (14049280)
I0506 13:05:57.220665 18696 net.cpp:165] Memory required for data: 6107924480
I0506 13:05:57.225636 18696 layer_factory.hpp:77] Creating layer inception_4c/output_inception_4c/output_0_split
I0506 13:05:57.231396 18696 net.cpp:106] Creating Layer inception_4c/output_inception_4c/output_0_split
I0506 13:05:57.250290 18696 net.cpp:454] inception_4c/output_inception_4c/output_0_split <- inception_4c/output
I0506 13:05:57.260567 18696 net.cpp:411] inception_4c/output_inception_4c/output_0_split -> inception_4c/output_inception_4c/output_0_split_0
I0506 13:05:57.263523 18696 net.cpp:411] inception_4c/output_inception_4c/output_0_split -> inception_4c/output_inception_4c/output_0_split_1
I0506 13:05:57.270577 18696 net.cpp:411] inception_4c/output_inception_4c/output_0_split -> inception_4c/output_inception_4c/output_0_split_2
I0506 13:05:57.275984 18696 net.cpp:411] inception_4c/output_inception_4c/output_0_split -> inception_4c/output_inception_4c/output_0_split_3
I0506 13:05:57.284061 18696 net.cpp:150] Setting up inception_4c/output_inception_4c/output_0_split
I0506 13:05:57.293699 18696 net.cpp:157] Top shape: 140 512 14 14 (14049280)
I0506 13:05:57.307394 18696 net.cpp:157] Top shape: 140 512 14 14 (14049280)
I0506 13:05:57.315944 18696 net.cpp:157] Top shape: 140 512 14 14 (14049280)
I0506 13:05:57.324538 18696 net.cpp:157] Top shape: 140 512 14 14 (14049280)
I0506 13:05:57.339792 18696 net.cpp:165] Memory required for data: 6332712960
I0506 13:05:57.348014 18696 layer_factory.hpp:77] Creating layer inception_4d/1x1
I0506 13:05:57.363963 18696 net.cpp:106] Creating Layer inception_4d/1x1
I0506 13:05:57.364305 18696 net.cpp:454] inception_4d/1x1 <- inception_4c/output_inception_4c/output_0_split_0
I0506 13:05:57.364931 18696 net.cpp:411] inception_4d/1x1 -> inception_4d/1x1
I0506 13:05:57.383754 18696 net.cpp:150] Setting up inception_4d/1x1
I0506 13:05:57.390650 18696 net.cpp:157] Top shape: 140 112 14 14 (3073280)
I0506 13:05:57.397234 18696 net.cpp:165] Memory required for data: 6345006080
I0506 13:05:57.399958 18696 layer_factory.hpp:77] Creating layer inception_4d/relu_1x1
I0506 13:05:57.411190 18696 net.cpp:106] Creating Layer inception_4d/relu_1x1
I0506 13:05:57.432021 18696 net.cpp:454] inception_4d/relu_1x1 <- inception_4d/1x1
I0506 13:05:57.437470 18696 net.cpp:397] inception_4d/relu_1x1 -> inception_4d/1x1 (in-place)
I0506 13:05:57.452877 18696 net.cpp:150] Setting up inception_4d/relu_1x1
I0506 13:05:57.459415 18696 net.cpp:157] Top shape: 140 112 14 14 (3073280)
I0506 13:05:57.466986 18696 net.cpp:165] Memory required for data: 6357299200
I0506 13:05:57.474792 18696 layer_factory.hpp:77] Creating layer inception_4d/3x3_reduce
I0506 13:05:57.485201 18696 net.cpp:106] Creating Layer inception_4d/3x3_reduce
I0506 13:05:57.491493 18696 net.cpp:454] inception_4d/3x3_reduce <- inception_4c/output_inception_4c/output_0_split_1
I0506 13:05:57.497195 18696 net.cpp:411] inception_4d/3x3_reduce -> inception_4d/3x3_reduce
I0506 13:05:57.510906 18696 net.cpp:150] Setting up inception_4d/3x3_reduce
I0506 13:05:57.511504 18696 net.cpp:157] Top shape: 140 144 14 14 (3951360)
I0506 13:05:57.523344 18696 net.cpp:165] Memory required for data: 6373104640
I0506 13:05:57.538187 18696 layer_factory.hpp:77] Creating layer inception_4d/relu_3x3_reduce
I0506 13:05:57.547967 18696 net.cpp:106] Creating Layer inception_4d/relu_3x3_reduce
I0506 13:05:57.550439 18696 net.cpp:454] inception_4d/relu_3x3_reduce <- inception_4d/3x3_reduce
I0506 13:05:57.551038 18696 net.cpp:397] inception_4d/relu_3x3_reduce -> inception_4d/3x3_reduce (in-place)
I0506 13:05:57.558796 18696 net.cpp:150] Setting up inception_4d/relu_3x3_reduce
I0506 13:05:57.561050 18696 net.cpp:157] Top shape: 140 144 14 14 (3951360)
I0506 13:05:57.568914 18696 net.cpp:165] Memory required for data: 6388910080
I0506 13:05:57.572304 18696 layer_factory.hpp:77] Creating layer inception_4d/3x3
I0506 13:05:57.581069 18696 net.cpp:106] Creating Layer inception_4d/3x3
I0506 13:05:57.597290 18696 net.cpp:454] inception_4d/3x3 <- inception_4d/3x3_reduce
I0506 13:05:57.600651 18696 net.cpp:411] inception_4d/3x3 -> inception_4d/3x3
I0506 13:05:57.610020 18696 net.cpp:150] Setting up inception_4d/3x3
I0506 13:05:57.617938 18696 net.cpp:157] Top shape: 140 288 14 14 (7902720)
I0506 13:05:57.624598 18696 net.cpp:165] Memory required for data: 6420520960
I0506 13:05:57.636008 18696 layer_factory.hpp:77] Creating layer inception_4d/relu_3x3
I0506 13:05:57.645778 18696 net.cpp:106] Creating Layer inception_4d/relu_3x3
I0506 13:05:57.657840 18696 net.cpp:454] inception_4d/relu_3x3 <- inception_4d/3x3
I0506 13:05:57.668156 18696 net.cpp:397] inception_4d/relu_3x3 -> inception_4d/3x3 (in-place)
I0506 13:05:57.676475 18696 net.cpp:150] Setting up inception_4d/relu_3x3
I0506 13:05:57.697203 18696 net.cpp:157] Top shape: 140 288 14 14 (7902720)
I0506 13:05:57.714047 18696 net.cpp:165] Memory required for data: 6452131840
I0506 13:05:57.714599 18696 layer_factory.hpp:77] Creating layer inception_4d/5x5_reduce
I0506 13:05:57.715131 18696 net.cpp:106] Creating Layer inception_4d/5x5_reduce
I0506 13:05:57.722599 18696 net.cpp:454] inception_4d/5x5_reduce <- inception_4c/output_inception_4c/output_0_split_2
I0506 13:05:57.733861 18696 net.cpp:411] inception_4d/5x5_reduce -> inception_4d/5x5_reduce
I0506 13:05:57.735319 18696 net.cpp:150] Setting up inception_4d/5x5_reduce
I0506 13:05:57.750777 18696 net.cpp:157] Top shape: 140 32 14 14 (878080)
I0506 13:05:57.759960 18696 net.cpp:165] Memory required for data: 6455644160
I0506 13:05:57.770259 18696 layer_factory.hpp:77] Creating layer inception_4d/relu_5x5_reduce
I0506 13:05:57.776018 18696 net.cpp:106] Creating Layer inception_4d/relu_5x5_reduce
I0506 13:05:57.786886 18696 net.cpp:454] inception_4d/relu_5x5_reduce <- inception_4d/5x5_reduce
I0506 13:05:57.787482 18696 net.cpp:397] inception_4d/relu_5x5_reduce -> inception_4d/5x5_reduce (in-place)
I0506 13:05:57.798415 18696 net.cpp:150] Setting up inception_4d/relu_5x5_reduce
I0506 13:05:57.811908 18696 net.cpp:157] Top shape: 140 32 14 14 (878080)
I0506 13:05:57.828225 18696 net.cpp:165] Memory required for data: 6459156480
I0506 13:05:57.835819 18696 layer_factory.hpp:77] Creating layer inception_4d/5x5
I0506 13:05:57.850674 18696 net.cpp:106] Creating Layer inception_4d/5x5
I0506 13:05:57.860211 18696 net.cpp:454] inception_4d/5x5 <- inception_4d/5x5_reduce
I0506 13:05:57.867573 18696 net.cpp:411] inception_4d/5x5 -> inception_4d/5x5
I0506 13:05:57.874167 18696 net.cpp:150] Setting up inception_4d/5x5
I0506 13:05:57.880846 18696 net.cpp:157] Top shape: 140 64 14 14 (1756160)
I0506 13:05:57.884064 18696 net.cpp:165] Memory required for data: 6466181120
I0506 13:05:57.893995 18696 layer_factory.hpp:77] Creating layer inception_4d/relu_5x5
I0506 13:05:57.901749 18696 net.cpp:106] Creating Layer inception_4d/relu_5x5
I0506 13:05:57.905683 18696 net.cpp:454] inception_4d/relu_5x5 <- inception_4d/5x5
I0506 13:05:57.906579 18696 net.cpp:397] inception_4d/relu_5x5 -> inception_4d/5x5 (in-place)
I0506 13:05:57.906831 18696 net.cpp:150] Setting up inception_4d/relu_5x5
I0506 13:05:57.921638 18696 net.cpp:157] Top shape: 140 64 14 14 (1756160)
I0506 13:05:57.935791 18696 net.cpp:165] Memory required for data: 6473205760
I0506 13:05:57.946651 18696 layer_factory.hpp:77] Creating layer inception_4d/pool
I0506 13:05:57.948820 18696 net.cpp:106] Creating Layer inception_4d/pool
I0506 13:05:57.953407 18696 net.cpp:454] inception_4d/pool <- inception_4c/output_inception_4c/output_0_split_3
I0506 13:05:57.957628 18696 net.cpp:411] inception_4d/pool -> inception_4d/pool
I0506 13:05:57.976613 18696 net.cpp:150] Setting up inception_4d/pool
I0506 13:05:57.983047 18696 net.cpp:157] Top shape: 140 512 14 14 (14049280)
I0506 13:05:57.996922 18696 net.cpp:165] Memory required for data: 6529402880
I0506 13:05:57.997990 18696 layer_factory.hpp:77] Creating layer inception_4d/pool_proj
I0506 13:05:58.005791 18696 net.cpp:106] Creating Layer inception_4d/pool_proj
I0506 13:05:58.008651 18696 net.cpp:454] inception_4d/pool_proj <- inception_4d/pool
I0506 13:05:58.016265 18696 net.cpp:411] inception_4d/pool_proj -> inception_4d/pool_proj
I0506 13:05:58.020879 18696 net.cpp:150] Setting up inception_4d/pool_proj
I0506 13:05:58.032440 18696 net.cpp:157] Top shape: 140 64 14 14 (1756160)
I0506 13:05:58.047719 18696 net.cpp:165] Memory required for data: 6536427520
I0506 13:05:58.067473 18696 layer_factory.hpp:77] Creating layer inception_4d/relu_pool_proj
I0506 13:05:58.084357 18696 net.cpp:106] Creating Layer inception_4d/relu_pool_proj
I0506 13:05:58.091322 18696 net.cpp:454] inception_4d/relu_pool_proj <- inception_4d/pool_proj
I0506 13:05:58.095736 18696 net.cpp:397] inception_4d/relu_pool_proj -> inception_4d/pool_proj (in-place)
I0506 13:05:58.104933 18696 net.cpp:150] Setting up inception_4d/relu_pool_proj
I0506 13:05:58.112941 18696 net.cpp:157] Top shape: 140 64 14 14 (1756160)
I0506 13:05:58.140395 18696 net.cpp:165] Memory required for data: 6543452160
I0506 13:05:58.143236 18696 layer_factory.hpp:77] Creating layer inception_4d/output
I0506 13:05:58.148205 18696 net.cpp:106] Creating Layer inception_4d/output
I0506 13:05:58.158424 18696 net.cpp:454] inception_4d/output <- inception_4d/1x1
I0506 13:05:58.162139 18696 net.cpp:454] inception_4d/output <- inception_4d/3x3
I0506 13:05:58.176489 18696 net.cpp:454] inception_4d/output <- inception_4d/5x5
I0506 13:05:58.185776 18696 net.cpp:454] inception_4d/output <- inception_4d/pool_proj
I0506 13:05:58.199970 18696 net.cpp:411] inception_4d/output -> inception_4d/output
I0506 13:05:58.204603 18696 net.cpp:150] Setting up inception_4d/output
I0506 13:05:58.207556 18696 net.cpp:157] Top shape: 140 528 14 14 (14488320)
I0506 13:05:58.210706 18696 net.cpp:165] Memory required for data: 6601405440
I0506 13:05:58.218032 18696 layer_factory.hpp:77] Creating layer inception_4d/output_inception_4d/output_0_split
I0506 13:05:58.222390 18696 net.cpp:106] Creating Layer inception_4d/output_inception_4d/output_0_split
I0506 13:05:58.231999 18696 net.cpp:454] inception_4d/output_inception_4d/output_0_split <- inception_4d/output
I0506 13:05:58.235981 18696 net.cpp:411] inception_4d/output_inception_4d/output_0_split -> inception_4d/output_inception_4d/output_0_split_0
I0506 13:05:58.248703 18696 net.cpp:411] inception_4d/output_inception_4d/output_0_split -> inception_4d/output_inception_4d/output_0_split_1
I0506 13:05:58.258394 18696 net.cpp:411] inception_4d/output_inception_4d/output_0_split -> inception_4d/output_inception_4d/output_0_split_2
I0506 13:05:58.273332 18696 net.cpp:411] inception_4d/output_inception_4d/output_0_split -> inception_4d/output_inception_4d/output_0_split_3
I0506 13:05:58.291990 18696 net.cpp:150] Setting up inception_4d/output_inception_4d/output_0_split
I0506 13:05:58.293244 18696 net.cpp:157] Top shape: 140 528 14 14 (14488320)
I0506 13:05:58.299681 18696 net.cpp:157] Top shape: 140 528 14 14 (14488320)
I0506 13:05:58.308993 18696 net.cpp:157] Top shape: 140 528 14 14 (14488320)
I0506 13:05:58.313700 18696 net.cpp:157] Top shape: 140 528 14 14 (14488320)
I0506 13:05:58.322190 18696 net.cpp:165] Memory required for data: 6833218560
I0506 13:05:58.335073 18696 layer_factory.hpp:77] Creating layer inception_4e/1x1
I0506 13:05:58.341820 18696 net.cpp:106] Creating Layer inception_4e/1x1
I0506 13:05:58.347779 18696 net.cpp:454] inception_4e/1x1 <- inception_4d/output_inception_4d/output_0_split_0
I0506 13:05:58.356230 18696 net.cpp:411] inception_4e/1x1 -> inception_4e/1x1
I0506 13:05:58.365139 18696 net.cpp:150] Setting up inception_4e/1x1
I0506 13:05:58.370035 18696 net.cpp:157] Top shape: 140 256 14 14 (7024640)
I0506 13:05:58.383769 18696 net.cpp:165] Memory required for data: 6861317120
I0506 13:05:58.389221 18696 layer_factory.hpp:77] Creating layer inception_4e/relu_1x1
I0506 13:05:58.402683 18696 net.cpp:106] Creating Layer inception_4e/relu_1x1
I0506 13:05:58.407183 18696 net.cpp:454] inception_4e/relu_1x1 <- inception_4e/1x1
I0506 13:05:58.407546 18696 net.cpp:397] inception_4e/relu_1x1 -> inception_4e/1x1 (in-place)
I0506 13:05:58.420496 18696 net.cpp:150] Setting up inception_4e/relu_1x1
I0506 13:05:58.435528 18696 net.cpp:157] Top shape: 140 256 14 14 (7024640)
I0506 13:05:58.438334 18696 net.cpp:165] Memory required for data: 6889415680
I0506 13:05:58.448638 18696 layer_factory.hpp:77] Creating layer inception_4e/3x3_reduce
I0506 13:05:58.457404 18696 net.cpp:106] Creating Layer inception_4e/3x3_reduce
I0506 13:05:58.457695 18696 net.cpp:454] inception_4e/3x3_reduce <- inception_4d/output_inception_4d/output_0_split_1
I0506 13:05:58.463496 18696 net.cpp:411] inception_4e/3x3_reduce -> inception_4e/3x3_reduce
I0506 13:05:58.473832 18696 net.cpp:150] Setting up inception_4e/3x3_reduce
I0506 13:05:58.485568 18696 net.cpp:157] Top shape: 140 160 14 14 (4390400)
I0506 13:05:58.488958 18696 net.cpp:165] Memory required for data: 6906977280
I0506 13:05:58.505022 18696 layer_factory.hpp:77] Creating layer inception_4e/relu_3x3_reduce
I0506 13:05:58.505755 18696 net.cpp:106] Creating Layer inception_4e/relu_3x3_reduce
I0506 13:05:58.521167 18696 net.cpp:454] inception_4e/relu_3x3_reduce <- inception_4e/3x3_reduce
I0506 13:05:58.537564 18696 net.cpp:397] inception_4e/relu_3x3_reduce -> inception_4e/3x3_reduce (in-place)
I0506 13:05:58.556603 18696 net.cpp:150] Setting up inception_4e/relu_3x3_reduce
I0506 13:05:58.570883 18696 net.cpp:157] Top shape: 140 160 14 14 (4390400)
I0506 13:05:58.580119 18696 net.cpp:165] Memory required for data: 6924538880
I0506 13:05:58.590589 18696 layer_factory.hpp:77] Creating layer inception_4e/3x3
I0506 13:05:58.608533 18696 net.cpp:106] Creating Layer inception_4e/3x3
I0506 13:05:58.612495 18696 net.cpp:454] inception_4e/3x3 <- inception_4e/3x3_reduce
I0506 13:05:58.622319 18696 net.cpp:411] inception_4e/3x3 -> inception_4e/3x3
I0506 13:05:58.641338 18696 net.cpp:150] Setting up inception_4e/3x3
I0506 13:05:58.659670 18696 net.cpp:157] Top shape: 140 320 14 14 (8780800)
I0506 13:05:58.673521 18696 net.cpp:165] Memory required for data: 6959662080
I0506 13:05:58.674417 18696 layer_factory.hpp:77] Creating layer inception_4e/relu_3x3
I0506 13:05:58.677754 18696 net.cpp:106] Creating Layer inception_4e/relu_3x3
I0506 13:05:58.678911 18696 net.cpp:454] inception_4e/relu_3x3 <- inception_4e/3x3
I0506 13:05:58.688814 18696 net.cpp:397] inception_4e/relu_3x3 -> inception_4e/3x3 (in-place)
I0506 13:05:58.689121 18696 net.cpp:150] Setting up inception_4e/relu_3x3
I0506 13:05:58.694391 18696 net.cpp:157] Top shape: 140 320 14 14 (8780800)
I0506 13:05:58.703968 18696 net.cpp:165] Memory required for data: 6994785280
I0506 13:05:58.708797 18696 layer_factory.hpp:77] Creating layer inception_4e/5x5_reduce
I0506 13:05:58.720175 18696 net.cpp:106] Creating Layer inception_4e/5x5_reduce
I0506 13:05:58.724696 18696 net.cpp:454] inception_4e/5x5_reduce <- inception_4d/output_inception_4d/output_0_split_2
I0506 13:05:58.736924 18696 net.cpp:411] inception_4e/5x5_reduce -> inception_4e/5x5_reduce
I0506 13:05:58.744518 18696 net.cpp:150] Setting up inception_4e/5x5_reduce
I0506 13:05:58.751353 18696 net.cpp:157] Top shape: 140 32 14 14 (878080)
I0506 13:05:58.755283 18696 net.cpp:165] Memory required for data: 6998297600
I0506 13:05:58.758781 18696 layer_factory.hpp:77] Creating layer inception_4e/relu_5x5_reduce
I0506 13:05:58.769222 18696 net.cpp:106] Creating Layer inception_4e/relu_5x5_reduce
I0506 13:05:58.769832 18696 net.cpp:454] inception_4e/relu_5x5_reduce <- inception_4e/5x5_reduce
I0506 13:05:58.784780 18696 net.cpp:397] inception_4e/relu_5x5_reduce -> inception_4e/5x5_reduce (in-place)
I0506 13:05:58.795373 18696 net.cpp:150] Setting up inception_4e/relu_5x5_reduce
I0506 13:05:58.802476 18696 net.cpp:157] Top shape: 140 32 14 14 (878080)
I0506 13:05:58.816576 18696 net.cpp:165] Memory required for data: 7001809920
I0506 13:05:58.825466 18696 layer_factory.hpp:77] Creating layer inception_4e/5x5
I0506 13:05:58.834583 18696 net.cpp:106] Creating Layer inception_4e/5x5
I0506 13:05:58.848711 18696 net.cpp:454] inception_4e/5x5 <- inception_4e/5x5_reduce
I0506 13:05:58.867132 18696 net.cpp:411] inception_4e/5x5 -> inception_4e/5x5
I0506 13:05:58.888823 18696 net.cpp:150] Setting up inception_4e/5x5
I0506 13:05:58.892325 18696 net.cpp:157] Top shape: 140 128 14 14 (3512320)
I0506 13:05:58.897963 18696 net.cpp:165] Memory required for data: 7015859200
I0506 13:05:58.904942 18696 layer_factory.hpp:77] Creating layer inception_4e/relu_5x5
I0506 13:05:58.905220 18696 net.cpp:106] Creating Layer inception_4e/relu_5x5
I0506 13:05:58.905340 18696 net.cpp:454] inception_4e/relu_5x5 <- inception_4e/5x5
I0506 13:05:58.912065 18696 net.cpp:397] inception_4e/relu_5x5 -> inception_4e/5x5 (in-place)
I0506 13:05:58.912434 18696 net.cpp:150] Setting up inception_4e/relu_5x5
I0506 13:05:58.912518 18696 net.cpp:157] Top shape: 140 128 14 14 (3512320)
I0506 13:05:58.920181 18696 net.cpp:165] Memory required for data: 7029908480
I0506 13:05:58.934414 18696 layer_factory.hpp:77] Creating layer inception_4e/pool
I0506 13:05:58.944886 18696 net.cpp:106] Creating Layer inception_4e/pool
I0506 13:05:58.962555 18696 net.cpp:454] inception_4e/pool <- inception_4d/output_inception_4d/output_0_split_3
I0506 13:05:58.977560 18696 net.cpp:411] inception_4e/pool -> inception_4e/pool
I0506 13:05:58.985358 18696 net.cpp:150] Setting up inception_4e/pool
I0506 13:05:58.998107 18696 net.cpp:157] Top shape: 140 528 14 14 (14488320)
I0506 13:05:59.005626 18696 net.cpp:165] Memory required for data: 7087861760
I0506 13:05:59.013373 18696 layer_factory.hpp:77] Creating layer inception_4e/pool_proj
I0506 13:05:59.022119 18696 net.cpp:106] Creating Layer inception_4e/pool_proj
I0506 13:05:59.028612 18696 net.cpp:454] inception_4e/pool_proj <- inception_4e/pool
I0506 13:05:59.029476 18696 net.cpp:411] inception_4e/pool_proj -> inception_4e/pool_proj
I0506 13:05:59.042680 18696 net.cpp:150] Setting up inception_4e/pool_proj
I0506 13:05:59.061818 18696 net.cpp:157] Top shape: 140 128 14 14 (3512320)
I0506 13:05:59.067253 18696 net.cpp:165] Memory required for data: 7101911040
I0506 13:05:59.081950 18696 layer_factory.hpp:77] Creating layer inception_4e/relu_pool_proj
I0506 13:05:59.095983 18696 net.cpp:106] Creating Layer inception_4e/relu_pool_proj
I0506 13:05:59.113070 18696 net.cpp:454] inception_4e/relu_pool_proj <- inception_4e/pool_proj
I0506 13:05:59.119391 18696 net.cpp:397] inception_4e/relu_pool_proj -> inception_4e/pool_proj (in-place)
I0506 13:05:59.122879 18696 net.cpp:150] Setting up inception_4e/relu_pool_proj
I0506 13:05:59.130095 18696 net.cpp:157] Top shape: 140 128 14 14 (3512320)
I0506 13:05:59.135519 18696 net.cpp:165] Memory required for data: 7115960320
I0506 13:05:59.136132 18696 layer_factory.hpp:77] Creating layer inception_4e/output
I0506 13:05:59.144312 18696 net.cpp:106] Creating Layer inception_4e/output
I0506 13:05:59.144590 18696 net.cpp:454] inception_4e/output <- inception_4e/1x1
I0506 13:05:59.149621 18696 net.cpp:454] inception_4e/output <- inception_4e/3x3
I0506 13:05:59.159765 18696 net.cpp:454] inception_4e/output <- inception_4e/5x5
I0506 13:05:59.159832 18696 net.cpp:454] inception_4e/output <- inception_4e/pool_proj
I0506 13:05:59.160137 18696 net.cpp:411] inception_4e/output -> inception_4e/output
I0506 13:05:59.160220 18696 net.cpp:150] Setting up inception_4e/output
I0506 13:05:59.160753 18696 net.cpp:157] Top shape: 140 832 14 14 (22830080)
I0506 13:05:59.167412 18696 net.cpp:165] Memory required for data: 7207280640
I0506 13:05:59.170941 18696 layer_factory.hpp:77] Creating layer pool4/3x3_s2
I0506 13:05:59.171339 18696 net.cpp:106] Creating Layer pool4/3x3_s2
I0506 13:05:59.181813 18696 net.cpp:454] pool4/3x3_s2 <- inception_4e/output
I0506 13:05:59.182482 18696 net.cpp:411] pool4/3x3_s2 -> pool4/3x3_s2
I0506 13:05:59.192113 18696 net.cpp:150] Setting up pool4/3x3_s2
I0506 13:05:59.195900 18696 net.cpp:157] Top shape: 140 832 7 7 (5707520)
I0506 13:05:59.195950 18696 net.cpp:165] Memory required for data: 7230110720
I0506 13:05:59.203735 18696 layer_factory.hpp:77] Creating layer pool4/3x3_s2_pool4/3x3_s2_0_split
I0506 13:05:59.204012 18696 net.cpp:106] Creating Layer pool4/3x3_s2_pool4/3x3_s2_0_split
I0506 13:05:59.208737 18696 net.cpp:454] pool4/3x3_s2_pool4/3x3_s2_0_split <- pool4/3x3_s2
I0506 13:05:59.218715 18696 net.cpp:411] pool4/3x3_s2_pool4/3x3_s2_0_split -> pool4/3x3_s2_pool4/3x3_s2_0_split_0
I0506 13:05:59.218791 18696 net.cpp:411] pool4/3x3_s2_pool4/3x3_s2_0_split -> pool4/3x3_s2_pool4/3x3_s2_0_split_1
I0506 13:05:59.226480 18696 net.cpp:411] pool4/3x3_s2_pool4/3x3_s2_0_split -> pool4/3x3_s2_pool4/3x3_s2_0_split_2
I0506 13:05:59.234315 18696 net.cpp:411] pool4/3x3_s2_pool4/3x3_s2_0_split -> pool4/3x3_s2_pool4/3x3_s2_0_split_3
I0506 13:05:59.234431 18696 net.cpp:150] Setting up pool4/3x3_s2_pool4/3x3_s2_0_split
I0506 13:05:59.241854 18696 net.cpp:157] Top shape: 140 832 7 7 (5707520)
I0506 13:05:59.241899 18696 net.cpp:157] Top shape: 140 832 7 7 (5707520)
I0506 13:05:59.245152 18696 net.cpp:157] Top shape: 140 832 7 7 (5707520)
I0506 13:05:59.245204 18696 net.cpp:157] Top shape: 140 832 7 7 (5707520)
I0506 13:05:59.245391 18696 net.cpp:165] Memory required for data: 7321431040
I0506 13:05:59.250982 18696 layer_factory.hpp:77] Creating layer inception_5a/1x1
I0506 13:05:59.261415 18696 net.cpp:106] Creating Layer inception_5a/1x1
I0506 13:05:59.261637 18696 net.cpp:454] inception_5a/1x1 <- pool4/3x3_s2_pool4/3x3_s2_0_split_0
I0506 13:05:59.262032 18696 net.cpp:411] inception_5a/1x1 -> inception_5a/1x1
I0506 13:05:59.264829 18696 net.cpp:150] Setting up inception_5a/1x1
I0506 13:05:59.268164 18696 net.cpp:157] Top shape: 140 256 7 7 (1756160)
I0506 13:05:59.275981 18696 net.cpp:165] Memory required for data: 7328455680
I0506 13:05:59.282613 18696 layer_factory.hpp:77] Creating layer inception_5a/relu_1x1
I0506 13:05:59.282681 18696 net.cpp:106] Creating Layer inception_5a/relu_1x1
I0506 13:05:59.288523 18696 net.cpp:454] inception_5a/relu_1x1 <- inception_5a/1x1
I0506 13:05:59.298856 18696 net.cpp:397] inception_5a/relu_1x1 -> inception_5a/1x1 (in-place)
I0506 13:05:59.303915 18696 net.cpp:150] Setting up inception_5a/relu_1x1
I0506 13:05:59.312160 18696 net.cpp:157] Top shape: 140 256 7 7 (1756160)
I0506 13:05:59.315960 18696 net.cpp:165] Memory required for data: 7335480320
I0506 13:05:59.316247 18696 layer_factory.hpp:77] Creating layer inception_5a/3x3_reduce
I0506 13:05:59.320291 18696 net.cpp:106] Creating Layer inception_5a/3x3_reduce
I0506 13:05:59.324712 18696 net.cpp:454] inception_5a/3x3_reduce <- pool4/3x3_s2_pool4/3x3_s2_0_split_1
I0506 13:05:59.324786 18696 net.cpp:411] inception_5a/3x3_reduce -> inception_5a/3x3_reduce
I0506 13:05:59.333726 18696 net.cpp:150] Setting up inception_5a/3x3_reduce
I0506 13:05:59.334563 18696 net.cpp:157] Top shape: 140 160 7 7 (1097600)
I0506 13:05:59.335050 18696 net.cpp:165] Memory required for data: 7339870720
I0506 13:05:59.335562 18696 layer_factory.hpp:77] Creating layer inception_5a/relu_3x3_reduce
I0506 13:05:59.335603 18696 net.cpp:106] Creating Layer inception_5a/relu_3x3_reduce
I0506 13:05:59.335660 18696 net.cpp:454] inception_5a/relu_3x3_reduce <- inception_5a/3x3_reduce
I0506 13:05:59.345415 18696 net.cpp:397] inception_5a/relu_3x3_reduce -> inception_5a/3x3_reduce (in-place)
I0506 13:05:59.348112 18696 net.cpp:150] Setting up inception_5a/relu_3x3_reduce
I0506 13:05:59.352877 18696 net.cpp:157] Top shape: 140 160 7 7 (1097600)
I0506 13:05:59.366164 18696 net.cpp:165] Memory required for data: 7344261120
I0506 13:05:59.366220 18696 layer_factory.hpp:77] Creating layer inception_5a/3x3
I0506 13:05:59.376365 18696 net.cpp:106] Creating Layer inception_5a/3x3
I0506 13:05:59.384717 18696 net.cpp:454] inception_5a/3x3 <- inception_5a/3x3_reduce
I0506 13:05:59.395100 18696 net.cpp:411] inception_5a/3x3 -> inception_5a/3x3
I0506 13:05:59.401845 18696 net.cpp:150] Setting up inception_5a/3x3
I0506 13:05:59.404276 18696 net.cpp:157] Top shape: 140 320 7 7 (2195200)
I0506 13:05:59.409255 18696 net.cpp:165] Memory required for data: 7353041920
I0506 13:05:59.411522 18696 layer_factory.hpp:77] Creating layer inception_5a/relu_3x3
I0506 13:05:59.411592 18696 net.cpp:106] Creating Layer inception_5a/relu_3x3
I0506 13:05:59.415925 18696 net.cpp:454] inception_5a/relu_3x3 <- inception_5a/3x3
I0506 13:05:59.415973 18696 net.cpp:397] inception_5a/relu_3x3 -> inception_5a/3x3 (in-place)
I0506 13:05:59.425534 18696 net.cpp:150] Setting up inception_5a/relu_3x3
I0506 13:05:59.429440 18696 net.cpp:157] Top shape: 140 320 7 7 (2195200)
I0506 13:05:59.429708 18696 net.cpp:165] Memory required for data: 7361822720
I0506 13:05:59.436488 18696 layer_factory.hpp:77] Creating layer inception_5a/5x5_reduce
I0506 13:05:59.446131 18696 net.cpp:106] Creating Layer inception_5a/5x5_reduce
I0506 13:05:59.446475 18696 net.cpp:454] inception_5a/5x5_reduce <- pool4/3x3_s2_pool4/3x3_s2_0_split_2
I0506 13:05:59.446557 18696 net.cpp:411] inception_5a/5x5_reduce -> inception_5a/5x5_reduce
I0506 13:05:59.455893 18696 net.cpp:150] Setting up inception_5a/5x5_reduce
I0506 13:05:59.463635 18696 net.cpp:157] Top shape: 140 32 7 7 (219520)
I0506 13:05:59.467501 18696 net.cpp:165] Memory required for data: 7362700800
I0506 13:05:59.467553 18696 layer_factory.hpp:77] Creating layer inception_5a/relu_5x5_reduce
I0506 13:05:59.467952 18696 net.cpp:106] Creating Layer inception_5a/relu_5x5_reduce
I0506 13:05:59.467995 18696 net.cpp:454] inception_5a/relu_5x5_reduce <- inception_5a/5x5_reduce
I0506 13:05:59.478276 18696 net.cpp:397] inception_5a/relu_5x5_reduce -> inception_5a/5x5_reduce (in-place)
I0506 13:05:59.478627 18696 net.cpp:150] Setting up inception_5a/relu_5x5_reduce
I0506 13:05:59.478711 18696 net.cpp:157] Top shape: 140 32 7 7 (219520)
I0506 13:05:59.485594 18696 net.cpp:165] Memory required for data: 7363578880
I0506 13:05:59.492924 18696 layer_factory.hpp:77] Creating layer inception_5a/5x5
I0506 13:05:59.493906 18696 net.cpp:106] Creating Layer inception_5a/5x5
I0506 13:05:59.498517 18696 net.cpp:454] inception_5a/5x5 <- inception_5a/5x5_reduce
I0506 13:05:59.498878 18696 net.cpp:411] inception_5a/5x5 -> inception_5a/5x5
I0506 13:05:59.507248 18696 net.cpp:150] Setting up inception_5a/5x5
I0506 13:05:59.513151 18696 net.cpp:157] Top shape: 140 128 7 7 (878080)
I0506 13:05:59.513439 18696 net.cpp:165] Memory required for data: 7367091200
I0506 13:05:59.517601 18696 layer_factory.hpp:77] Creating layer inception_5a/relu_5x5
I0506 13:05:59.525950 18696 net.cpp:106] Creating Layer inception_5a/relu_5x5
I0506 13:05:59.526446 18696 net.cpp:454] inception_5a/relu_5x5 <- inception_5a/5x5
I0506 13:05:59.535826 18696 net.cpp:397] inception_5a/relu_5x5 -> inception_5a/5x5 (in-place)
I0506 13:05:59.540922 18696 net.cpp:150] Setting up inception_5a/relu_5x5
I0506 13:05:59.548908 18696 net.cpp:157] Top shape: 140 128 7 7 (878080)
I0506 13:05:59.549693 18696 net.cpp:165] Memory required for data: 7370603520
I0506 13:05:59.558825 18696 layer_factory.hpp:77] Creating layer inception_5a/pool
I0506 13:05:59.558910 18696 net.cpp:106] Creating Layer inception_5a/pool
I0506 13:05:59.563913 18696 net.cpp:454] inception_5a/pool <- pool4/3x3_s2_pool4/3x3_s2_0_split_3
I0506 13:05:59.573659 18696 net.cpp:411] inception_5a/pool -> inception_5a/pool
I0506 13:05:59.573930 18696 net.cpp:150] Setting up inception_5a/pool
I0506 13:05:59.574407 18696 net.cpp:157] Top shape: 140 832 7 7 (5707520)
I0506 13:05:59.574736 18696 net.cpp:165] Memory required for data: 7393433600
I0506 13:05:59.574785 18696 layer_factory.hpp:77] Creating layer inception_5a/pool_proj
I0506 13:05:59.575224 18696 net.cpp:106] Creating Layer inception_5a/pool_proj
I0506 13:05:59.575268 18696 net.cpp:454] inception_5a/pool_proj <- inception_5a/pool
I0506 13:05:59.575557 18696 net.cpp:411] inception_5a/pool_proj -> inception_5a/pool_proj
I0506 13:05:59.577672 18696 net.cpp:150] Setting up inception_5a/pool_proj
I0506 13:05:59.580713 18696 net.cpp:157] Top shape: 140 128 7 7 (878080)
I0506 13:05:59.588155 18696 net.cpp:165] Memory required for data: 7396945920
I0506 13:05:59.593076 18696 layer_factory.hpp:77] Creating layer inception_5a/relu_pool_proj
I0506 13:05:59.602067 18696 net.cpp:106] Creating Layer inception_5a/relu_pool_proj
I0506 13:05:59.614274 18696 net.cpp:454] inception_5a/relu_pool_proj <- inception_5a/pool_proj
I0506 13:05:59.614585 18696 net.cpp:397] inception_5a/relu_pool_proj -> inception_5a/pool_proj (in-place)
I0506 13:05:59.615156 18696 net.cpp:150] Setting up inception_5a/relu_pool_proj
I0506 13:05:59.622232 18696 net.cpp:157] Top shape: 140 128 7 7 (878080)
I0506 13:05:59.626679 18696 net.cpp:165] Memory required for data: 7400458240
I0506 13:05:59.635879 18696 layer_factory.hpp:77] Creating layer inception_5a/output
I0506 13:05:59.642119 18696 net.cpp:106] Creating Layer inception_5a/output
I0506 13:05:59.646319 18696 net.cpp:454] inception_5a/output <- inception_5a/1x1
I0506 13:05:59.656805 18696 net.cpp:454] inception_5a/output <- inception_5a/3x3
I0506 13:05:59.656857 18696 net.cpp:454] inception_5a/output <- inception_5a/5x5
I0506 13:05:59.656925 18696 net.cpp:454] inception_5a/output <- inception_5a/pool_proj
I0506 13:05:59.657230 18696 net.cpp:411] inception_5a/output -> inception_5a/output
I0506 13:05:59.665818 18696 net.cpp:150] Setting up inception_5a/output
I0506 13:05:59.674083 18696 net.cpp:157] Top shape: 140 832 7 7 (5707520)
I0506 13:05:59.678642 18696 net.cpp:165] Memory required for data: 7423288320
I0506 13:05:59.678711 18696 layer_factory.hpp:77] Creating layer inception_5a/output_inception_5a/output_0_split
I0506 13:05:59.683001 18696 net.cpp:106] Creating Layer inception_5a/output_inception_5a/output_0_split
I0506 13:05:59.693243 18696 net.cpp:454] inception_5a/output_inception_5a/output_0_split <- inception_5a/output
I0506 13:05:59.700054 18696 net.cpp:411] inception_5a/output_inception_5a/output_0_split -> inception_5a/output_inception_5a/output_0_split_0
I0506 13:05:59.708171 18696 net.cpp:411] inception_5a/output_inception_5a/output_0_split -> inception_5a/output_inception_5a/output_0_split_1
I0506 13:05:59.714742 18696 net.cpp:411] inception_5a/output_inception_5a/output_0_split -> inception_5a/output_inception_5a/output_0_split_2
I0506 13:05:59.720258 18696 net.cpp:411] inception_5a/output_inception_5a/output_0_split -> inception_5a/output_inception_5a/output_0_split_3
I0506 13:05:59.729023 18696 net.cpp:150] Setting up inception_5a/output_inception_5a/output_0_split
I0506 13:05:59.729640 18696 net.cpp:157] Top shape: 140 832 7 7 (5707520)
I0506 13:05:59.729699 18696 net.cpp:157] Top shape: 140 832 7 7 (5707520)
I0506 13:05:59.742986 18696 net.cpp:157] Top shape: 140 832 7 7 (5707520)
I0506 13:05:59.747349 18696 net.cpp:157] Top shape: 140 832 7 7 (5707520)
I0506 13:05:59.751924 18696 net.cpp:165] Memory required for data: 7514608640
I0506 13:05:59.757120 18696 layer_factory.hpp:77] Creating layer inception_5b/1x1
I0506 13:05:59.757443 18696 net.cpp:106] Creating Layer inception_5b/1x1
I0506 13:05:59.761289 18696 net.cpp:454] inception_5b/1x1 <- inception_5a/output_inception_5a/output_0_split_0
I0506 13:05:59.761641 18696 net.cpp:411] inception_5b/1x1 -> inception_5b/1x1
I0506 13:05:59.765178 18696 net.cpp:150] Setting up inception_5b/1x1
I0506 13:05:59.771600 18696 net.cpp:157] Top shape: 140 384 7 7 (2634240)
I0506 13:05:59.771648 18696 net.cpp:165] Memory required for data: 7525145600
I0506 13:05:59.775903 18696 layer_factory.hpp:77] Creating layer inception_5b/relu_1x1
I0506 13:05:59.778159 18696 net.cpp:106] Creating Layer inception_5b/relu_1x1
I0506 13:05:59.778736 18696 net.cpp:454] inception_5b/relu_1x1 <- inception_5b/1x1
I0506 13:05:59.778816 18696 net.cpp:397] inception_5b/relu_1x1 -> inception_5b/1x1 (in-place)
I0506 13:05:59.785856 18696 net.cpp:150] Setting up inception_5b/relu_1x1
I0506 13:05:59.795430 18696 net.cpp:157] Top shape: 140 384 7 7 (2634240)
I0506 13:05:59.804966 18696 net.cpp:165] Memory required for data: 7535682560
I0506 13:05:59.805037 18696 layer_factory.hpp:77] Creating layer inception_5b/3x3_reduce
I0506 13:05:59.809000 18696 net.cpp:106] Creating Layer inception_5b/3x3_reduce
I0506 13:05:59.809067 18696 net.cpp:454] inception_5b/3x3_reduce <- inception_5a/output_inception_5a/output_0_split_1
I0506 13:05:59.817430 18696 net.cpp:411] inception_5b/3x3_reduce -> inception_5b/3x3_reduce
I0506 13:05:59.819913 18696 net.cpp:150] Setting up inception_5b/3x3_reduce
I0506 13:05:59.821951 18696 net.cpp:157] Top shape: 140 192 7 7 (1317120)
I0506 13:05:59.831446 18696 net.cpp:165] Memory required for data: 7540951040
I0506 13:05:59.831519 18696 layer_factory.hpp:77] Creating layer inception_5b/relu_3x3_reduce
I0506 13:05:59.831568 18696 net.cpp:106] Creating Layer inception_5b/relu_3x3_reduce
I0506 13:05:59.834722 18696 net.cpp:454] inception_5b/relu_3x3_reduce <- inception_5b/3x3_reduce
I0506 13:05:59.835304 18696 net.cpp:397] inception_5b/relu_3x3_reduce -> inception_5b/3x3_reduce (in-place)
I0506 13:05:59.844617 18696 net.cpp:150] Setting up inception_5b/relu_3x3_reduce
I0506 13:05:59.844924 18696 net.cpp:157] Top shape: 140 192 7 7 (1317120)
I0506 13:05:59.847672 18696 net.cpp:165] Memory required for data: 7546219520
I0506 13:05:59.851755 18696 layer_factory.hpp:77] Creating layer inception_5b/3x3
I0506 13:05:59.855629 18696 net.cpp:106] Creating Layer inception_5b/3x3
I0506 13:05:59.858330 18696 net.cpp:454] inception_5b/3x3 <- inception_5b/3x3_reduce
I0506 13:05:59.862114 18696 net.cpp:411] inception_5b/3x3 -> inception_5b/3x3
I0506 13:05:59.871223 18696 net.cpp:150] Setting up inception_5b/3x3
I0506 13:05:59.873767 18696 net.cpp:157] Top shape: 140 384 7 7 (2634240)
I0506 13:05:59.874183 18696 net.cpp:165] Memory required for data: 7556756480
I0506 13:05:59.876577 18696 layer_factory.hpp:77] Creating layer inception_5b/relu_3x3
I0506 13:05:59.880283 18696 net.cpp:106] Creating Layer inception_5b/relu_3x3
I0506 13:05:59.884735 18696 net.cpp:454] inception_5b/relu_3x3 <- inception_5b/3x3
I0506 13:05:59.893208 18696 net.cpp:397] inception_5b/relu_3x3 -> inception_5b/3x3 (in-place)
I0506 13:05:59.893560 18696 net.cpp:150] Setting up inception_5b/relu_3x3
I0506 13:05:59.904264 18696 net.cpp:157] Top shape: 140 384 7 7 (2634240)
I0506 13:05:59.907629 18696 net.cpp:165] Memory required for data: 7567293440
I0506 13:05:59.915966 18696 layer_factory.hpp:77] Creating layer inception_5b/5x5_reduce
I0506 13:05:59.916007 18696 net.cpp:106] Creating Layer inception_5b/5x5_reduce
I0506 13:05:59.916048 18696 net.cpp:454] inception_5b/5x5_reduce <- inception_5a/output_inception_5a/output_0_split_2
I0506 13:05:59.916092 18696 net.cpp:411] inception_5b/5x5_reduce -> inception_5b/5x5_reduce
I0506 13:05:59.917472 18696 net.cpp:150] Setting up inception_5b/5x5_reduce
I0506 13:05:59.934063 18696 net.cpp:157] Top shape: 140 48 7 7 (329280)
I0506 13:05:59.938191 18696 net.cpp:165] Memory required for data: 7568610560
I0506 13:05:59.938441 18696 layer_factory.hpp:77] Creating layer inception_5b/relu_5x5_reduce
I0506 13:05:59.946620 18696 net.cpp:106] Creating Layer inception_5b/relu_5x5_reduce
I0506 13:05:59.952739 18696 net.cpp:454] inception_5b/relu_5x5_reduce <- inception_5b/5x5_reduce
I0506 13:05:59.952803 18696 net.cpp:397] inception_5b/relu_5x5_reduce -> inception_5b/5x5_reduce (in-place)
I0506 13:05:59.956565 18696 net.cpp:150] Setting up inception_5b/relu_5x5_reduce
I0506 13:05:59.968484 18696 net.cpp:157] Top shape: 140 48 7 7 (329280)
I0506 13:05:59.973199 18696 net.cpp:165] Memory required for data: 7569927680
I0506 13:05:59.981261 18696 layer_factory.hpp:77] Creating layer inception_5b/5x5
I0506 13:05:59.990439 18696 net.cpp:106] Creating Layer inception_5b/5x5
I0506 13:05:59.997236 18696 net.cpp:454] inception_5b/5x5 <- inception_5b/5x5_reduce
I0506 13:06:00.005549 18696 net.cpp:411] inception_5b/5x5 -> inception_5b/5x5
I0506 13:06:00.014427 18696 net.cpp:150] Setting up inception_5b/5x5
I0506 13:06:00.015923 18696 net.cpp:157] Top shape: 140 128 7 7 (878080)
I0506 13:06:00.016564 18696 net.cpp:165] Memory required for data: 7573440000
I0506 13:06:00.019026 18696 layer_factory.hpp:77] Creating layer inception_5b/relu_5x5
I0506 13:06:00.029151 18696 net.cpp:106] Creating Layer inception_5b/relu_5x5
I0506 13:06:00.029927 18696 net.cpp:454] inception_5b/relu_5x5 <- inception_5b/5x5
I0506 13:06:00.035354 18696 net.cpp:397] inception_5b/relu_5x5 -> inception_5b/5x5 (in-place)
I0506 13:06:00.045756 18696 net.cpp:150] Setting up inception_5b/relu_5x5
I0506 13:06:00.053704 18696 net.cpp:157] Top shape: 140 128 7 7 (878080)
I0506 13:06:00.057379 18696 net.cpp:165] Memory required for data: 7576952320
I0506 13:06:00.061136 18696 layer_factory.hpp:77] Creating layer inception_5b/pool
I0506 13:06:00.061439 18696 net.cpp:106] Creating Layer inception_5b/pool
I0506 13:06:00.069403 18696 net.cpp:454] inception_5b/pool <- inception_5a/output_inception_5a/output_0_split_3
I0506 13:06:00.069459 18696 net.cpp:411] inception_5b/pool -> inception_5b/pool
I0506 13:06:00.069869 18696 net.cpp:150] Setting up inception_5b/pool
I0506 13:06:00.070056 18696 net.cpp:157] Top shape: 140 832 7 7 (5707520)
I0506 13:06:00.072993 18696 net.cpp:165] Memory required for data: 7599782400
I0506 13:06:00.078554 18696 layer_factory.hpp:77] Creating layer inception_5b/pool_proj
I0506 13:06:00.086958 18696 net.cpp:106] Creating Layer inception_5b/pool_proj
I0506 13:06:00.096864 18696 net.cpp:454] inception_5b/pool_proj <- inception_5b/pool
I0506 13:06:00.104394 18696 net.cpp:411] inception_5b/pool_proj -> inception_5b/pool_proj
I0506 13:06:00.114660 18696 net.cpp:150] Setting up inception_5b/pool_proj
I0506 13:06:00.117398 18696 net.cpp:157] Top shape: 140 128 7 7 (878080)
I0506 13:06:00.117456 18696 net.cpp:165] Memory required for data: 7603294720
I0506 13:06:00.119977 18696 layer_factory.hpp:77] Creating layer inception_5b/relu_pool_proj
I0506 13:06:00.120241 18696 net.cpp:106] Creating Layer inception_5b/relu_pool_proj
I0506 13:06:00.123500 18696 net.cpp:454] inception_5b/relu_pool_proj <- inception_5b/pool_proj
I0506 13:06:00.123560 18696 net.cpp:397] inception_5b/relu_pool_proj -> inception_5b/pool_proj (in-place)
I0506 13:06:00.123788 18696 net.cpp:150] Setting up inception_5b/relu_pool_proj
I0506 13:06:00.126958 18696 net.cpp:157] Top shape: 140 128 7 7 (878080)
I0506 13:06:00.127009 18696 net.cpp:165] Memory required for data: 7606807040
I0506 13:06:00.130985 18696 layer_factory.hpp:77] Creating layer inception_5b/output
I0506 13:06:00.139490 18696 net.cpp:106] Creating Layer inception_5b/output
I0506 13:06:00.142423 18696 net.cpp:454] inception_5b/output <- inception_5b/1x1
I0506 13:06:00.151129 18696 net.cpp:454] inception_5b/output <- inception_5b/3x3
I0506 13:06:00.151641 18696 net.cpp:454] inception_5b/output <- inception_5b/5x5
I0506 13:06:00.151830 18696 net.cpp:454] inception_5b/output <- inception_5b/pool_proj
I0506 13:06:00.157682 18696 net.cpp:411] inception_5b/output -> inception_5b/output
I0506 13:06:00.165407 18696 net.cpp:150] Setting up inception_5b/output
I0506 13:06:00.173101 18696 net.cpp:157] Top shape: 140 1024 7 7 (7024640)
I0506 13:06:00.173157 18696 net.cpp:165] Memory required for data: 7634905600
I0506 13:06:00.173190 18696 layer_factory.hpp:77] Creating layer pool5/7x7_s1
I0506 13:06:00.173244 18696 net.cpp:106] Creating Layer pool5/7x7_s1
I0506 13:06:00.173873 18696 net.cpp:454] pool5/7x7_s1 <- inception_5b/output
I0506 13:06:00.173923 18696 net.cpp:411] pool5/7x7_s1 -> pool5/7x7_s1
I0506 13:06:00.181221 18696 net.cpp:150] Setting up pool5/7x7_s1
I0506 13:06:00.193002 18696 net.cpp:157] Top shape: 140 1024 1 1 (143360)
I0506 13:06:00.201830 18696 net.cpp:165] Memory required for data: 7635479040
I0506 13:06:00.208031 18696 net.cpp:228] pool5/7x7_s1 does not need backward computation.
I0506 13:06:00.208690 18696 net.cpp:228] inception_5b/output does not need backward computation.
I0506 13:06:00.214133 18696 net.cpp:228] inception_5b/relu_pool_proj does not need backward computation.
I0506 13:06:00.222599 18696 net.cpp:228] inception_5b/pool_proj does not need backward computation.
…
