…
                  Copyright 1984-2014 The MathWorks, Inc.
                    R2014a (8.3.0.532) 64-bit (glnxa64)
                             February 11, 2014

 
To get started, type one of these: helpwin, helpdesk, or demo.
For product information, visit www.mathworks.com.
 
Cleared 0 solvers and 0 stand-alone nets
WARNING: Logging before InitGoogleLogging() is written to STDERR
I0506 13:05:38.766844 18608 net.cpp:49] Initializing net from parameters: 
name: "GoogleNet"
input: "data"
input_dim: 140
input_dim: 3
input_dim: 224
input_dim: 224
state {
  phase: TEST
}
layer {
  name: "conv1/7x7_s2"
  type: "Convolution"
  bottom: "data"
  top: "conv1/7x7_s2"
  param {
    lr_mult: 1
    decay_mult: 1
  }
  param {
    lr_mult: 2
    decay_mult: 0
  }
  convolution_param {
    num_output: 64
    pad: 3
    kernel_size: 7
    stride: 2
    weight_filler {
      type: "xavier"
      std: 0.1
    }
    bias_filler {
      type: "constant"
      value: 0.2
    }
  }
}
layer {
  name: "conv1/relu_7x7"
  type: "ReLU"
  bottom: "conv1/7x7_s2"
  top: "conv1/7x7_s2"
}
layer {
  name: "pool1/3x3_s2"
  type: "Pooling"
  bottom: "conv1/7x7_s2"
  top: "pool1/3x3_s2"
  pooling_param {
    pool: MAX
    kernel_size: 3
    stride: 2
  }
}
layer {
  name: "pool1/norm1"
  type: "LRN"
  bottom: "pool1/3x3_s2"
  top: "pool1/norm1"
  lrn_param {
    local_size: 5
    alpha: 0.0001
    beta: 0.75
  }
}
layer {
  name: "conv2/3x3_reduce"
  type: "Convolution"
  bottom: "pool1/norm1"
  top: "conv2/3x3_reduce"
  param {
    lr_mult: 1
    decay_mult: 1
  }
  param {
    lr_mult: 2
    decay_mult: 0
  }
  convolution_param {
    num_output: 64
    kernel_size: 1
    weight_filler {
      type: "xavier"
      std: 0.1
    }
    bias_filler {
      type: "constant"
      value: 0.2
    }
  }
}
layer {
  name: "conv2/relu_3x3_reduce"
  type: "ReLU"
  bottom: "conv2/3x3_reduce"
  top: "conv2/3x3_reduce"
}
layer {
  name: "conv2/3x3"
  type: "Convolution"
  bottom: "conv2/3x3_reduce"
  top: "conv2/3x3"
  param {
    lr_mult: 1
    decay_mult: 1
  }
  param {
    lr_mult: 2
    decay_mult: 0
  }
  convolution_param {
    num_output: 192
    pad: 1
    kernel_size: 3
    weight_filler {
      type: "xavier"
      std: 0.03
    }
    bias_filler {
      type: "constant"
      value: 0.2
    }
  }
}
layer {
  name: "conv2/relu_3x3"
  type: "ReLU"
  bottom: "conv2/3x3"
  top: "conv2/3x3"
}
layer {
  name: "conv2/norm2"
  type: "LRN"
  bottom: "conv2/3x3"
  top: "conv2/norm2"
  lrn_param {
    local_size: 5
    alpha: 0.0001
    beta: 0.75
  }
}
layer {
  name: "pool2/3x3_s2"
  type: "Pooling"
  bottom: "conv2/norm2"
  top: "pool2/3x3_s2"
  pooling_param {
    pool: MAX
    kernel_size: 3
    stride: 2
  }
}
layer {
  name: "inception_3a/1x1"
  type: "Convolution"
  bottom: "pool2/3x3_s2"
  top: "inception_3a/1x1"
  param {
    lr_mult: 1
    decay_mult: 1
  }
  param {
    lr_mult: 2
    decay_mult: 0
  }
  convolution_param {
    num_output: 64
    kernel_size: 1
    weight_filler {
      type: "xavier"
      std: 0.03
    }
    bias_filler {
      type: "constant"
      value: 0.2
    }
  }
}
layer {
  name: "inception_3a/relu_1x1"
  type: "ReLU"
  bottom: "inception_3a/1x1"
  top: "inception_3a/1x1"
}
layer {
  name: "inception_3a/3x3_reduce"
  type: "Convolution"
  bottom: "pool2/3x3_s2"
  top: "inception_3a/3x3_reduce"
  param {
    lr_mult: 1
    decay_mult: 1
  }
  param {
    lr_mult: 2
    decay_mult: 0
  }
  convolution_param {
    num_output: 96
    kernel_size: 1
    weight_filler {
      type: "xavier"
      std: 0.09
    }
    bias_filler {
      type: "constant"
      value: 0.2
    }
  }
}
layer {
  name: "inception_3a/relu_3x3_reduce"
  type: "ReLU"
  bottom: "inception_3a/3x3_reduce"
  top: "inception_3a/3x3_reduce"
}
layer {
  name: "inception_3a/3x3"
  type: "Convolution"
  bottom: "inception_3a/3x3_reduce"
  top: "inception_3a/3x3"
  param {
    lr_mult: 1
    decay_mult: 1
  }
  param {
    lr_mult: 2
    decay_mult: 0
  }
  convolution_param {
    num_output: 128
    pad: 1
    kernel_size: 3
    weight_filler {
      type: "xavier"
      std: 0.03
    }
    bias_filler {
      type: "constant"
      value: 0.2
    }
  }
}
layer {
  name: "inception_3a/relu_3x3"
  type: "ReLU"
  bottom: "inception_3a/3x3"
  top: "inception_3a/3x3"
}
layer {
  name: "inception_3a/5x5_reduce"
  type: "Convolution"
  bottom: "pool2/3x3_s2"
  top: "inception_3a/5x5_reduce"
  param {
    lr_mult: 1
    decay_mult: 1
  }
  param {
    lr_mult: 2
    decay_mult: 0
  }
  convolution_param {
    num_output: 16
    kernel_size: 1
    weight_filler {
      type: "xavier"
      std: 0.2
    }
    bias_filler {
      type: "constant"
      value: 0.2
    }
  }
}
layer {
  name: "inception_3a/relu_5x5_reduce"
  type: "ReLU"
  bottom: "inception_3a/5x5_reduce"
  top: "inception_3a/5x5_reduce"
}
layer {
  name: "inception_3a/5x5"
  type: "Convolution"
  bottom: "inception_3a/5x5_reduce"
  top: "inception_3a/5x5"
  param {
    lr_mult: 1
    decay_mult: 1
  }
  param {
    lr_mult: 2
    decay_mult: 0
  }
  convolution_param {
    num_output: 32
    pad: 2
    kernel_size: 5
    weight_filler {
      type: "xavier"
      std: 0.03
    }
    bias_filler {
      type: "constant"
      value: 0.2
    }
  }
}
layer {
  name: "inception_3a/relu_5x5"
  type: "ReLU"
  bottom: "inception_3a/5x5"
  top: "inception_3a/5x5"
}
layer {
  name: "inception_3a/pool"
  type: "Pooling"
  bottom: "pool2/3x3_s2"
  top: "inception_3a/pool"
  pooling_param {
    pool: MAX
    kernel_size: 3
    stride: 1
    pad: 1
  }
}
layer {
  name: "inception_3a/pool_proj"
  type: "Convolution"
  bottom: "inception_3a/pool"
  top: "inception_3a/pool_proj"
  param {
    lr_mult: 1
    decay_mult: 1
  }
  param {
    lr_mult: 2
    decay_mult: 0
  }
  convolution_param {
    num_output: 32
    kernel_size: 1
    weight_filler {
      type: "xavier"
      std: 0.1
    }
    bias_filler {
      type: "constant"
      value: 0.2
    }
  }
}
layer {
  name: "inception_3a/relu_pool_proj"
  type: "ReLU"
  bottom: "inception_3a/pool_proj"
  top: "inception_3a/pool_proj"
}
layer {
  name: "inception_3a/output"
  type: "Concat"
  bottom: "inception_3a/1x1"
  bottom: "inception_3a/3x3"
  bottom: "inception_3a/5x5"
  bottom: "inception_3a/pool_proj"
  top: "inception_3a/output"
}
layer {
  name: "inception_3b/1x1"
  type: "Convolution"
  bottom: "inception_3a/output"
  top: "inception_3b/1x1"
  param {
    lr_mult: 1
    decay_mult: 1
  }
  param {
    lr_mult: 2
    decay_mult: 0
  }
  convolution_param {
    num_output: 128
    kernel_size: 1
    weight_filler {
      type: "xavier"
      std: 0.03
    }
    bias_filler {
      type: "constant"
      value: 0.2
    }
  }
}
layer {
  name: "inception_3b/relu_1x1"
  type: "ReLU"
  bottom: "inception_3b/1x1"
  top: "inception_3b/1x1"
}
layer {
  name: "inception_3b/3x3_reduce"
  type: "Convolution"
  bottom: "inception_3a/output"
  top: "inception_3b/3x3_reduce"
  param {
    lr_mult: 1
    decay_mult: 1
  }
  param {
    lr_mult: 2
    decay_mult: 0
  }
  convolution_param {
    num_output: 128
    kernel_size: 1
    weight_filler {
      type: "xavier"
      std: 0.09
    }
    bias_filler {
      type: "constant"
      value: 0.2
    }
  }
}
layer {
  name: "inception_3b/relu_3x3_reduce"
  type: "ReLU"
  bottom: "inception_3b/3x3_reduce"
  top: "inception_3b/3x3_reduce"
}
layer {
  name: "inception_3b/3x3"
  type: "Convolution"
  bottom: "inception_3b/3x3_reduce"
  top: "inception_3b/3x3"
  param {
    lr_mult: 1
    decay_mult: 1
  }
  param {
    lr_mult: 2
    decay_mult: 0
  }
  convolution_param {
    num_output: 192
    pad: 1
    kernel_size: 3
    weight_filler {
      type: "xavier"
      std: 0.03
    }
    bias_filler {
      type: "constant"
      value: 0.2
    }
  }
}
layer {
  name: "inception_3b/relu_3x3"
  type: "ReLU"
  bottom: "inception_3b/3x3"
  top: "inception_3b/3x3"
}
layer {
  name: "inception_3b/5x5_reduce"
  type: "Convolution"
  bottom: "inception_3a/output"
  top: "inception_3b/5x5_reduce"
  param {
    lr_mult: 1
    decay_mult: 1
  }
  param {
    lr_mult: 2
    decay_mult: 0
  }
  convolution_param {
    num_output: 32
    kernel_size: 1
    weight_filler {
      type: "xavier"
      std: 0.2
    }
    bias_filler {
      type: "constant"
      value: 0.2
    }
  }
}
layer {
  name: "inception_3b/relu_5x5_reduce"
  type: "ReLU"
  bottom: "inception_3b/5x5_reduce"
  top: "inception_3b/5x5_reduce"
}
layer {
  name: "inception_3b/5x5"
  type: "Convolution"
  bottom: "inception_3b/5x5_reduce"
  top: "inception_3b/5x5"
  param {
    lr_mult: 1
    decay_mult: 1
  }
  param {
    lr_mult: 2
    decay_mult: 0
  }
  convolution_param {
    num_output: 96
    pad: 2
    kernel_size: 5
    weight_filler {
      type: "xavier"
      std: 0.03
    }
    bias_filler {
      type: "constant"
      value: 0.2
    }
  }
}
layer {
  name: "inception_3b/relu_5x5"
  type: "ReLU"
  bottom: "inception_3b/5x5"
  top: "inception_3b/5x5"
}
layer {
  name: "inception_3b/pool"
  type: "Pooling"
  bottom: "inception_3a/output"
  top: "inception_3b/pool"
  pooling_param {
    pool: MAX
    kernel_size: 3
    stride: 1
    pad: 1
  }
}
layer {
  name: "inception_3b/pool_proj"
  type: "Convolution"
  bottom: "inception_3b/pool"
  top: "inception_3b/pool_proj"
  param {
    lr_mult: 1
    decay_mult: 1
  }
  param {
    lr_mult: 2
    decay_mult: 0
  }
  convolution_param {
    num_output: 64
    kernel_size: 1
    weight_filler {
      type: "xavier"
      std: 0.1
    }
    bias_filler {
      type: "constant"
      value: 0.2
    }
  }
}
layer {
  name: "inception_3b/relu_pool_proj"
  type: "ReLU"
  bottom: "inception_3b/pool_proj"
  top: "inception_3b/pool_proj"
}
layer {
  name: "inception_3b/output"
  type: "Concat"
  bottom: "inception_3b/1x1"
  bottom: "inception_3b/3x3"
  bottom: "inception_3b/5x5"
  bottom: "inception_3b/pool_proj"
  top: "inception_3b/output"
}
layer {
  name: "pool3/3x3_s2"
  type: "Pooling"
  bottom: "inception_3b/output"
  top: "pool3/3x3_s2"
  pooling_param {
    pool: MAX
    kernel_size: 3
    stride: 2
  }
}
layer {
  name: "inception_4a/1x1"
  type: "Convolution"
  bottom: "pool3/3x3_s2"
  top: "inception_4a/1x1"
  param {
    lr_mult: 1
    decay_mult: 1
  }
  param {
    lr_mult: 2
    decay_mult: 0
  }
  convolution_param {
    num_output: 192
    kernel_size: 1
    weight_filler {
      type: "xavier"
      std: 0.03
    }
    bias_filler {
      type: "constant"
      value: 0.2
    }
  }
}
layer {
  name: "inception_4a/relu_1x1"
  type: "ReLU"
  bottom: "inception_4a/1x1"
  top: "inception_4a/1x1"
}
layer {
  name: "inception_4a/3x3_reduce"
  type: "Convolution"
  bottom: "pool3/3x3_s2"
  top: "inception_4a/3x3_reduce"
  param {
    lr_mult: 1
    decay_mult: 1
  }
  param {
    lr_mult: 2
    decay_mult: 0
  }
  convolution_param {
    num_output: 96
    kernel_size: 1
    weight_filler {
      type: "xavier"
      std: 0.09
    }
    bias_filler {
      type: "constant"
      value: 0.2
    }
  }
}
layer {
  name: "inception_4a/relu_3x3_reduce"
  type: "ReLU"
  bottom: "inception_4a/3x3_reduce"
  top: "inception_4a/3x3_reduce"
}
layer {
  name: "inception_4a/3x3"
  type: "Convolution"
  bottom: "inception_4a/3x3_reduce"
  top: "inception_4a/3x3"
  param {
    lr_mult: 1
    decay_mult: 1
  }
  param {
    lr_mult: 2
    decay_mult: 0
  }
  convolution_param {
    num_output: 208
    pad: 1
    kernel_size: 3
    weight_filler {
      type: "xavier"
      std: 0.03
    }
    bias_filler {
      type: "constant"
      value: 0.2
    }
  }
}
layer {
  name: "inception_4a/relu_3x3"
  type: "ReLU"
  bottom: "inception_4a/3x3"
  top: "inception_4a/3x3"
}
layer {
  name: "inception_4a/5x5_reduce"
  type: "Convolution"
  bottom: "pool3/3x3_s2"
  top: "inception_4a/5x5_reduce"
  param {
    lr_mult: 1
    decay_mult: 1
  }
  param {
    lr_mult: 2
    decay_mult: 0
  }
  convolution_param {
    num_output: 16
    kernel_size: 1
    weight_filler {
      type: "xavier"
      std: 0.2
    }
    bias_filler {
      type: "constant"
      value: 0.2
    }
  }
}
layer {
  name: "inception_4a/relu_5x5_reduce"
  type: "ReLU"
  bottom: "inception_4a/5x5_reduce"
  top: "inception_4a/5x5_reduce"
}
layer {
  name: "inception_4a/5x5"
  type: "Convolution"
  bottom: "inception_4a/5x5_reduce"
  top: "inception_4a/5x5"
  param {
    lr_mult: 1
    decay_mult: 1
  }
  param {
    lr_mult: 2
    decay_mult: 0
  }
  convolution_param {
    num_output: 48
    pad: 2
    kernel_size: 5
    weight_filler {
      type: "xavier"
      std: 0.03
    }
    bias_filler {
      type: "constant"
      value: 0.2
    }
  }
}
layer {
  name: "inception_4a/relu_5x5"
  type: "ReLU"
  bottom: "inception_4a/5x5"
  top: "inception_4a/5x5"
}
layer {
  name: "inception_4a/pool"
  type: "Pooling"
  bottom: "pool3/3x3_s2"
  top: "inception_4a/pool"
  pooling_param {
    pool: MAX
    kernel_size: 3
    stride: 1
    pad: 1
  }
}
layer {
  name: "inception_4a/pool_proj"
  type: "Convolution"
  bottom: "inception_4a/pool"
  top: "inception_4a/pool_proj"
  param {
    lr_mult: 1
    decay_mult: 1
  }
  param {
    lr_mult: 2
    decay_mult: 0
  }
  convolution_param {
    num_output: 64
    kernel_size: 1
    weight_filler {
      type: "xavier"
      std: 0.1
    }
    bias_filler {
      type: "constant"
      value: 0.2
    }
  }
}
layer {
  name: "inception_4a/relu_pool_proj"
  type: "ReLU"
  bottom: "inception_4a/pool_proj"
  top: "inception_4a/pool_proj"
}
layer {
  name: "inception_4a/output"
  type: "Concat"
  bottom: "inception_4a/1x1"
  bottom: "inception_4a/3x3"
  bottom: "inception_4a/5x5"
  bottom: "inception_4a/pool_proj"
  top: "inception_4a/output"
}
layer {
  name: "inception_4b/1x1"
  type: "Convolution"
  bottom: "inception_4a/output"
  top: "inception_4b/1x1"
  param {
    lr_mult: 1
    decay_mult: 1
  }
  param {
    lr_mult: 2
    decay_mult: 0
  }
  convolution_param {
    num_output: 160
    kernel_size: 1
    weight_filler {
      type: "xavier"
      std: 0.03
    }
    bias_filler {
      type: "constant"
      value: 0.2
    }
  }
}
layer {
  name: "inception_4b/relu_1x1"
  type: "ReLU"
  bottom: "inception_4b/1x1"
  top: "inception_4b/1x1"
}
layer {
  name: "inception_4b/3x3_reduce"
  type: "Convolution"
  bottom: "inception_4a/output"
  top: "inception_4b/3x3_reduce"
  param {
    lr_mult: 1
    decay_mult: 1
  }
  param {
    lr_mult: 2
    decay_mult: 0
  }
  convolution_param {
    num_output: 112
    kernel_size: 1
    weight_filler {
      type: "xavier"
      std: 0.09
    }
    bias_filler {
      type: "constant"
      value: 0.2
    }
  }
}
layer {
  name: "inception_4b/relu_3x3_reduce"
  type: "ReLU"
  bottom: "inception_4b/3x3_reduce"
  top: "inception_4b/3x3_reduce"
}
layer {
  name: "inception_4b/3x3"
  type: "Convolution"
  bottom: "inception_4b/3x3_reduce"
  top: "inception_4b/3x3"
  param {
    lr_mult: 1
    decay_mult: 1
  }
  param {
    lr_mult: 2
    decay_mult: 0
  }
  convolution_param {
    num_output: 224
    pad: 1
    kernel_size: 3
    weight_filler {
      type: "xavier"
      std: 0.03
    }
    bias_filler {
      type: "constant"
      value: 0.2
    }
  }
}
layer {
  name: "inception_4b/relu_3x3"
  type: "ReLU"
  bottom: "inception_4b/3x3"
  top: "inception_4b/3x3"
}
layer {
  name: "inception_4b/5x5_reduce"
  type: "Convolution"
  bottom: "inception_4a/output"
  top: "inception_4b/5x5_reduce"
  param {
    lr_mult: 1
    decay_mult: 1
  }
  param {
    lr_mult: 2
    decay_mult: 0
  }
  convolution_param {
    num_output: 24
    kernel_size: 1
    weight_filler {
      type: "xavier"
      std: 0.2
    }
    bias_filler {
      type: "constant"
      value: 0.2
    }
  }
}
layer {
  name: "inception_4b/relu_5x5_reduce"
  type: "ReLU"
  bottom: "inception_4b/5x5_reduce"
  top: "inception_4b/5x5_reduce"
}
layer {
  name: "inception_4b/5x5"
  type: "Convolution"
  bottom: "inception_4b/5x5_reduce"
  top: "inception_4b/5x5"
  param {
    lr_mult: 1
    decay_mult: 1
  }
  param {
    lr_mult: 2
    decay_mult: 0
  }
  convolution_param {
    num_output: 64
    pad: 2
    kernel_size: 5
    weight_filler {
      type: "xavier"
      std: 0.03
    }
    bias_filler {
      type: "constant"
      value: 0.2
    }
  }
}
layer {
  name: "inception_4b/relu_5x5"
  type: "ReLU"
  bottom: "inception_4b/5x5"
  top: "inception_4b/5x5"
}
layer {
  name: "inception_4b/pool"
  type: "Pooling"
  bottom: "inception_4a/output"
  top: "inception_4b/pool"
  pooling_param {
    pool: MAX
    kernel_size: 3
    stride: 1
    pad: 1
  }
}
layer {
  name: "inception_4b/pool_proj"
  type: "Convolution"
  bottom: "inception_4b/pool"
  top: "inception_4b/pool_proj"
  param {
    lr_mult: 1
    decay_mult: 1
  }
  param {
    lr_mult: 2
    decay_mult: 0
  }
  convolution_param {
    num_output: 64
    kernel_size: 1
    weight_filler {
      type: "xavier"
      std: 0.1
    }
    bias_filler {
      type: "constant"
      value: 0.2
    }
  }
}
layer {
  name: "inception_4b/relu_pool_proj"
  type: "ReLU"
  bottom: "inception_4b/pool_proj"
  top: "inception_4b/pool_proj"
}
layer {
  name: "inception_4b/output"
  type: "Concat"
  bottom: "inception_4b/1x1"
  bottom: "inception_4b/3x3"
  bottom: "inception_4b/5x5"
  bottom: "inception_4b/pool_proj"
  top: "inception_4b/output"
}
layer {
  name: "inception_4c/1x1"
  type: "Convolution"
  bottom: "inception_4b/output"
  top: "inception_4c/1x1"
  param {
    lr_mult: 1
    decay_mult: 1
  }
  param {
    lr_mult: 2
    decay_mult: 0
  }
  convolution_param {
    num_output: 128
    kernel_size: 1
    weight_filler {
      type: "xavier"
      std: 0.03
    }
    bias_filler {
      type: "constant"
      value: 0.2
    }
  }
}
layer {
  name: "inception_4c/relu_1x1"
  type: "ReLU"
  bottom: "inception_4c/1x1"
  top: "inception_4c/1x1"
}
layer {
  name: "inception_4c/3x3_reduce"
  type: "Convolution"
  bottom: "inception_4b/output"
  top: "inception_4c/3x3_reduce"
  param {
    lr_mult: 1
    decay_mult: 1
  }
  param {
    lr_mult: 2
    decay_mult: 0
  }
  convolution_param {
    num_output: 128
    kernel_size: 1
    weight_filler {
      type: "xavier"
      std: 0.09
    }
    bias_filler {
      type: "constant"
      value: 0.2
    }
  }
}
layer {
  name: "inception_4c/relu_3x3_reduce"
  type: "ReLU"
  bottom: "inception_4c/3x3_reduce"
  top: "inception_4c/3x3_reduce"
}
layer {
  name: "inception_4c/3x3"
  type: "Convolution"
  bottom: "inception_4c/3x3_reduce"
  top: "inception_4c/3x3"
  param {
    lr_mult: 1
    decay_mult: 1
  }
  param {
    lr_mult: 2
    decay_mult: 0
  }
  convolution_param {
    num_output: 256
    pad: 1
    kernel_size: 3
    weight_filler {
      type: "xavier"
      std: 0.03
    }
    bias_filler {
      type: "constant"
      value: 0.2
    }
  }
}
layer {
  name: "inception_4c/relu_3x3"
  type: "ReLU"
  bottom: "inception_4c/3x3"
  top: "inception_4c/3x3"
}
layer {
  name: "inception_4c/5x5_reduce"
  type: "Convolution"
  bottom: "inception_4b/output"
  top: "inception_4c/5x5_reduce"
  param {
    lr_mult: 1
    decay_mult: 1
  }
  param {
    lr_mult: 2
    decay_mult: 0
  }
  convolution_param {
    num_output: 24
    kernel_size: 1
    weight_filler {
      type: "xavier"
      std: 0.2
    }
    bias_filler {
      type: "constant"
      value: 0.2
    }
  }
}
layer {
  name: "inception_4c/relu_5x5_reduce"
  type: "ReLU"
  bottom: "inception_4c/5x5_reduce"
  top: "inception_4c/5x5_reduce"
}
layer {
  name: "inception_4c/5x5"
  type: "Convolution"
  bottom: "inception_4c/5x5_reduce"
  top: "inception_4c/5x5"
  param {
    lr_mult: 1
    decay_mult: 1
  }
  param {
    lr_mult: 2
    decay_mult: 0
  }
  convolution_param {
    num_output: 64
    pad: 2
    kernel_size: 5
    weight_filler {
      type: "xavier"
      std: 0.03
    }
    bias_filler {
      type: "constant"
      value: 0.2
    }
  }
}
layer {
  name: "inception_4c/relu_5x5"
  type: "ReLU"
  bottom: "inception_4c/5x5"
  top: "inception_4c/5x5"
}
layer {
  name: "inception_4c/pool"
  type: "Pooling"
  bottom: "inception_4b/output"
  top: "inception_4c/pool"
  pooling_param {
    pool: MAX
    kernel_size: 3
    stride: 1
    pad: 1
  }
}
layer {
  name: "inception_4c/pool_proj"
  type: "Convolution"
  bottom: "inception_4c/pool"
  top: "inception_4c/pool_proj"
  param {
    lr_mult: 1
    decay_mult: 1
  }
  param {
    lr_mult: 2
    decay_mult: 0
  }
  convolution_param {
    num_output: 64
    kernel_size: 1
    weight_filler {
      type: "xavier"
      std: 0.1
    }
    bias_filler {
      type: "constant"
      value: 0.2
    }
  }
}
layer {
  name: "inception_4c/relu_pool_proj"
  type: "ReLU"
  bottom: "inception_4c/pool_proj"
  top: "inception_4c/pool_proj"
}
layer {
  name: "inception_4c/output"
  type: "Concat"
  bottom: "inception_4c/1x1"
  bottom: "inception_4c/3x3"
  bottom: "inception_4c/5x5"
  bottom: "inception_4c/pool_proj"
  top: "inception_4c/output"
}
layer {
  name: "inception_4d/1x1"
  type: "Convolution"
  bottom: "inception_4c/output"
  top: "inception_4d/1x1"
  param {
    lr_mult: 1
    decay_mult: 1
  }
  param {
    lr_mult: 2
    decay_mult: 0
  }
  convolution_param {
    num_output: 112
    kernel_size: 1
    weight_filler {
      type: "xavier"
      std: 0.03
    }
    bias_filler {
      type: "constant"
      value: 0.2
    }
  }
}
layer {
  name: "inception_4d/relu_1x1"
  type: "ReLU"
  bottom: "inception_4d/1x1"
  top: "inception_4d/1x1"
}
layer {
  name: "inception_4d/3x3_reduce"
  type: "Convolution"
  bottom: "inception_4c/output"
  top: "inception_4d/3x3_reduce"
  param {
    lr_mult: 1
    decay_mult: 1
  }
  param {
    lr_mult: 2
    decay_mult: 0
  }
  convolution_param {
    num_output: 144
    kernel_size: 1
    weight_filler {
      type: "xavier"
      std: 0.09
    }
    bias_filler {
      type: "constant"
      value: 0.2
    }
  }
}
layer {
  name: "inception_4d/relu_3x3_reduce"
  type: "ReLU"
  bottom: "inception_4d/3x3_reduce"
  top: "inception_4d/3x3_reduce"
}
layer {
  name: "inception_4d/3x3"
  type: "Convolution"
  bottom: "inception_4d/3x3_reduce"
  top: "inception_4d/3x3"
  param {
    lr_mult: 1
    decay_mult: 1
  }
  param {
    lr_mult: 2
    decay_mult: 0
  }
  convolution_param {
    num_output: 288
    pad: 1
    kernel_size: 3
    weight_filler {
      type: "xavier"
      std: 0.03
    }
    bias_filler {
      type: "constant"
      value: 0.2
    }
  }
}
layer {
  name: "inception_4d/relu_3x3"
  type: "ReLU"
  bottom: "inception_4d/3x3"
  top: "inception_4d/3x3"
}
layer {
  name: "inception_4d/5x5_reduce"
  type: "Convolution"
  bottom: "inception_4c/output"
  top: "inception_4d/5x5_reduce"
  param {
    lr_mult: 1
    decay_mult: 1
  }
  param {
    lr_mult: 2
    decay_mult: 0
  }
  convolution_param {
    num_output: 32
    kernel_size: 1
    weight_filler {
      type: "xavier"
      std: 0.2
    }
    bias_filler {
      type: "constant"
      value: 0.2
    }
  }
}
layer {
  name: "inception_4d/relu_5x5_reduce"
  type: "ReLU"
  bottom: "inception_4d/5x5_reduce"
  top: "inception_4d/5x5_reduce"
}
layer {
  name: "inception_4d/5x5"
  type: "Convolution"
  bottom: "inception_4d/5x5_reduce"
  top: "inception_4d/5x5"
  param {
    lr_mult: 1
    decay_mult: 1
  }
  param {
    lr_mult: 2
    decay_mult: 0
  }
  convolution_param {
    num_output: 64
    pad: 2
    kernel_size: 5
    weight_filler {
      type: "xavier"
      std: 0.03
    }
    bias_filler {
      type: "constant"
      value: 0.2
    }
  }
}
layer {
  name: "inception_4d/relu_5x5"
  type: "ReLU"
  bottom: "inception_4d/5x5"
  top: "inception_4d/5x5"
}
layer {
  name: "inception_4d/pool"
  type: "Pooling"
  bottom: "inception_4c/output"
  top: "inception_4d/pool"
  pooling_param {
    pool: MAX
    kernel_size: 3
    stride: 1
    pad: 1
  }
}
layer {
  name: "inception_4d/pool_proj"
  type: "Convolution"
  bottom: "inception_4d/pool"
  top: "inception_4d/pool_proj"
  param {
    lr_mult: 1
    decay_mult: 1
  }
  param {
    lr_mult: 2
    decay_mult: 0
  }
  convolution_param {
    num_output: 64
    kernel_size: 1
    weight_filler {
      type: "xavier"
      std: 0.1
    }
    bias_filler {
      type: "constant"
      value: 0.2
    }
  }
}
layer {
  name: "inception_4d/relu_pool_proj"
  type: "ReLU"
  bottom: "inception_4d/pool_proj"
  top: "inception_4d/pool_proj"
}
layer {
  name: "inception_4d/output"
  type: "Concat"
  bottom: "inception_4d/1x1"
  bottom: "inception_4d/3x3"
  bottom: "inception_4d/5x5"
  bottom: "inception_4d/pool_proj"
  top: "inception_4d/output"
}
layer {
  name: "inception_4e/1x1"
  type: "Convolution"
  bottom: "inception_4d/output"
  top: "inception_4e/1x1"
  param {
    lr_mult: 1
    decay_mult: 1
  }
  param {
    lr_mult: 2
    decay_mult: 0
  }
  convolution_param {
    num_output: 256
    kernel_size: 1
    weight_filler {
      type: "xavier"
      std: 0.03
    }
    bias_filler {
      type: "constant"
      value: 0.2
    }
  }
}
layer {
  name: "inception_4e/relu_1x1"
  type: "ReLU"
  bottom: "inception_4e/1x1"
  top: "inception_4e/1x1"
}
layer {
  name: "inception_4e/3x3_reduce"
  type: "Convolution"
  bottom: "inception_4d/output"
  top: "inception_4e/3x3_reduce"
  param {
    lr_mult: 1
    decay_mult: 1
  }
  param {
    lr_mult: 2
    decay_mult: 0
  }
  convolution_param {
    num_output: 160
    kernel_size: 1
    weight_filler {
      type: "xavier"
      std: 0.09
    }
    bias_filler {
      type: "constant"
      value: 0.2
    }
  }
}
layer {
  name: "inception_4e/relu_3x3_reduce"
  type: "ReLU"
  bottom: "inception_4e/3x3_reduce"
  top: "inception_4e/3x3_reduce"
}
layer {
  name: "inception_4e/3x3"
  type: "Convolution"
  bottom: "inception_4e/3x3_reduce"
  top: "inception_4e/3x3"
  param {
    lr_mult: 1
    decay_mult: 1
  }
  param {
    lr_mult: 2
    decay_mult: 0
  }
  convolution_param {
    num_output: 320
    pad: 1
    kernel_size: 3
    weight_filler {
      type: "xavier"
      std: 0.03
    }
    bias_filler {
      type: "constant"
      value: 0.2
    }
  }
}
layer {
  name: "inception_4e/relu_3x3"
  type: "ReLU"
  bottom: "inception_4e/3x3"
  top: "inception_4e/3x3"
}
layer {
  name: "inception_4e/5x5_reduce"
  type: "Convolution"
  bottom: "inception_4d/output"
  top: "inception_4e/5x5_reduce"
  param {
    lr_mult: 1
    decay_mult: 1
  }
  param {
    lr_mult: 2
    decay_mult: 0
  }
  convolution_param {
    num_output: 32
    kernel_size: 1
    weight_filler {
      type: "xavier"
      std: 0.2
    }
    bias_filler {
      type: "constant"
      value: 0.2
    }
  }
}
layer {
  name: "inception_4e/relu_5x5_reduce"
  type: "ReLU"
  bottom: "inception_4e/5x5_reduce"
  top: "inception_4e/5x5_reduce"
}
layer {
  name: "inception_4e/5x5"
  type: "Convolution"
  bottom: "inception_4e/5x5_reduce"
  top: "inception_4e/5x5"
  param {
    lr_mult: 1
    decay_mult: 1
  }
  param {
    lr_mult: 2
    decay_mult: 0
  }
  convolution_param {
    num_output: 128
    pad: 2
    kernel_size: 5
    weight_filler {
      type: "xavier"
      std: 0.03
    }
    bias_filler {
      type: "constant"
      value: 0.2
    }
  }
}
layer {
  name: "inception_4e/relu_5x5"
  type: "ReLU"
  bottom: "inception_4e/5x5"
  top: "inception_4e/5x5"
}
layer {
  name: "inception_4e/pool"
  type: "Pooling"
  bottom: "inception_4d/output"
  top: "inception_4e/pool"
  pooling_param {
    pool: MAX
    kernel_size: 3
    stride: 1
    pad: 1
  }
}
layer {
  name: "inception_4e/pool_proj"
  type: "Convolution"
  bottom: "inception_4e/pool"
  top: "inception_4e/pool_proj"
  param {
    lr_mult: 1
    decay_mult: 1
  }
  param {
    lr_mult: 2
    decay_mult: 0
  }
  convolution_param {
    num_output: 128
    kernel_size: 1
    weight_filler {
      type: "xavier"
      std: 0.1
    }
    bias_filler {
      type: "constant"
      value: 0.2
    }
  }
}
layer {
  name: "inception_4e/relu_pool_proj"
  type: "ReLU"
  bottom: "inception_4e/pool_proj"
  top: "inception_4e/pool_proj"
}
layer {
  name: "inception_4e/output"
  type: "Concat"
  bottom: "inception_4e/1x1"
  bottom: "inception_4e/3x3"
  bottom: "inception_4e/5x5"
  bottom: "inception_4e/pool_proj"
  top: "inception_4e/output"
}
layer {
  name: "pool4/3x3_s2"
  type: "Pooling"
  bottom: "inception_4e/output"
  top: "pool4/3x3_s2"
  pooling_param {
    pool: MAX
    kernel_size: 3
    stride: 2
  }
}
layer {
  name: "inception_5a/1x1"
  type: "Convolution"
  bottom: "pool4/3x3_s2"
  top: "inception_5a/1x1"
  param {
    lr_mult: 1
    decay_mult: 1
  }
  param {
    lr_mult: 2
    decay_mult: 0
  }
  convolution_param {
    num_output: 256
    kernel_size: 1
    weight_filler {
      type: "xavier"
      std: 0.03
    }
    bias_filler {
      type: "constant"
      value: 0.2
    }
  }
}
layer {
  name: "inception_5a/relu_1x1"
  type: "ReLU"
  bottom: "inception_5a/1x1"
  top: "inception_5a/1x1"
}
layer {
  name: "inception_5a/3x3_reduce"
  type: "Convolution"
  bottom: "pool4/3x3_s2"
  top: "inception_5a/3x3_reduce"
  param {
    lr_mult: 1
    decay_mult: 1
  }
  param {
    lr_mult: 2
    decay_mult: 0
  }
  convolution_param {
    num_output: 160
    kernel_size: 1
    weight_filler {
      type: "xavier"
      std: 0.09
    }
    bias_filler {
      type: "constant"
      value: 0.2
    }
  }
}
layer {
  name: "inception_5a/relu_3x3_reduce"
  type: "ReLU"
  bottom: "inception_5a/3x3_reduce"
  top: "inception_5a/3x3_reduce"
}
layer {
  name: "inception_5a/3x3"
  type: "Convolution"
  bottom: "inception_5a/3x3_reduce"
  top: "inception_5a/3x3"
  param {
    lr_mult: 1
    decay_mult: 1
  }
  param {
    lr_mult: 2
    decay_mult: 0
  }
  convolution_param {
    num_output: 320
    pad: 1
    kernel_size: 3
    weight_filler {
      type: "xavier"
      std: 0.03
    }
    bias_filler {
      type: "constant"
      value: 0.2
    }
  }
}
layer {
  name: "inception_5a/relu_3x3"
  type: "ReLU"
  bottom: "inception_5a/3x3"
  top: "inception_5a/3x3"
}
layer {
  name: "inception_5a/5x5_reduce"
  type: "Convolution"
  bottom: "pool4/3x3_s2"
  top: "inception_5a/5x5_reduce"
  param {
    lr_mult: 1
    decay_mult: 1
  }
  param {
    lr_mult: 2
    decay_mult: 0
  }
  convolution_param {
    num_output: 32
    kernel_size: 1
    weight_filler {
      type: "xavier"
      std: 0.2
    }
    bias_filler {
      type: "constant"
      value: 0.2
    }
  }
}
layer {
  name: "inception_5a/relu_5x5_reduce"
  type: "ReLU"
  bottom: 
I0506 13:05:38.776692 18608 net.cpp:413] Input 0 -> data
I0506 13:05:38.786660 18608 layer_factory.hpp:77] Creating layer conv1/7x7_s2
I0506 13:05:38.788128 18608 net.cpp:106] Creating Layer conv1/7x7_s2
I0506 13:05:38.791898 18608 net.cpp:454] conv1/7x7_s2 <- data
I0506 13:05:38.795583 18608 net.cpp:411] conv1/7x7_s2 -> conv1/7x7_s2
I0506 13:05:38.974918 18608 net.cpp:150] Setting up conv1/7x7_s2
I0506 13:05:38.977507 18608 net.cpp:157] Top shape: 140 64 112 112 (112394240)
I0506 13:05:38.977536 18608 net.cpp:165] Memory required for data: 449576960
I0506 13:05:38.977571 18608 layer_factory.hpp:77] Creating layer conv1/relu_7x7
I0506 13:05:38.982085 18608 net.cpp:106] Creating Layer conv1/relu_7x7
I0506 13:05:38.982213 18608 net.cpp:454] conv1/relu_7x7 <- conv1/7x7_s2
I0506 13:05:38.982259 18608 net.cpp:397] conv1/relu_7x7 -> conv1/7x7_s2 (in-place)
I0506 13:05:38.982566 18608 net.cpp:150] Setting up conv1/relu_7x7
I0506 13:05:38.982626 18608 net.cpp:157] Top shape: 140 64 112 112 (112394240)
I0506 13:05:38.982738 18608 net.cpp:165] Memory required for data: 899153920
I0506 13:05:38.989275 18608 layer_factory.hpp:77] Creating layer pool1/3x3_s2
I0506 13:05:38.989395 18608 net.cpp:106] Creating Layer pool1/3x3_s2
I0506 13:05:38.998148 18608 net.cpp:454] pool1/3x3_s2 <- conv1/7x7_s2
I0506 13:05:38.998250 18608 net.cpp:411] pool1/3x3_s2 -> pool1/3x3_s2
I0506 13:05:39.004573 18608 net.cpp:150] Setting up pool1/3x3_s2
I0506 13:05:39.012259 18608 net.cpp:157] Top shape: 140 64 56 56 (28098560)
I0506 13:05:39.019062 18608 net.cpp:165] Memory required for data: 1011548160
I0506 13:05:39.019170 18608 layer_factory.hpp:77] Creating layer pool1/norm1
I0506 13:05:39.019217 18608 net.cpp:106] Creating Layer pool1/norm1
I0506 13:05:39.024471 18608 net.cpp:454] pool1/norm1 <- pool1/3x3_s2
I0506 13:05:39.024515 18608 net.cpp:411] pool1/norm1 -> pool1/norm1
I0506 13:05:39.028175 18608 net.cpp:150] Setting up pool1/norm1
I0506 13:05:39.028565 18608 net.cpp:157] Top shape: 140 64 56 56 (28098560)
I0506 13:05:39.029276 18608 net.cpp:165] Memory required for data: 1123942400
I0506 13:05:39.029379 18608 layer_factory.hpp:77] Creating layer conv2/3x3_reduce
I0506 13:05:39.029428 18608 net.cpp:106] Creating Layer conv2/3x3_reduce
I0506 13:05:39.034237 18608 net.cpp:454] conv2/3x3_reduce <- pool1/norm1
I0506 13:05:39.040828 18608 net.cpp:411] conv2/3x3_reduce -> conv2/3x3_reduce
I0506 13:05:39.042053 18608 net.cpp:150] Setting up conv2/3x3_reduce
I0506 13:05:39.045881 18608 net.cpp:157] Top shape: 140 64 56 56 (28098560)
I0506 13:05:39.045935 18608 net.cpp:165] Memory required for data: 1236336640
I0506 13:05:39.046064 18608 layer_factory.hpp:77] Creating layer conv2/relu_3x3_reduce
I0506 13:05:39.054563 18608 net.cpp:106] Creating Layer conv2/relu_3x3_reduce
I0506 13:05:39.054680 18608 net.cpp:454] conv2/relu_3x3_reduce <- conv2/3x3_reduce
I0506 13:05:39.055194 18608 net.cpp:397] conv2/relu_3x3_reduce -> conv2/3x3_reduce (in-place)
I0506 13:05:39.055533 18608 net.cpp:150] Setting up conv2/relu_3x3_reduce
I0506 13:05:39.058555 18608 net.cpp:157] Top shape: 140 64 56 56 (28098560)
I0506 13:05:39.058671 18608 net.cpp:165] Memory required for data: 1348730880
I0506 13:05:39.063453 18608 layer_factory.hpp:77] Creating layer conv2/3x3
I0506 13:05:39.063560 18608 net.cpp:106] Creating Layer conv2/3x3
I0506 13:05:39.072059 18608 net.cpp:454] conv2/3x3 <- conv2/3x3_reduce
I0506 13:05:39.072160 18608 net.cpp:411] conv2/3x3 -> conv2/3x3
I0506 13:05:39.076267 18608 net.cpp:150] Setting up conv2/3x3
I0506 13:05:39.081571 18608 net.cpp:157] Top shape: 140 192 56 56 (84295680)
I0506 13:05:39.083838 18608 net.cpp:165] Memory required for data: 1685913600
I0506 13:05:39.083947 18608 layer_factory.hpp:77] Creating layer conv2/relu_3x3
I0506 13:05:39.090381 18608 net.cpp:106] Creating Layer conv2/relu_3x3
I0506 13:05:39.090481 18608 net.cpp:454] conv2/relu_3x3 <- conv2/3x3
I0506 13:05:39.090533 18608 net.cpp:397] conv2/relu_3x3 -> conv2/3x3 (in-place)
I0506 13:05:39.100991 18608 net.cpp:150] Setting up conv2/relu_3x3
I0506 13:05:39.101399 18608 net.cpp:157] Top shape: 140 192 56 56 (84295680)
I0506 13:05:39.101512 18608 net.cpp:165] Memory required for data: 2023096320
I0506 13:05:39.101892 18608 layer_factory.hpp:77] Creating layer conv2/norm2
I0506 13:05:39.101992 18608 net.cpp:106] Creating Layer conv2/norm2
I0506 13:05:39.109393 18608 net.cpp:454] conv2/norm2 <- conv2/3x3
I0506 13:05:39.109490 18608 net.cpp:411] conv2/norm2 -> conv2/norm2
I0506 13:05:39.110169 18608 net.cpp:150] Setting up conv2/norm2
I0506 13:05:39.113634 18608 net.cpp:157] Top shape: 140 192 56 56 (84295680)
I0506 13:05:39.113955 18608 net.cpp:165] Memory required for data: 2360279040
I0506 13:05:39.114058 18608 layer_factory.hpp:77] Creating layer pool2/3x3_s2
I0506 13:05:39.114101 18608 net.cpp:106] Creating Layer pool2/3x3_s2
I0506 13:05:39.114133 18608 net.cpp:454] pool2/3x3_s2 <- conv2/norm2
I0506 13:05:39.114246 18608 net.cpp:411] pool2/3x3_s2 -> pool2/3x3_s2
I0506 13:05:39.114902 18608 net.cpp:150] Setting up pool2/3x3_s2
I0506 13:05:39.115283 18608 net.cpp:157] Top shape: 140 192 28 28 (21073920)
I0506 13:05:39.121664 18608 net.cpp:165] Memory required for data: 2444574720
I0506 13:05:39.121765 18608 layer_factory.hpp:77] Creating layer pool2/3x3_s2_pool2/3x3_s2_0_split
I0506 13:05:39.121811 18608 net.cpp:106] Creating Layer pool2/3x3_s2_pool2/3x3_s2_0_split
I0506 13:05:39.122421 18608 net.cpp:454] pool2/3x3_s2_pool2/3x3_s2_0_split <- pool2/3x3_s2
I0506 13:05:39.122463 18608 net.cpp:411] pool2/3x3_s2_pool2/3x3_s2_0_split -> pool2/3x3_s2_pool2/3x3_s2_0_split_0
I0506 13:05:39.122884 18608 net.cpp:411] pool2/3x3_s2_pool2/3x3_s2_0_split -> pool2/3x3_s2_pool2/3x3_s2_0_split_1
I0506 13:05:39.122978 18608 net.cpp:411] pool2/3x3_s2_pool2/3x3_s2_0_split -> pool2/3x3_s2_pool2/3x3_s2_0_split_2
I0506 13:05:39.127125 18608 net.cpp:411] pool2/3x3_s2_pool2/3x3_s2_0_split -> pool2/3x3_s2_pool2/3x3_s2_0_split_3
I0506 13:05:39.127279 18608 net.cpp:150] Setting up pool2/3x3_s2_pool2/3x3_s2_0_split
I0506 13:05:39.127609 18608 net.cpp:157] Top shape: 140 192 28 28 (21073920)
I0506 13:05:39.127846 18608 net.cpp:157] Top shape: 140 192 28 28 (21073920)
I0506 13:05:39.127944 18608 net.cpp:157] Top shape: 140 192 28 28 (21073920)
I0506 13:05:39.127985 18608 net.cpp:157] Top shape: 140 192 28 28 (21073920)
I0506 13:05:39.132405 18608 net.cpp:165] Memory required for data: 2781757440
I0506 13:05:39.132542 18608 layer_factory.hpp:77] Creating layer inception_3a/1x1
I0506 13:05:39.140838 18608 net.cpp:106] Creating Layer inception_3a/1x1
I0506 13:05:39.145668 18608 net.cpp:454] inception_3a/1x1 <- pool2/3x3_s2_pool2/3x3_s2_0_split_0
I0506 13:05:39.145774 18608 net.cpp:411] inception_3a/1x1 -> inception_3a/1x1
I0506 13:05:39.150084 18608 net.cpp:150] Setting up inception_3a/1x1
I0506 13:05:39.157124 18608 net.cpp:157] Top shape: 140 64 28 28 (7024640)
I0506 13:05:39.160246 18608 net.cpp:165] Memory required for data: 2809856000
I0506 13:05:39.160351 18608 layer_factory.hpp:77] Creating layer inception_3a/relu_1x1
I0506 13:05:39.166210 18608 net.cpp:106] Creating Layer inception_3a/relu_1x1
I0506 13:05:39.166313 18608 net.cpp:454] inception_3a/relu_1x1 <- inception_3a/1x1
I0506 13:05:39.166360 18608 net.cpp:397] inception_3a/relu_1x1 -> inception_3a/1x1 (in-place)
I0506 13:05:39.172080 18608 net.cpp:150] Setting up inception_3a/relu_1x1
I0506 13:05:39.182440 18608 net.cpp:157] Top shape: 140 64 28 28 (7024640)
I0506 13:05:39.182884 18608 net.cpp:165] Memory required for data: 2837954560
I0506 13:05:39.182988 18608 layer_factory.hpp:77] Creating layer inception_3a/3x3_reduce
I0506 13:05:39.183033 18608 net.cpp:106] Creating Layer inception_3a/3x3_reduce
I0506 13:05:39.188627 18608 net.cpp:454] inception_3a/3x3_reduce <- pool2/3x3_s2_pool2/3x3_s2_0_split_1
I0506 13:05:39.188725 18608 net.cpp:411] inception_3a/3x3_reduce -> inception_3a/3x3_reduce
I0506 13:05:39.190165 18608 net.cpp:150] Setting up inception_3a/3x3_reduce
I0506 13:05:39.194175 18608 net.cpp:157] Top shape: 140 96 28 28 (10536960)
I0506 13:05:39.194285 18608 net.cpp:165] Memory required for data: 2880102400
I0506 13:05:39.197756 18608 layer_factory.hpp:77] Creating layer inception_3a/relu_3x3_reduce
I0506 13:05:39.197851 18608 net.cpp:106] Creating Layer inception_3a/relu_3x3_reduce
I0506 13:05:39.206152 18608 net.cpp:454] inception_3a/relu_3x3_reduce <- inception_3a/3x3_reduce
I0506 13:05:39.206249 18608 net.cpp:397] inception_3a/relu_3x3_reduce -> inception_3a/3x3_reduce (in-place)
I0506 13:05:39.213603 18608 net.cpp:150] Setting up inception_3a/relu_3x3_reduce
I0506 13:05:39.222635 18608 net.cpp:157] Top shape: 140 96 28 28 (10536960)
I0506 13:05:39.229676 18608 net.cpp:165] Memory required for data: 2922250240
I0506 13:05:39.229779 18608 layer_factory.hpp:77] Creating layer inception_3a/3x3
I0506 13:05:39.229827 18608 net.cpp:106] Creating Layer inception_3a/3x3
I0506 13:05:39.230111 18608 net.cpp:454] inception_3a/3x3 <- inception_3a/3x3_reduce
I0506 13:05:39.230155 18608 net.cpp:411] inception_3a/3x3 -> inception_3a/3x3
I0506 13:05:39.232116 18608 net.cpp:150] Setting up inception_3a/3x3
I0506 13:05:39.238260 18608 net.cpp:157] Top shape: 140 128 28 28 (14049280)
I0506 13:05:39.238786 18608 net.cpp:165] Memory required for data: 2978447360
I0506 13:05:39.238893 18608 layer_factory.hpp:77] Creating layer inception_3a/relu_3x3
I0506 13:05:39.248769 18608 net.cpp:106] Creating Layer inception_3a/relu_3x3
I0506 13:05:39.248831 18608 net.cpp:454] inception_3a/relu_3x3 <- inception_3a/3x3
I0506 13:05:39.248878 18608 net.cpp:397] inception_3a/relu_3x3 -> inception_3a/3x3 (in-place)
I0506 13:05:39.249475 18608 net.cpp:150] Setting up inception_3a/relu_3x3
I0506 13:05:39.256546 18608 net.cpp:157] Top shape: 140 128 28 28 (14049280)
I0506 13:05:39.258751 18608 net.cpp:165] Memory required for data: 3034644480
I0506 13:05:39.258853 18608 layer_factory.hpp:77] Creating layer inception_3a/5x5_reduce
I0506 13:05:39.258900 18608 net.cpp:106] Creating Layer inception_3a/5x5_reduce
I0506 13:05:39.259609 18608 net.cpp:454] inception_3a/5x5_reduce <- pool2/3x3_s2_pool2/3x3_s2_0_split_2
I0506 13:05:39.259654 18608 net.cpp:411] inception_3a/5x5_reduce -> inception_3a/5x5_reduce
I0506 13:05:39.267940 18608 net.cpp:150] Setting up inception_3a/5x5_reduce
I0506 13:05:39.276224 18608 net.cpp:157] Top shape: 140 16 28 28 (1756160)
I0506 13:05:39.276654 18608 net.cpp:165] Memory required for data: 3041669120
I0506 13:05:39.276759 18608 layer_factory.hpp:77] Creating layer inception_3a/relu_5x5_reduce
I0506 13:05:39.277312 18608 net.cpp:106] Creating Layer inception_3a/relu_5x5_reduce
I0506 13:05:39.277405 18608 net.cpp:454] inception_3a/relu_5x5_reduce <- inception_3a/5x5_reduce
I0506 13:05:39.277468 18608 net.cpp:397] inception_3a/relu_5x5_reduce -> inception_3a/5x5_reduce (in-place)
I0506 13:05:39.277822 18608 net.cpp:150] Setting up inception_3a/relu_5x5_reduce
I0506 13:05:39.280230 18608 net.cpp:157] Top shape: 140 16 28 28 (1756160)
I0506 13:05:39.280501 18608 net.cpp:165] Memory required for data: 3048693760
I0506 13:05:39.280603 18608 layer_factory.hpp:77] Creating layer inception_3a/5x5
I0506 13:05:39.280652 18608 net.cpp:106] Creating Layer inception_3a/5x5
I0506 13:05:39.280966 18608 net.cpp:454] inception_3a/5x5 <- inception_3a/5x5_reduce
I0506 13:05:39.281008 18608 net.cpp:411] inception_3a/5x5 -> inception_3a/5x5
I0506 13:05:39.282032 18608 net.cpp:150] Setting up inception_3a/5x5
I0506 13:05:39.284116 18608 net.cpp:157] Top shape: 140 32 28 28 (3512320)
I0506 13:05:39.284225 18608 net.cpp:165] Memory required for data: 3062743040
I0506 13:05:39.293452 18608 layer_factory.hpp:77] Creating layer inception_3a/relu_5x5
I0506 13:05:39.293548 18608 net.cpp:106] Creating Layer inception_3a/relu_5x5
I0506 13:05:39.298970 18608 net.cpp:454] inception_3a/relu_5x5 <- inception_3a/5x5
I0506 13:05:39.299073 18608 net.cpp:397] inception_3a/relu_5x5 -> inception_3a/5x5 (in-place)
I0506 13:05:39.303596 18608 net.cpp:150] Setting up inception_3a/relu_5x5
I0506 13:05:39.303983 18608 net.cpp:157] Top shape: 140 32 28 28 (3512320)
I0506 13:05:39.304363 18608 net.cpp:165] Memory required for data: 3076792320
I0506 13:05:39.304462 18608 layer_factory.hpp:77] Creating layer inception_3a/pool
I0506 13:05:39.304505 18608 net.cpp:106] Creating Layer inception_3a/pool
I0506 13:05:39.313941 18608 net.cpp:454] inception_3a/pool <- pool2/3x3_s2_pool2/3x3_s2_0_split_3
I0506 13:05:39.314043 18608 net.cpp:411] inception_3a/pool -> inception_3a/pool
I0506 13:05:39.316663 18608 net.cpp:150] Setting up inception_3a/pool
I0506 13:05:39.325878 18608 net.cpp:157] Top shape: 140 192 28 28 (21073920)
I0506 13:05:39.326303 18608 net.cpp:165] Memory required for data: 3161088000
I0506 13:05:39.326406 18608 layer_factory.hpp:77] Creating layer inception_3a/pool_proj
I0506 13:05:39.326452 18608 net.cpp:106] Creating Layer inception_3a/pool_proj
I0506 13:05:39.326570 18608 net.cpp:454] inception_3a/pool_proj <- inception_3a/pool
I0506 13:05:39.326614 18608 net.cpp:411] inception_3a/pool_proj -> inception_3a/pool_proj
I0506 13:05:39.335345 18608 net.cpp:150] Setting up inception_3a/pool_proj
I0506 13:05:39.341445 18608 net.cpp:157] Top shape: 140 32 28 28 (3512320)
I0506 13:05:39.344903 18608 net.cpp:165] Memory required for data: 3175137280
I0506 13:05:39.344944 18608 layer_factory.hpp:77] Creating layer inception_3a/relu_pool_proj
I0506 13:05:39.345067 18608 net.cpp:106] Creating Layer inception_3a/relu_pool_proj
I0506 13:05:39.350296 18608 net.cpp:454] inception_3a/relu_pool_proj <- inception_3a/pool_proj
I0506 13:05:39.350392 18608 net.cpp:397] inception_3a/relu_pool_proj -> inception_3a/pool_proj (in-place)
I0506 13:05:39.355532 18608 net.cpp:150] Setting up inception_3a/relu_pool_proj
I0506 13:05:39.363096 18608 net.cpp:157] Top shape: 140 32 28 28 (3512320)
I0506 13:05:39.367722 18608 net.cpp:165] Memory required for data: 3189186560
I0506 13:05:39.367826 18608 layer_factory.hpp:77] Creating layer inception_3a/output
I0506 13:05:39.367878 18608 net.cpp:106] Creating Layer inception_3a/output
I0506 13:05:39.377722 18608 net.cpp:454] inception_3a/output <- inception_3a/1x1
I0506 13:05:39.381441 18608 net.cpp:454] inception_3a/output <- inception_3a/3x3
I0506 13:05:39.381549 18608 net.cpp:454] inception_3a/output <- inception_3a/5x5
I0506 13:05:39.381592 18608 net.cpp:454] inception_3a/output <- inception_3a/pool_proj
I0506 13:05:39.381882 18608 net.cpp:411] inception_3a/output -> inception_3a/output
I0506 13:05:39.391403 18608 net.cpp:150] Setting up inception_3a/output
I0506 13:05:39.391484 18608 net.cpp:157] Top shape: 140 256 28 28 (28098560)
I0506 13:05:39.395498 18608 net.cpp:165] Memory required for data: 3301580800
I0506 13:05:39.398336 18608 layer_factory.hpp:77] Creating layer inception_3a/output_inception_3a/output_0_split
I0506 13:05:39.398442 18608 net.cpp:106] Creating Layer inception_3a/output_inception_3a/output_0_split
I0506 13:05:39.406566 18608 net.cpp:454] inception_3a/output_inception_3a/output_0_split <- inception_3a/output
I0506 13:05:39.406673 18608 net.cpp:411] inception_3a/output_inception_3a/output_0_split -> inception_3a/output_inception_3a/output_0_split_0
I0506 13:05:39.406726 18608 net.cpp:411] inception_3a/output_inception_3a/output_0_split -> inception_3a/output_inception_3a/output_0_split_1
I0506 13:05:39.406847 18608 net.cpp:411] inception_3a/output_inception_3a/output_0_split -> inception_3a/output_inception_3a/output_0_split_2
I0506 13:05:39.407155 18608 net.cpp:411] inception_3a/output_inception_3a/output_0_split -> inception_3a/output_inception_3a/output_0_split_3
I0506 13:05:39.407325 18608 net.cpp:150] Setting up inception_3a/output_inception_3a/output_0_split
I0506 13:05:39.407552 18608 net.cpp:157] Top shape: 140 256 28 28 (28098560)
I0506 13:05:39.407867 18608 net.cpp:157] Top shape: 140 256 28 28 (28098560)
I0506 13:05:39.407968 18608 net.cpp:157] Top shape: 140 256 28 28 (28098560)
I0506 13:05:39.408010 18608 net.cpp:157] Top shape: 140 256 28 28 (28098560)
I0506 13:05:39.411423 18608 net.cpp:165] Memory required for data: 3751157760
I0506 13:05:39.411464 18608 layer_factory.hpp:77] Creating layer inception_3b/1x1
I0506 13:05:39.411505 18608 net.cpp:106] Creating Layer inception_3b/1x1
I0506 13:05:39.411613 18608 net.cpp:454] inception_3b/1x1 <- inception_3a/output_inception_3a/output_0_split_0
I0506 13:05:39.421262 18608 net.cpp:411] inception_3b/1x1 -> inception_3b/1x1
I0506 13:05:39.422478 18608 net.cpp:150] Setting up inception_3b/1x1
I0506 13:05:39.429081 18608 net.cpp:157] Top shape: 140 128 28 28 (14049280)
I0506 13:05:39.429195 18608 net.cpp:165] Memory required for data: 3807354880
I0506 13:05:39.432596 18608 layer_factory.hpp:77] Creating layer inception_3b/relu_1x1
I0506 13:05:39.432693 18608 net.cpp:106] Creating Layer inception_3b/relu_1x1
I0506 13:05:39.440381 18608 net.cpp:454] inception_3b/relu_1x1 <- inception_3b/1x1
I0506 13:05:39.440477 18608 net.cpp:397] inception_3b/relu_1x1 -> inception_3b/1x1 (in-place)
I0506 13:05:39.440950 18608 net.cpp:150] Setting up inception_3b/relu_1x1
I0506 13:05:39.441937 18608 net.cpp:157] Top shape: 140 128 28 28 (14049280)
I0506 13:05:39.451478 18608 net.cpp:165] Memory required for data: 3863552000
I0506 13:05:39.451581 18608 layer_factory.hpp:77] Creating layer inception_3b/3x3_reduce
I0506 13:05:39.451632 18608 net.cpp:106] Creating Layer inception_3b/3x3_reduce
I0506 13:05:39.455170 18608 net.cpp:454] inception_3b/3x3_reduce <- inception_3a/output_inception_3a/output_0_split_1
I0506 13:05:39.455215 18608 net.cpp:411] inception_3b/3x3_reduce -> inception_3b/3x3_reduce
I0506 13:05:39.462759 18608 net.cpp:150] Setting up inception_3b/3x3_reduce
I0506 13:05:39.468194 18608 net.cpp:157] Top shape: 140 128 28 28 (14049280)
I0506 13:05:39.468644 18608 net.cpp:165] Memory required for data: 3919749120
I0506 13:05:39.468750 18608 layer_factory.hpp:77] Creating layer inception_3b/relu_3x3_reduce
I0506 13:05:39.471745 18608 net.cpp:106] Creating Layer inception_3b/relu_3x3_reduce
I0506 13:05:39.471846 18608 net.cpp:454] inception_3b/relu_3x3_reduce <- inception_3b/3x3_reduce
I0506 13:05:39.471890 18608 net.cpp:397] inception_3b/relu_3x3_reduce -> inception_3b/3x3_reduce (in-place)
I0506 13:05:39.477741 18608 net.cpp:150] Setting up inception_3b/relu_3x3_reduce
I0506 13:05:39.486810 18608 net.cpp:157] Top shape: 140 128 28 28 (14049280)
I0506 13:05:39.492367 18608 net.cpp:165] Memory required for data: 3975946240
I0506 13:05:39.492471 18608 layer_factory.hpp:77] Creating layer inception_3b/3x3
I0506 13:05:39.492519 18608 net.cpp:106] Creating Layer inception_3b/3x3
I0506 13:05:39.492630 18608 net.cpp:454] inception_3b/3x3 <- inception_3b/3x3_reduce
I0506 13:05:39.495615 18608 net.cpp:411] inception_3b/3x3 -> inception_3b/3x3
I0506 13:05:39.498291 18608 net.cpp:150] Setting up inception_3b/3x3
I0506 13:05:39.499519 18608 net.cpp:157] Top shape: 140 192 28 28 (21073920)
I0506 13:05:39.499996 18608 net.cpp:165] Memory required for data: 4060241920
I0506 13:05:39.500100 18608 layer_factory.hpp:77] Creating layer inception_3b/relu_3x3
I0506 13:05:39.508008 18608 net.cpp:106] Creating Layer inception_3b/relu_3x3
I0506 13:05:39.508107 18608 net.cpp:454] inception_3b/relu_3x3 <- inception_3b/3x3
I0506 13:05:39.508157 18608 net.cpp:397] inception_3b/relu_3x3 -> inception_3b/3x3 (in-place)
I0506 13:05:39.514773 18608 net.cpp:150] Setting up inception_3b/relu_3x3
I0506 13:05:39.517204 18608 net.cpp:157] Top shape: 140 192 28 28 (21073920)
I0506 13:05:39.517495 18608 net.cpp:165] Memory required for data: 4144537600
I0506 13:05:39.517599 18608 layer_factory.hpp:77] Creating layer inception_3b/5x5_reduce
I0506 13:05:39.517649 18608 net.cpp:106] Creating Layer inception_3b/5x5_reduce
I0506 13:05:39.527564 18608 net.cpp:454] inception_3b/5x5_reduce <- inception_3a/output_inception_3a/output_0_split_2
I0506 13:05:39.527662 18608 net.cpp:411] inception_3b/5x5_reduce -> inception_3b/5x5_reduce
I0506 13:05:39.529228 18608 net.cpp:150] Setting up inception_3b/5x5_reduce
I0506 13:05:39.535912 18608 net.cpp:157] Top shape: 140 32 28 28 (3512320)
I0506 13:05:39.535979 18608 net.cpp:165] Memory required for data: 4158586880
I0506 13:05:39.536097 18608 layer_factory.hpp:77] Creating layer inception_3b/relu_5x5_reduce
I0506 13:05:39.536136 18608 net.cpp:106] Creating Layer inception_3b/relu_5x5_reduce
I0506 13:05:39.536252 18608 net.cpp:454] inception_3b/relu_5x5_reduce <- inception_3b/5x5_reduce
I0506 13:05:39.539710 18608 net.cpp:397] inception_3b/relu_5x5_reduce -> inception_3b/5x5_reduce (in-place)
I0506 13:05:39.539994 18608 net.cpp:150] Setting up inception_3b/relu_5x5_reduce
I0506 13:05:39.549998 18608 net.cpp:157] Top shape: 140 32 28 28 (3512320)
I0506 13:05:39.550343 18608 net.cpp:165] Memory required for data: 4172636160
I0506 13:05:39.550444 18608 layer_factory.hpp:77] Creating layer inception_3b/5x5
I0506 13:05:39.550493 18608 net.cpp:106] Creating Layer inception_3b/5x5
I0506 13:05:39.550920 18608 net.cpp:454] inception_3b/5x5 <- inception_3b/5x5_reduce
I0506 13:05:39.551022 18608 net.cpp:411] inception_3b/5x5 -> inception_3b/5x5
I0506 13:05:39.558936 18608 net.cpp:150] Setting up inception_3b/5x5
I0506 13:05:39.562677 18608 net.cpp:157] Top shape: 140 96 28 28 (10536960)
I0506 13:05:39.562731 18608 net.cpp:165] Memory required for data: 4214784000
I0506 13:05:39.562854 18608 layer_factory.hpp:77] Creating layer inception_3b/relu_5x5
I0506 13:05:39.563858 18608 net.cpp:106] Creating Layer inception_3b/relu_5x5
I0506 13:05:39.563971 18608 net.cpp:454] inception_3b/relu_5x5 <- inception_3b/5x5
I0506 13:05:39.574122 18608 net.cpp:397] inception_3b/relu_5x5 -> inception_3b/5x5 (in-place)
I0506 13:05:39.574486 18608 net.cpp:150] Setting up inception_3b/relu_5x5
I0506 13:05:39.583691 18608 net.cpp:157] Top shape: 140 96 28 28 (10536960)
I0506 13:05:39.584089 18608 net.cpp:165] Memory required for data: 4256931840
I0506 13:05:39.584192 18608 layer_factory.hpp:77] Creating layer inception_3b/pool
I0506 13:05:39.584236 18608 net.cpp:106] Creating Layer inception_3b/pool
I0506 13:05:39.590941 18608 net.cpp:454] inception_3b/pool <- inception_3a/output_inception_3a/output_0_split_3
I0506 13:05:39.590984 18608 net.cpp:411] inception_3b/pool -> inception_3b/pool
I0506 13:05:39.599210 18608 net.cpp:150] Setting up inception_3b/pool
I0506 13:05:39.599267 18608 net.cpp:157] Top shape: 140 256 28 28 (28098560)
I0506 13:05:39.599308 18608 net.cpp:165] Memory required for data: 4369326080
I0506 13:05:39.599728 18608 layer_factory.hpp:77] Creating layer inception_3b/pool_proj
I0506 13:05:39.599772 18608 net.cpp:106] Creating Layer inception_3b/pool_proj
I0506 13:05:39.603401 18608 net.cpp:454] inception_3b/pool_proj <- inception_3b/pool
I0506 13:05:39.603499 18608 net.cpp:411] inception_3b/pool_proj -> inception_3b/pool_proj
I0506 13:05:39.614819 18608 net.cpp:150] Setting up inception_3b/pool_proj
I0506 13:05:39.623085 18608 net.cpp:157] Top shape: 140 64 28 28 (7024640)
I0506 13:05:39.627997 18608 net.cpp:165] Memory required for data: 4397424640
I0506 13:05:39.628103 18608 layer_factory.hpp:77] Creating layer inception_3b/relu_pool_proj
I0506 13:05:39.628156 18608 net.cpp:106] Creating Layer inception_3b/relu_pool_proj
I0506 13:05:39.628196 18608 net.cpp:454] inception_3b/relu_pool_proj <- inception_3b/pool_proj
I0506 13:05:39.628775 18608 net.cpp:397] inception_3b/relu_pool_proj -> inception_3b/pool_proj (in-place)
I0506 13:05:39.629097 18608 net.cpp:150] Setting up inception_3b/relu_pool_proj
I0506 13:05:39.637748 18608 net.cpp:157] Top shape: 140 64 28 28 (7024640)
I0506 13:05:39.640007 18608 net.cpp:165] Memory required for data: 4425523200
I0506 13:05:39.640110 18608 layer_factory.hpp:77] Creating layer inception_3b/output
I0506 13:05:39.640156 18608 net.cpp:106] Creating Layer inception_3b/output
I0506 13:05:39.650508 18608 net.cpp:454] inception_3b/output <- inception_3b/1x1
I0506 13:05:39.650557 18608 net.cpp:454] inception_3b/output <- inception_3b/3x3
I0506 13:05:39.650946 18608 net.cpp:454] inception_3b/output <- inception_3b/5x5
I0506 13:05:39.651042 18608 net.cpp:454] inception_3b/output <- inception_3b/pool_proj
I0506 13:05:39.651093 18608 net.cpp:411] inception_3b/output -> inception_3b/output
I0506 13:05:39.651237 18608 net.cpp:150] Setting up inception_3b/output
I0506 13:05:39.651351 18608 net.cpp:157] Top shape: 140 480 28 28 (52684800)
I0506 13:05:39.655907 18608 net.cpp:165] Memory required for data: 4636262400
I0506 13:05:39.656023 18608 layer_factory.hpp:77] Creating layer pool3/3x3_s2
I0506 13:05:39.656810 18608 net.cpp:106] Creating Layer pool3/3x3_s2
I0506 13:05:39.656908 18608 net.cpp:454] pool3/3x3_s2 <- inception_3b/output
I0506 13:05:39.663981 18608 net.cpp:411] pool3/3x3_s2 -> pool3/3x3_s2
I0506 13:05:39.664386 18608 net.cpp:150] Setting up pool3/3x3_s2
I0506 13:05:39.664816 18608 net.cpp:157] Top shape: 140 480 14 14 (13171200)
I0506 13:05:39.665343 18608 net.cpp:165] Memory required for data: 4688947200
I0506 13:05:39.665444 18608 layer_factory.hpp:77] Creating layer pool3/3x3_s2_pool3/3x3_s2_0_split
I0506 13:05:39.665488 18608 net.cpp:106] Creating Layer pool3/3x3_s2_pool3/3x3_s2_0_split
I0506 13:05:39.668895 18608 net.cpp:454] pool3/3x3_s2_pool3/3x3_s2_0_split <- pool3/3x3_s2
I0506 13:05:39.668992 18608 net.cpp:411] pool3/3x3_s2_pool3/3x3_s2_0_split -> pool3/3x3_s2_pool3/3x3_s2_0_split_0
I0506 13:05:39.669234 18608 net.cpp:411] pool3/3x3_s2_pool3/3x3_s2_0_split -> pool3/3x3_s2_pool3/3x3_s2_0_split_1
I0506 13:05:39.669328 18608 net.cpp:411] pool3/3x3_s2_pool3/3x3_s2_0_split -> pool3/3x3_s2_pool3/3x3_s2_0_split_2
I0506 13:05:39.671903 18608 net.cpp:411] pool3/3x3_s2_pool3/3x3_s2_0_split -> pool3/3x3_s2_pool3/3x3_s2_0_split_3
I0506 13:05:39.672062 18608 net.cpp:150] Setting up pool3/3x3_s2_pool3/3x3_s2_0_split
I0506 13:05:39.674427 18608 net.cpp:157] Top shape: 140 480 14 14 (13171200)
I0506 13:05:39.680723 18608 net.cpp:157] Top shape: 140 480 14 14 (13171200)
I0506 13:05:39.680827 18608 net.cpp:157] Top shape: 140 480 14 14 (13171200)
I0506 13:05:39.688299 18608 net.cpp:157] Top shape: 140 480 14 14 (13171200)
I0506 13:05:39.688395 18608 net.cpp:165] Memory required for data: 4899686400
I0506 13:05:39.697582 18608 layer_factory.hpp:77] Creating layer inception_4a/1x1
I0506 13:05:39.697691 18608 net.cpp:106] Creating Layer inception_4a/1x1
I0506 13:05:39.697742 18608 net.cpp:454] inception_4a/1x1 <- pool3/3x3_s2_pool3/3x3_s2_0_split_0
I0506 13:05:39.697865 18608 net.cpp:411] inception_4a/1x1 -> inception_4a/1x1
I0506 13:05:39.700155 18608 net.cpp:150] Setting up inception_4a/1x1
I0506 13:05:39.709080 18608 net.cpp:157] Top shape: 140 192 14 14 (5268480)
I0506 13:05:39.716593 18608 net.cpp:165] Memory required for data: 4920760320
I0506 13:05:39.716699 18608 layer_factory.hpp:77] Creating layer inception_4a/relu_1x1
I0506 13:05:39.722677 18608 net.cpp:106] Creating Layer inception_4a/relu_1x1
I0506 13:05:39.722805 18608 net.cpp:454] inception_4a/relu_1x1 <- inception_4a/1x1
I0506 13:05:39.727286 18608 net.cpp:397] inception_4a/relu_1x1 -> inception_4a/1x1 (in-place)
I0506 13:05:39.727551 18608 net.cpp:150] Setting up inception_4a/relu_1x1
I0506 13:05:39.737128 18608 net.cpp:157] Top shape: 140 192 14 14 (5268480)
I0506 13:05:39.744935 18608 net.cpp:165] Memory required for data: 4941834240
I0506 13:05:39.745036 18608 layer_factory.hpp:77] Creating layer inception_4a/3x3_reduce
I0506 13:05:39.745085 18608 net.cpp:106] Creating Layer inception_4a/3x3_reduce
I0506 13:05:39.755594 18608 net.cpp:454] inception_4a/3x3_reduce <- pool3/3x3_s2_pool3/3x3_s2_0_split_1
I0506 13:05:39.762142 18608 net.cpp:411] inception_4a/3x3_reduce -> inception_4a/3x3_reduce
I0506 13:05:39.763492 18608 net.cpp:150] Setting up inception_4a/3x3_reduce
I0506 13:05:39.769572 18608 net.cpp:157] Top shape: 140 96 14 14 (2634240)
I0506 13:05:39.774817 18608 net.cpp:165] Memory required for data: 4952371200
I0506 13:05:39.774931 18608 layer_factory.hpp:77] Creating layer inception_4a/relu_3x3_reduce
I0506 13:05:39.777863 18608 net.cpp:106] Creating Layer inception_4a/relu_3x3_reduce
I0506 13:05:39.777961 18608 net.cpp:454] inception_4a/relu_3x3_reduce <- inception_4a/3x3_reduce
I0506 13:05:39.778007 18608 net.cpp:397] inception_4a/relu_3x3_reduce -> inception_4a/3x3_reduce (in-place)
I0506 13:05:39.778627 18608 net.cpp:150] Setting up inception_4a/relu_3x3_reduce
I0506 13:05:39.785852 18608 net.cpp:157] Top shape: 140 96 14 14 (2634240)
I0506 13:05:39.785893 18608 net.cpp:165] Memory required for data: 4962908160
I0506 13:05:39.786002 18608 layer_factory.hpp:77] Creating layer inception_4a/3x3
I0506 13:05:39.786036 18608 net.cpp:106] Creating Layer inception_4a/3x3
I0506 13:05:39.786150 18608 net.cpp:454] inception_4a/3x3 <- inception_4a/3x3_reduce
I0506 13:05:39.786196 18608 net.cpp:411] inception_4a/3x3 -> inception_4a/3x3
I0506 13:05:39.788650 18608 net.cpp:150] Setting up inception_4a/3x3
I0506 13:05:39.792965 18608 net.cpp:157] Top shape: 140 208 14 14 (5707520)
I0506 13:05:39.793083 18608 net.cpp:165] Memory required for data: 4985738240
I0506 13:05:39.794030 18608 layer_factory.hpp:77] Creating layer inception_4a/relu_3x3
I0506 13:05:39.794124 18608 net.cpp:106] Creating Layer inception_4a/relu_3x3
I0506 13:05:39.798887 18608 net.cpp:454] inception_4a/relu_3x3 <- inception_4a/3x3
I0506 13:05:39.798991 18608 net.cpp:397] inception_4a/relu_3x3 -> inception_4a/3x3 (in-place)
I0506 13:05:39.803457 18608 net.cpp:150] Setting up inception_4a/relu_3x3
I0506 13:05:39.803992 18608 net.cpp:157] Top shape: 140 208 14 14 (5707520)
I0506 13:05:39.804044 18608 net.cpp:165] Memory required for data: 5008568320
I0506 13:05:39.804087 18608 layer_factory.hpp:77] Creating layer inception_4a/5x5_reduce
I0506 13:05:39.804217 18608 net.cpp:106] Creating Layer inception_4a/5x5_reduce
I0506 13:05:39.804335 18608 net.cpp:454] inception_4a/5x5_reduce <- pool3/3x3_s2_pool3/3x3_s2_0_split_2
I0506 13:05:39.804376 18608 net.cpp:411] inception_4a/5x5_reduce -> inception_4a/5x5_reduce
I0506 13:05:39.805492 18608 net.cpp:150] Setting up inception_4a/5x5_reduce
I0506 13:05:39.814075 18608 net.cpp:157] Top shape: 140 16 14 14 (439040)
I0506 13:05:39.814195 18608 net.cpp:165] Memory required for data: 5010324480
I0506 13:05:39.814555 18608 layer_factory.hpp:77] Creating layer inception_4a/relu_5x5_reduce
I0506 13:05:39.814651 18608 net.cpp:106] Creating Layer inception_4a/relu_5x5_reduce
I0506 13:05:39.815170 18608 net.cpp:454] inception_4a/relu_5x5_reduce <- inception_4a/5x5_reduce
I0506 13:05:39.815233 18608 net.cpp:397] inception_4a/relu_5x5_reduce -> inception_4a/5x5_reduce (in-place)
I0506 13:05:39.820780 18608 net.cpp:150] Setting up inception_4a/relu_5x5_reduce
I0506 13:05:39.821404 18608 net.cpp:157] Top shape: 140 16 14 14 (439040)
I0506 13:05:39.821460 18608 net.cpp:165] Memory required for data: 5012080640
I0506 13:05:39.821578 18608 layer_factory.hpp:77] Creating layer inception_4a/5x5
I0506 13:05:39.832109 18608 net.cpp:106] Creating Layer inception_4a/5x5
I0506 13:05:39.841083 18608 net.cpp:454] inception_4a/5x5 <- inception_4a/5x5_reduce
I0506 13:05:39.841190 18608 net.cpp:411] inception_4a/5x5 -> inception_4a/5x5
I0506 13:05:39.842911 18608 net.cpp:150] Setting up inception_4a/5x5
I0506 13:05:39.844949 18608 net.cpp:157] Top shape: 140 48 14 14 (1317120)
I0506 13:05:39.850680 18608 net.cpp:165] Memory required for data: 5017349120
I0506 13:05:39.850790 18608 layer_factory.hpp:77] Creating layer inception_4a/relu_5x5
I0506 13:05:39.851259 18608 net.cpp:106] Creating Layer inception_4a/relu_5x5
I0506 13:05:39.851361 18608 net.cpp:454] inception_4a/relu_5x5 <- inception_4a/5x5
I0506 13:05:39.851408 18608 net.cpp:397] inception_4a/relu_5x5 -> inception_4a/5x5 (in-place)
I0506 13:05:39.852027 18608 net.cpp:150] Setting up inception_4a/relu_5x5
I0506 13:05:39.857149 18608 net.cpp:157] Top shape: 140 48 14 14 (1317120)
I0506 13:05:39.861603 18608 net.cpp:165] Memory required for data: 5022617600
I0506 13:05:39.861704 18608 layer_factory.hpp:77] Creating layer inception_4a/pool
I0506 13:05:39.868927 18608 net.cpp:106] Creating Layer inception_4a/pool
I0506 13:05:39.869035 18608 net.cpp:454] inception_4a/pool <- pool3/3x3_s2_pool3/3x3_s2_0_split_3
I0506 13:05:39.873167 18608 net.cpp:411] inception_4a/pool -> inception_4a/pool
I0506 13:05:39.873483 18608 net.cpp:150] Setting up inception_4a/pool
I0506 13:05:39.876886 18608 net.cpp:157] Top shape: 140 480 14 14 (13171200)
I0506 13:05:39.879439 18608 net.cpp:165] Memory required for data: 5075302400
I0506 13:05:39.879546 18608 layer_factory.hpp:77] Creating layer inception_4a/pool_proj
I0506 13:05:39.879597 18608 net.cpp:106] Creating Layer inception_4a/pool_proj
I0506 13:05:39.879709 18608 net.cpp:454] inception_4a/pool_proj <- inception_4a/pool
I0506 13:05:39.879753 18608 net.cpp:411] inception_4a/pool_proj -> inception_4a/pool_proj
I0506 13:05:39.881042 18608 net.cpp:150] Setting up inception_4a/pool_proj
I0506 13:05:39.884161 18608 net.cpp:157] Top shape: 140 64 14 14 (1756160)
I0506 13:05:39.884732 18608 net.cpp:165] Memory required for data: 5082327040
I0506 13:05:39.884838 18608 layer_factory.hpp:77] Creating layer inception_4a/relu_pool_proj
I0506 13:05:39.885056 18608 net.cpp:106] Creating Layer inception_4a/relu_pool_proj
I0506 13:05:39.885154 18608 net.cpp:454] inception_4a/relu_pool_proj <- inception_4a/pool_proj
I0506 13:05:39.885197 18608 net.cpp:397] inception_4a/relu_pool_proj -> inception_4a/pool_proj (in-place)
I0506 13:05:39.891491 18608 net.cpp:150] Setting up inception_4a/relu_pool_proj
I0506 13:05:39.891804 18608 net.cpp:157] Top shape: 140 64 14 14 (1756160)
I0506 13:05:39.896025 18608 net.cpp:165] Memory required for data: 5089351680
I0506 13:05:39.896127 18608 layer_factory.hpp:77] Creating layer inception_4a/output
I0506 13:05:39.896174 18608 net.cpp:106] Creating Layer inception_4a/output
I0506 13:05:39.904204 18608 net.cpp:454] inception_4a/output <- inception_4a/1x1
I0506 13:05:39.904770 18608 net.cpp:454] inception_4a/output <- inception_4a/3x3
I0506 13:05:39.904871 18608 net.cpp:454] inception_4a/output <- inception_4a/5x5
I0506 13:05:39.904912 18608 net.cpp:454] inception_4a/output <- inception_4a/pool_proj
I0506 13:05:39.910882 18608 net.cpp:411] inception_4a/output -> inception_4a/output
I0506 13:05:39.911002 18608 net.cpp:150] Setting up inception_4a/output
I0506 13:05:39.920506 18608 net.cpp:157] Top shape: 140 512 14 14 (14049280)
I0506 13:05:39.920604 18608 net.cpp:165] Memory required for data: 5145548800
I0506 13:05:39.920632 18608 layer_factory.hpp:77] Creating layer inception_4a/output_inception_4a/output_0_split
I0506 13:05:39.924669 18608 net.cpp:106] Creating Layer inception_4a/output_inception_4a/output_0_split
I0506 13:05:39.924768 18608 net.cpp:454] inception_4a/output_inception_4a/output_0_split <- inception_4a/output
I0506 13:05:39.924814 18608 net.cpp:411] inception_4a/output_inception_4a/output_0_split -> inception_4a/output_inception_4a/output_0_split_0
I0506 13:05:39.925218 18608 net.cpp:411] inception_4a/output_inception_4a/output_0_split -> inception_4a/output_inception_4a/output_0_split_1
I0506 13:05:39.934476 18608 net.cpp:411] inception_4a/output_inception_4a/output_0_split -> inception_4a/output_inception_4a/output_0_split_2
I0506 13:05:39.934582 18608 net.cpp:411] inception_4a/output_inception_4a/output_0_split -> inception_4a/output_inception_4a/output_0_split_3
I0506 13:05:39.935050 18608 net.cpp:150] Setting up inception_4a/output_inception_4a/output_0_split
I0506 13:05:39.935096 18608 net.cpp:157] Top shape: 140 512 14 14 (14049280)
I0506 13:05:39.942572 18608 net.cpp:157] Top shape: 140 512 14 14 (14049280)
I0506 13:05:39.942605 18608 net.cpp:157] Top shape: 140 512 14 14 (14049280)
I0506 13:05:39.942638 18608 net.cpp:157] Top shape: 140 512 14 14 (14049280)
I0506 13:05:39.949789 18608 net.cpp:165] Memory required for data: 5370337280
I0506 13:05:39.949820 18608 layer_factory.hpp:77] Creating layer inception_4b/1x1
I0506 13:05:39.949854 18608 net.cpp:106] Creating Layer inception_4b/1x1
I0506 13:05:39.950253 18608 net.cpp:454] inception_4b/1x1 <- inception_4a/output_inception_4a/output_0_split_0
I0506 13:05:39.950287 18608 net.cpp:411] inception_4b/1x1 -> inception_4b/1x1
I0506 13:05:39.951705 18608 net.cpp:150] Setting up inception_4b/1x1
I0506 13:05:39.954187 18608 net.cpp:157] Top shape: 140 160 14 14 (4390400)
I0506 13:05:39.954219 18608 net.cpp:165] Memory required for data: 5387898880
I0506 13:05:39.954251 18608 layer_factory.hpp:77] Creating layer inception_4b/relu_1x1
I0506 13:05:39.959359 18608 net.cpp:106] Creating Layer inception_4b/relu_1x1
I0506 13:05:39.959391 18608 net.cpp:454] inception_4b/relu_1x1 <- inception_4b/1x1
I0506 13:05:39.959421 18608 net.cpp:397] inception_4b/relu_1x1 -> inception_4b/1x1 (in-place)
I0506 13:05:39.959738 18608 net.cpp:150] Setting up inception_4b/relu_1x1
I0506 13:05:39.962049 18608 net.cpp:157] Top shape: 140 160 14 14 (4390400)
I0506 13:05:39.962079 18608 net.cpp:165] Memory required for data: 5405460480
I0506 13:05:39.962107 18608 layer_factory.hpp:77] Creating layer inception_4b/3x3_reduce
I0506 13:05:39.962565 18608 net.cpp:106] Creating Layer inception_4b/3x3_reduce
I0506 13:05:39.962594 18608 net.cpp:454] inception_4b/3x3_reduce <- inception_4a/output_inception_4a/output_0_split_1
I0506 13:05:39.962622 18608 net.cpp:411] inception_4b/3x3_reduce -> inception_4b/3x3_reduce
I0506 13:05:39.973440 18608 net.cpp:150] Setting up inception_4b/3x3_reduce
I0506 13:05:39.977421 18608 net.cpp:157] Top shape: 140 112 14 14 (3073280)
I0506 13:05:39.977450 18608 net.cpp:165] Memory required for data: 5417753600
I0506 13:05:39.977481 18608 layer_factory.hpp:77] Creating layer inception_4b/relu_3x3_reduce
I0506 13:05:39.977524 18608 net.cpp:106] Creating Layer inception_4b/relu_3x3_reduce
I0506 13:05:39.977555 18608 net.cpp:454] inception_4b/relu_3x3_reduce <- inception_4b/3x3_reduce
I0506 13:05:39.977584 18608 net.cpp:397] inception_4b/relu_3x3_reduce -> inception_4b/3x3_reduce (in-place)
I0506 13:05:39.980708 18608 net.cpp:150] Setting up inception_4b/relu_3x3_reduce
I0506 13:05:39.986094 18608 net.cpp:157] Top shape: 140 112 14 14 (3073280)
I0506 13:05:39.986124 18608 net.cpp:165] Memory required for data: 5430046720
I0506 13:05:39.986152 18608 layer_factory.hpp:77] Creating layer inception_4b/3x3
I0506 13:05:39.986205 18608 net.cpp:106] Creating Layer inception_4b/3x3
I0506 13:05:39.986232 18608 net.cpp:454] inception_4b/3x3 <- inception_4b/3x3_reduce
I0506 13:05:39.986261 18608 net.cpp:411] inception_4b/3x3 -> inception_4b/3x3
I0506 13:05:39.995404 18608 net.cpp:150] Setting up inception_4b/3x3
I0506 13:05:39.996445 18608 net.cpp:157] Top shape: 140 224 14 14 (6146560)
I0506 13:05:39.996503 18608 net.cpp:165] Memory required for data: 5454632960
I0506 13:05:39.996546 18608 layer_factory.hpp:77] Creating layer inception_4b/relu_3x3
I0506 13:05:39.996933 18608 net.cpp:106] Creating Layer inception_4b/relu_3x3
I0506 13:05:39.996991 18608 net.cpp:454] inception_4b/relu_3x3 <- inception_4b/3x3
I0506 13:05:40.002318 18608 net.cpp:397] inception_4b/relu_3x3 -> inception_4b/3x3 (in-place)
I0506 13:05:40.002627 18608 net.cpp:150] Setting up inception_4b/relu_3x3
I0506 13:05:40.008538 18608 net.cpp:157] Top shape: 140 224 14 14 (6146560)
I0506 13:05:40.011646 18608 net.cpp:165] Memory required for data: 5479219200
I0506 13:05:40.011677 18608 layer_factory.hpp:77] Creating layer inception_4b/5x5_reduce
I0506 13:05:40.011968 18608 net.cpp:106] Creating Layer inception_4b/5x5_reduce
I0506 13:05:40.012020 18608 net.cpp:454] inception_4b/5x5_reduce <- inception_4a/output_inception_4a/output_0_split_2
I0506 13:05:40.012064 18608 net.cpp:411] inception_4b/5x5_reduce -> inception_4b/5x5_reduce
I0506 13:05:40.013063 18608 net.cpp:150] Setting up inception_4b/5x5_reduce
I0506 13:05:40.021073 18608 net.cpp:157] Top shape: 140 24 14 14 (658560)
I0506 13:05:40.021124 18608 net.cpp:165] Memory required for data: 5481853440
I0506 13:05:40.021169 18608 layer_factory.hpp:77] Creating layer inception_4b/relu_5x5_reduce
I0506 13:05:40.021219 18608 net.cpp:106] Creating Layer inception_4b/relu_5x5_reduce
I0506 13:05:40.021265 18608 net.cpp:454] inception_4b/relu_5x5_reduce <- inception_4b/5x5_reduce
I0506 13:05:40.025904 18608 net.cpp:397] inception_4b/relu_5x5_reduce -> inception_4b/5x5_reduce (in-place)
I0506 13:05:40.026203 18608 net.cpp:150] Setting up inception_4b/relu_5x5_reduce
I0506 13:05:40.028177 18608 net.cpp:157] Top shape: 140 24 14 14 (658560)
I0506 13:05:40.028228 18608 net.cpp:165] Memory required for data: 5484487680
I0506 13:05:40.028265 18608 layer_factory.hpp:77] Creating layer inception_4b/5x5
I0506 13:05:40.028781 18608 net.cpp:106] Creating Layer inception_4b/5x5
I0506 13:05:40.028832 18608 net.cpp:454] inception_4b/5x5 <- inception_4b/5x5_reduce
I0506 13:05:40.029278 18608 net.cpp:411] inception_4b/5x5 -> inception_4b/5x5
I0506 13:05:40.030910 18608 net.cpp:150] Setting up inception_4b/5x5
I0506 13:05:40.038494 18608 net.cpp:157] Top shape: 140 64 14 14 (1756160)
I0506 13:05:40.038915 18608 net.cpp:165] Memory required for data: 5491512320
I0506 13:05:40.038959 18608 layer_factory.hpp:77] Creating layer inception_4b/relu_5x5
I0506 13:05:40.045876 18608 net.cpp:106] Creating Layer inception_4b/relu_5x5
I0506 13:05:40.045929 18608 net.cpp:454] inception_4b/relu_5x5 <- inception_4b/5x5
I0506 13:05:40.046339 18608 net.cpp:397] inception_4b/relu_5x5 -> inception_4b/5x5 (in-place)
I0506 13:05:40.046553 18608 net.cpp:150] Setting up inception_4b/relu_5x5
I0506 13:05:40.046612 18608 net.cpp:157] Top shape: 140 64 14 14 (1756160)
I0506 13:05:40.046650 18608 net.cpp:165] Memory required for data: 5498536960
I0506 13:05:40.049314 18608 layer_factory.hpp:77] Creating layer inception_4b/pool
I0506 13:05:40.049355 18608 net.cpp:106] Creating Layer inception_4b/pool
I0506 13:05:40.052937 18608 net.cpp:454] inception_4b/pool <- inception_4a/output_inception_4a/output_0_split_3
I0506 13:05:40.052979 18608 net.cpp:411] inception_4b/pool -> inception_4b/pool
I0506 13:05:40.060693 18608 net.cpp:150] Setting up inception_4b/pool
I0506 13:05:40.060894 18608 net.cpp:157] Top shape: 140 512 14 14 (14049280)
I0506 13:05:40.068121 18608 net.cpp:165] Memory required for data: 5554734080
I0506 13:05:40.068156 18608 layer_factory.hpp:77] Creating layer inception_4b/pool_proj
I0506 13:05:40.068187 18608 net.cpp:106] Creating Layer inception_4b/pool_proj
I0506 13:05:40.068215 18608 net.cpp:454] inception_4b/pool_proj <- inception_4b/pool
I0506 13:05:40.069044 18608 net.cpp:411] inception_4b/pool_proj -> inception_4b/pool_proj
I0506 13:05:40.070335 18608 net.cpp:150] Setting up inception_4b/pool_proj
I0506 13:05:40.078455 18608 net.cpp:157] Top shape: 140 64 14 14 (1756160)
I0506 13:05:40.078485 18608 net.cpp:165] Memory required for data: 5561758720
I0506 13:05:40.078523 18608 layer_factory.hpp:77] Creating layer inception_4b/relu_pool_proj
I0506 13:05:40.084939 18608 net.cpp:106] Creating Layer inception_4b/relu_pool_proj
I0506 13:05:40.084969 18608 net.cpp:454] inception_4b/relu_pool_proj <- inception_4b/pool_proj
I0506 13:05:40.084996 18608 net.cpp:397] inception_4b/relu_pool_proj -> inception_4b/pool_proj (in-place)
I0506 13:05:40.085227 18608 net.cpp:150] Setting up inception_4b/relu_pool_proj
I0506 13:05:40.085722 18608 net.cpp:157] Top shape: 140 64 14 14 (1756160)
I0506 13:05:40.085752 18608 net.cpp:165] Memory required for data: 5568783360
I0506 13:05:40.086304 18608 layer_factory.hpp:77] Creating layer inception_4b/output
I0506 13:05:40.086333 18608 net.cpp:106] Creating Layer inception_4b/output
I0506 13:05:40.086365 18608 net.cpp:454] inception_4b/output <- inception_4b/1x1
I0506 13:05:40.088984 18608 net.cpp:454] inception_4b/output <- inception_4b/3x3
I0506 13:05:40.089015 18608 net.cpp:454] inception_4b/output <- inception_4b/5x5
I0506 13:05:40.089040 18608 net.cpp:454] inception_4b/output <- inception_4b/pool_proj
I0506 13:05:40.098755 18608 net.cpp:411] inception_4b/output -> inception_4b/output
I0506 13:05:40.102576 18608 net.cpp:150] Setting up inception_4b/output
I0506 13:05:40.102607 18608 net.cpp:157] Top shape: 140 512 14 14 (14049280)
I0506 13:05:40.102634 18608 net.cpp:165] Memory required for data: 5624980480
I0506 13:05:40.103315 18608 layer_factory.hpp:77] Creating layer inception_4b/output_inception_4b/output_0_split
I0506 13:05:40.103349 18608 net.cpp:106] Creating Layer inception_4b/output_inception_4b/output_0_split
I0506 13:05:40.103375 18608 net.cpp:454] inception_4b/output_inception_4b/output_0_split <- inception_4b/output
I0506 13:05:40.106950 18608 net.cpp:411] inception_4b/output_inception_4b/output_0_split -> inception_4b/output_inception_4b/output_0_split_0
I0506 13:05:40.106982 18608 net.cpp:411] inception_4b/output_inception_4b/output_0_split -> inception_4b/output_inception_4b/output_0_split_1
I0506 13:05:40.107019 18608 net.cpp:411] inception_4b/output_inception_4b/output_0_split -> inception_4b/output_inception_4b/output_0_split_2
I0506 13:05:40.112462 18608 net.cpp:411] inception_4b/output_inception_4b/output_0_split -> inception_4b/output_inception_4b/output_0_split_3
I0506 13:05:40.112556 18608 net.cpp:150] Setting up inception_4b/output_inception_4b/output_0_split
I0506 13:05:40.118273 18608 net.cpp:157] Top shape: 140 512 14 14 (14049280)
I0506 13:05:40.118302 18608 net.cpp:157] Top shape: 140 512 14 14 (14049280)
I0506 13:05:40.118331 18608 net.cpp:157] Top shape: 140 512 14 14 (14049280)
I0506 13:05:40.118362 18608 net.cpp:157] Top shape: 140 512 14 14 (14049280)
I0506 13:05:40.122850 18608 net.cpp:165] Memory required for data: 5849768960
I0506 13:05:40.122879 18608 layer_factory.hpp:77] Creating layer inception_4c/1x1
I0506 13:05:40.122910 18608 net.cpp:106] Creating Layer inception_4c/1x1
I0506 13:05:40.130836 18608 net.cpp:454] inception_4c/1x1 <- inception_4b/output_inception_4b/output_0_split_0
I0506 13:05:40.140274 18608 net.cpp:411] inception_4c/1x1 -> inception_4c/1x1
I0506 13:05:40.145391 18608 net.cpp:150] Setting up inception_4c/1x1
I0506 13:05:40.149881 18608 net.cpp:157] Top shape: 140 128 14 14 (3512320)
I0506 13:05:40.149919 18608 net.cpp:165] Memory required for data: 5863818240
I0506 13:05:40.150223 18608 layer_factory.hpp:77] Creating layer inception_4c/relu_1x1
I0506 13:05:40.150264 18608 net.cpp:106] Creating Layer inception_4c/relu_1x1
I0506 13:05:40.150293 18608 net.cpp:454] inception_4c/relu_1x1 <- inception_4c/1x1
I0506 13:05:40.160306 18608 net.cpp:397] inception_4c/relu_1x1 -> inception_4c/1x1 (in-place)
I0506 13:05:40.161309 18608 net.cpp:150] Setting up inception_4c/relu_1x1
I0506 13:05:40.170590 18608 net.cpp:157] Top shape: 140 128 14 14 (3512320)
I0506 13:05:40.179545 18608 net.cpp:165] Memory required for data: 5877867520
I0506 13:05:40.184247 18608 layer_factory.hpp:77] Creating layer inception_4c/3x3_reduce
I0506 13:05:40.184936 18608 net.cpp:106] Creating Layer inception_4c/3x3_reduce
I0506 13:05:40.184978 18608 net.cpp:454] inception_4c/3x3_reduce <- inception_4b/output_inception_4b/output_0_split_1
I0506 13:05:40.185009 18608 net.cpp:411] inception_4c/3x3_reduce -> inception_4c/3x3_reduce
I0506 13:05:40.193141 18608 net.cpp:150] Setting up inception_4c/3x3_reduce
I0506 13:05:40.199913 18608 net.cpp:157] Top shape: 140 128 14 14 (3512320)
I0506 13:05:40.207434 18608 net.cpp:165] Memory required for data: 5891916800
I0506 13:05:40.207505 18608 layer_factory.hpp:77] Creating layer inception_4c/relu_3x3_reduce
I0506 13:05:40.207540 18608 net.cpp:106] Creating Layer inception_4c/relu_3x3_reduce
I0506 13:05:40.208216 18608 net.cpp:454] inception_4c/relu_3x3_reduce <- inception_4c/3x3_reduce
I0506 13:05:40.208263 18608 net.cpp:397] inception_4c/relu_3x3_reduce -> inception_4c/3x3_reduce (in-place)
I0506 13:05:40.208564 18608 net.cpp:150] Setting up inception_4c/relu_3x3_reduce
I0506 13:05:40.215559 18608 net.cpp:157] Top shape: 140 128 14 14 (3512320)
I0506 13:05:40.216356 18608 net.cpp:165] Memory required for data: 5905966080
I0506 13:05:40.219621 18608 layer_factory.hpp:77] Creating layer inception_4c/3x3
I0506 13:05:40.219851 18608 net.cpp:106] Creating Layer inception_4c/3x3
I0506 13:05:40.228873 18608 net.cpp:454] inception_4c/3x3 <- inception_4c/3x3_reduce
I0506 13:05:40.229610 18608 net.cpp:411] inception_4c/3x3 -> inception_4c/3x3
I0506 13:05:40.232862 18608 net.cpp:150] Setting up inception_4c/3x3
I0506 13:05:40.235738 18608 net.cpp:157] Top shape: 140 256 14 14 (7024640)
I0506 13:05:40.235767 18608 net.cpp:165] Memory required for data: 5934064640
I0506 13:05:40.235797 18608 layer_factory.hpp:77] Creating layer inception_4c/relu_3x3
I0506 13:05:40.243240 18608 net.cpp:106] Creating Layer inception_4c/relu_3x3
I0506 13:05:40.248399 18608 net.cpp:454] inception_4c/relu_3x3 <- inception_4c/3x3
I0506 13:05:40.248432 18608 net.cpp:397] inception_4c/relu_3x3 -> inception_4c/3x3 (in-place)
I0506 13:05:40.253468 18608 net.cpp:150] Setting up inception_4c/relu_3x3
I0506 13:05:40.258723 18608 net.cpp:157] Top shape: 140 256 14 14 (7024640)
I0506 13:05:40.259322 18608 net.cpp:165] Memory required for data: 5962163200
I0506 13:05:40.263530 18608 layer_factory.hpp:77] Creating layer inception_4c/5x5_reduce
I0506 13:05:40.263576 18608 net.cpp:106] Creating Layer inception_4c/5x5_reduce
I0506 13:05:40.263605 18608 net.cpp:454] inception_4c/5x5_reduce <- inception_4b/output_inception_4b/output_0_split_2
I0506 13:05:40.267434 18608 net.cpp:411] inception_4c/5x5_reduce -> inception_4c/5x5_reduce
I0506 13:05:40.271479 18608 net.cpp:150] Setting up inception_4c/5x5_reduce
I0506 13:05:40.279741 18608 net.cpp:157] Top shape: 140 24 14 14 (658560)
I0506 13:05:40.283278 18608 net.cpp:165] Memory required for data: 5964797440
I0506 13:05:40.283329 18608 layer_factory.hpp:77] Creating layer inception_4c/relu_5x5_reduce
I0506 13:05:40.283363 18608 net.cpp:106] Creating Layer inception_4c/relu_5x5_reduce
I0506 13:05:40.283398 18608 net.cpp:454] inception_4c/relu_5x5_reduce <- inception_4c/5x5_reduce
I0506 13:05:40.289927 18608 net.cpp:397] inception_4c/relu_5x5_reduce -> inception_4c/5x5_reduce (in-place)
I0506 13:05:40.293871 18608 net.cpp:150] Setting up inception_4c/relu_5x5_reduce
I0506 13:05:40.301504 18608 net.cpp:157] Top shape: 140 24 14 14 (658560)
I0506 13:05:40.309592 18608 net.cpp:165] Memory required for data: 5967431680
I0506 13:05:40.309945 18608 layer_factory.hpp:77] Creating layer inception_4c/5x5
I0506 13:05:40.312997 18608 net.cpp:106] Creating Layer inception_4c/5x5
I0506 13:05:40.321678 18608 net.cpp:454] inception_4c/5x5 <- inception_4c/5x5_reduce
I0506 13:05:40.328568 18608 net.cpp:411] inception_4c/5x5 -> inception_4c/5x5
I0506 13:05:40.329879 18608 net.cpp:150] Setting up inception_4c/5x5
I0506 13:05:40.339138 18608 net.cpp:157] Top shape: 140 64 14 14 (1756160)
I0506 13:05:40.339166 18608 net.cpp:165] Memory required for data: 5974456320
I0506 13:05:40.339202 18608 layer_factory.hpp:77] Creating layer inception_4c/relu_5x5
I0506 13:05:40.343907 18608 net.cpp:106] Creating Layer inception_4c/relu_5x5
I0506 13:05:40.343935 18608 net.cpp:454] inception_4c/relu_5x5 <- inception_4c/5x5
I0506 13:05:40.343969 18608 net.cpp:397] inception_4c/relu_5x5 -> inception_4c/5x5 (in-place)
I0506 13:05:40.347636 18608 net.cpp:150] Setting up inception_4c/relu_5x5
I0506 13:05:40.356166 18608 net.cpp:157] Top shape: 140 64 14 14 (1756160)
I0506 13:05:40.356195 18608 net.cpp:165] Memory required for data: 5981480960
I0506 13:05:40.356222 18608 layer_factory.hpp:77] Creating layer inception_4c/pool
I0506 13:05:40.362776 18608 net.cpp:106] Creating Layer inception_4c/pool
I0506 13:05:40.362804 18608 net.cpp:454] inception_4c/pool <- inception_4b/output_inception_4b/output_0_split_3
I0506 13:05:40.362839 18608 net.cpp:411] inception_4c/pool -> inception_4c/pool
I0506 13:05:40.372825 18608 net.cpp:150] Setting up inception_4c/pool
I0506 13:05:40.373070 18608 net.cpp:157] Top shape: 140 512 14 14 (14049280)
I0506 13:05:40.373098 18608 net.cpp:165] Memory required for data: 6037678080
I0506 13:05:40.373126 18608 layer_factory.hpp:77] Creating layer inception_4c/pool_proj
I0506 13:05:40.383353 18608 net.cpp:106] Creating Layer inception_4c/pool_proj
I0506 13:05:40.383383 18608 net.cpp:454] inception_4c/pool_proj <- inception_4c/pool
I0506 13:05:40.383416 18608 net.cpp:411] inception_4c/pool_proj -> inception_4c/pool_proj
I0506 13:05:40.385267 18608 net.cpp:150] Setting up inception_4c/pool_proj
I0506 13:05:40.392966 18608 net.cpp:157] Top shape: 140 64 14 14 (1756160)
I0506 13:05:40.392995 18608 net.cpp:165] Memory required for data: 6044702720
I0506 13:05:40.393038 18608 layer_factory.hpp:77] Creating layer inception_4c/relu_pool_proj
I0506 13:05:40.393618 18608 net.cpp:106] Creating Layer inception_4c/relu_pool_proj
I0506 13:05:40.393648 18608 net.cpp:454] inception_4c/relu_pool_proj <- inception_4c/pool_proj
I0506 13:05:40.393676 18608 net.cpp:397] inception_4c/relu_pool_proj -> inception_4c/pool_proj (in-place)
I0506 13:05:40.398792 18608 net.cpp:150] Setting up inception_4c/relu_pool_proj
I0506 13:05:40.404172 18608 net.cpp:157] Top shape: 140 64 14 14 (1756160)
I0506 13:05:40.404201 18608 net.cpp:165] Memory required for data: 6051727360
I0506 13:05:40.404232 18608 layer_factory.hpp:77] Creating layer inception_4c/output
I0506 13:05:40.408120 18608 net.cpp:106] Creating Layer inception_4c/output
I0506 13:05:40.408150 18608 net.cpp:454] inception_4c/output <- inception_4c/1x1
I0506 13:05:40.408179 18608 net.cpp:454] inception_4c/output <- inception_4c/3x3
I0506 13:05:40.408900 18608 net.cpp:454] inception_4c/output <- inception_4c/5x5
I0506 13:05:40.408929 18608 net.cpp:454] inception_4c/output <- inception_4c/pool_proj
I0506 13:05:40.408960 18608 net.cpp:411] inception_4c/output -> inception_4c/output
I0506 13:05:40.415848 18608 net.cpp:150] Setting up inception_4c/output
I0506 13:05:40.415881 18608 net.cpp:157] Top shape: 140 512 14 14 (14049280)
I0506 13:05:40.416170 18608 net.cpp:165] Memory required for data: 6107924480
I0506 13:05:40.416198 18608 layer_factory.hpp:77] Creating layer inception_4c/output_inception_4c/output_0_split
I0506 13:05:40.416229 18608 net.cpp:106] Creating Layer inception_4c/output_inception_4c/output_0_split
I0506 13:05:40.420328 18608 net.cpp:454] inception_4c/output_inception_4c/output_0_split <- inception_4c/output
I0506 13:05:40.420359 18608 net.cpp:411] inception_4c/output_inception_4c/output_0_split -> inception_4c/output_inception_4c/output_0_split_0
I0506 13:05:40.420389 18608 net.cpp:411] inception_4c/output_inception_4c/output_0_split -> inception_4c/output_inception_4c/output_0_split_1
I0506 13:05:40.420708 18608 net.cpp:411] inception_4c/output_inception_4c/output_0_split -> inception_4c/output_inception_4c/output_0_split_2
I0506 13:05:40.420740 18608 net.cpp:411] inception_4c/output_inception_4c/output_0_split -> inception_4c/output_inception_4c/output_0_split_3
I0506 13:05:40.420837 18608 net.cpp:150] Setting up inception_4c/output_inception_4c/output_0_split
I0506 13:05:40.426113 18608 net.cpp:157] Top shape: 140 512 14 14 (14049280)
I0506 13:05:40.426142 18608 net.cpp:157] Top shape: 140 512 14 14 (14049280)
I0506 13:05:40.426172 18608 net.cpp:157] Top shape: 140 512 14 14 (14049280)
I0506 13:05:40.436602 18608 net.cpp:157] Top shape: 140 512 14 14 (14049280)
I0506 13:05:40.436630 18608 net.cpp:165] Memory required for data: 6332712960
I0506 13:05:40.436663 18608 layer_factory.hpp:77] Creating layer inception_4d/1x1
I0506 13:05:40.436710 18608 net.cpp:106] Creating Layer inception_4d/1x1
I0506 13:05:40.436738 18608 net.cpp:454] inception_4d/1x1 <- inception_4c/output_inception_4c/output_0_split_0
I0506 13:05:40.437106 18608 net.cpp:411] inception_4d/1x1 -> inception_4d/1x1
I0506 13:05:40.438406 18608 net.cpp:150] Setting up inception_4d/1x1
I0506 13:05:40.438979 18608 net.cpp:157] Top shape: 140 112 14 14 (3073280)
I0506 13:05:40.439009 18608 net.cpp:165] Memory required for data: 6345006080
I0506 13:05:40.439039 18608 layer_factory.hpp:77] Creating layer inception_4d/relu_1x1
I0506 13:05:40.439745 18608 net.cpp:106] Creating Layer inception_4d/relu_1x1
I0506 13:05:40.439772 18608 net.cpp:454] inception_4d/relu_1x1 <- inception_4d/1x1
I0506 13:05:40.439800 18608 net.cpp:397] inception_4d/relu_1x1 -> inception_4d/1x1 (in-place)
I0506 13:05:40.441051 18608 net.cpp:150] Setting up inception_4d/relu_1x1
I0506 13:05:40.445385 18608 net.cpp:157] Top shape: 140 112 14 14 (3073280)
I0506 13:05:40.445415 18608 net.cpp:165] Memory required for data: 6357299200
I0506 13:05:40.445441 18608 layer_factory.hpp:77] Creating layer inception_4d/3x3_reduce
I0506 13:05:40.445947 18608 net.cpp:106] Creating Layer inception_4d/3x3_reduce
I0506 13:05:40.445976 18608 net.cpp:454] inception_4d/3x3_reduce <- inception_4c/output_inception_4c/output_0_split_1
I0506 13:05:40.446013 18608 net.cpp:411] inception_4d/3x3_reduce -> inception_4d/3x3_reduce
I0506 13:05:40.447614 18608 net.cpp:150] Setting up inception_4d/3x3_reduce
I0506 13:05:40.451668 18608 net.cpp:157] Top shape: 140 144 14 14 (3951360)
I0506 13:05:40.451695 18608 net.cpp:165] Memory required for data: 6373104640
I0506 13:05:40.451730 18608 layer_factory.hpp:77] Creating layer inception_4d/relu_3x3_reduce
I0506 13:05:40.454746 18608 net.cpp:106] Creating Layer inception_4d/relu_3x3_reduce
I0506 13:05:40.454776 18608 net.cpp:454] inception_4d/relu_3x3_reduce <- inception_4d/3x3_reduce
I0506 13:05:40.454805 18608 net.cpp:397] inception_4d/relu_3x3_reduce -> inception_4d/3x3_reduce (in-place)
I0506 13:05:40.455026 18608 net.cpp:150] Setting up inception_4d/relu_3x3_reduce
I0506 13:05:40.464766 18608 net.cpp:157] Top shape: 140 144 14 14 (3951360)
I0506 13:05:40.464794 18608 net.cpp:165] Memory required for data: 6388910080
I0506 13:05:40.464821 18608 layer_factory.hpp:77] Creating layer inception_4d/3x3
I0506 13:05:40.474614 18608 net.cpp:106] Creating Layer inception_4d/3x3
I0506 13:05:40.474645 18608 net.cpp:454] inception_4d/3x3 <- inception_4d/3x3_reduce
I0506 13:05:40.474676 18608 net.cpp:411] inception_4d/3x3 -> inception_4d/3x3
I0506 13:05:40.486115 18608 net.cpp:150] Setting up inception_4d/3x3
I0506 13:05:40.494509 18608 net.cpp:157] Top shape: 140 288 14 14 (7902720)
I0506 13:05:40.494540 18608 net.cpp:165] Memory required for data: 6420520960
I0506 13:05:40.494575 18608 layer_factory.hpp:77] Creating layer inception_4d/relu_3x3
I0506 13:05:40.495523 18608 net.cpp:106] Creating Layer inception_4d/relu_3x3
I0506 13:05:40.495553 18608 net.cpp:454] inception_4d/relu_3x3 <- inception_4d/3x3
I0506 13:05:40.495581 18608 net.cpp:397] inception_4d/relu_3x3 -> inception_4d/3x3 (in-place)
I0506 13:05:40.501946 18608 net.cpp:150] Setting up inception_4d/relu_3x3
I0506 13:05:40.502423 18608 net.cpp:157] Top shape: 140 288 14 14 (7902720)
I0506 13:05:40.502450 18608 net.cpp:165] Memory required for data: 6452131840
I0506 13:05:40.502481 18608 layer_factory.hpp:77] Creating layer inception_4d/5x5_reduce
I0506 13:05:40.507202 18608 net.cpp:106] Creating Layer inception_4d/5x5_reduce
I0506 13:05:40.507232 18608 net.cpp:454] inception_4d/5x5_reduce <- inception_4c/output_inception_4c/output_0_split_2
I0506 13:05:40.507267 18608 net.cpp:411] inception_4d/5x5_reduce -> inception_4d/5x5_reduce
I0506 13:05:40.516244 18608 net.cpp:150] Setting up inception_4d/5x5_reduce
I0506 13:05:40.525884 18608 net.cpp:157] Top shape: 140 32 14 14 (878080)
I0506 13:05:40.525913 18608 net.cpp:165] Memory required for data: 6455644160
I0506 13:05:40.525944 18608 layer_factory.hpp:77] Creating layer inception_4d/relu_5x5_reduce
I0506 13:05:40.534093 18608 net.cpp:106] Creating Layer inception_4d/relu_5x5_reduce
I0506 13:05:40.534145 18608 net.cpp:454] inception_4d/relu_5x5_reduce <- inception_4d/5x5_reduce
I0506 13:05:40.534203 18608 net.cpp:397] inception_4d/relu_5x5_reduce -> inception_4d/5x5_reduce (in-place)
I0506 13:05:40.534512 18608 net.cpp:150] Setting up inception_4d/relu_5x5_reduce
I0506 13:05:40.539083 18608 net.cpp:157] Top shape: 140 32 14 14 (878080)
I0506 13:05:40.539113 18608 net.cpp:165] Memory required for data: 6459156480
I0506 13:05:40.539140 18608 layer_factory.hpp:77] Creating layer inception_4d/5x5
I0506 13:05:40.541501 18608 net.cpp:106] Creating Layer inception_4d/5x5
I0506 13:05:40.541530 18608 net.cpp:454] inception_4d/5x5 <- inception_4d/5x5_reduce
I0506 13:05:40.541563 18608 net.cpp:411] inception_4d/5x5 -> inception_4d/5x5
I0506 13:05:40.545626 18608 net.cpp:150] Setting up inception_4d/5x5
I0506 13:05:40.553699 18608 net.cpp:157] Top shape: 140 64 14 14 (1756160)
I0506 13:05:40.553727 18608 net.cpp:165] Memory required for data: 6466181120
I0506 13:05:40.553760 18608 layer_factory.hpp:77] Creating layer inception_4d/relu_5x5
I0506 13:05:40.557297 18608 net.cpp:106] Creating Layer inception_4d/relu_5x5
I0506 13:05:40.557327 18608 net.cpp:454] inception_4d/relu_5x5 <- inception_4d/5x5
I0506 13:05:40.557354 18608 net.cpp:397] inception_4d/relu_5x5 -> inception_4d/5x5 (in-place)
I0506 13:05:40.560034 18608 net.cpp:150] Setting up inception_4d/relu_5x5
I0506 13:05:40.566792 18608 net.cpp:157] Top shape: 140 64 14 14 (1756160)
I0506 13:05:40.566819 18608 net.cpp:165] Memory required for data: 6473205760
I0506 13:05:40.566846 18608 layer_factory.hpp:77] Creating layer inception_4d/pool
I0506 13:05:40.567140 18608 net.cpp:106] Creating Layer inception_4d/pool
I0506 13:05:40.567169 18608 net.cpp:454] inception_4d/pool <- inception_4c/output_inception_4c/output_0_split_3
I0506 13:05:40.567200 18608 net.cpp:411] inception_4d/pool -> inception_4d/pool
I0506 13:05:40.570626 18608 net.cpp:150] Setting up inception_4d/pool
I0506 13:05:40.578045 18608 net.cpp:157] Top shape: 140 512 14 14 (14049280)
I0506 13:05:40.578073 18608 net.cpp:165] Memory required for data: 6529402880
I0506 13:05:40.578106 18608 layer_factory.hpp:77] Creating layer inception_4d/pool_proj
I0506 13:05:40.578155 18608 net.cpp:106] Creating Layer inception_4d/pool_proj
I0506 13:05:40.578182 18608 net.cpp:454] inception_4d/pool_proj <- inception_4d/pool
I0506 13:05:40.578213 18608 net.cpp:411] inception_4d/pool_proj -> inception_4d/pool_proj
I0506 13:05:40.582497 18608 net.cpp:150] Setting up inception_4d/pool_proj
I0506 13:05:40.588328 18608 net.cpp:157] Top shape: 140 64 14 14 (1756160)
I0506 13:05:40.588356 18608 net.cpp:165] Memory required for data: 6536427520
I0506 13:05:40.588392 18608 layer_factory.hpp:77] Creating layer inception_4d/relu_pool_proj
I0506 13:05:40.588663 18608 net.cpp:106] Creating Layer inception_4d/relu_pool_proj
I0506 13:05:40.588691 18608 net.cpp:454] inception_4d/relu_pool_proj <- inception_4d/pool_proj
I0506 13:05:40.588721 18608 net.cpp:397] inception_4d/relu_pool_proj -> inception_4d/pool_proj (in-place)
I0506 13:05:40.589660 18608 net.cpp:150] Setting up inception_4d/relu_pool_proj
I0506 13:05:40.591799 18608 net.cpp:157] Top shape: 140 64 14 14 (1756160)
I0506 13:05:40.591827 18608 net.cpp:165] Memory required for data: 6543452160
I0506 13:05:40.591853 18608 layer_factory.hpp:77] Creating layer inception_4d/output
I0506 13:05:40.592247 18608 net.cpp:106] Creating Layer inception_4d/output
I0506 13:05:40.592278 18608 net.cpp:454] inception_4d/output <- inception_4d/1x1
I0506 13:05:40.597311 18608 net.cpp:454] inception_4d/output <- inception_4d/3x3
I0506 13:05:40.600888 18608 net.cpp:454] inception_4d/output <- inception_4d/5x5
I0506 13:05:40.610049 18608 net.cpp:454] inception_4d/output <- inception_4d/pool_proj
I0506 13:05:40.615874 18608 net.cpp:411] inception_4d/output -> inception_4d/output
I0506 13:05:40.624586 18608 net.cpp:150] Setting up inception_4d/output
I0506 13:05:40.632280 18608 net.cpp:157] Top shape: 140 528 14 14 (14488320)
I0506 13:05:40.632700 18608 net.cpp:165] Memory required for data: 6601405440
I0506 13:05:40.632767 18608 layer_factory.hpp:77] Creating layer inception_4d/output_inception_4d/output_0_split
I0506 13:05:40.632799 18608 net.cpp:106] Creating Layer inception_4d/output_inception_4d/output_0_split
I0506 13:05:40.642083 18608 net.cpp:454] inception_4d/output_inception_4d/output_0_split <- inception_4d/output
I0506 13:05:40.645659 18608 net.cpp:411] inception_4d/output_inception_4d/output_0_split -> inception_4d/output_inception_4d/output_0_split_0
I0506 13:05:40.651566 18608 net.cpp:411] inception_4d/output_inception_4d/output_0_split -> inception_4d/output_inception_4d/output_0_split_1
I0506 13:05:40.655575 18608 net.cpp:411] inception_4d/output_inception_4d/output_0_split -> inception_4d/output_inception_4d/output_0_split_2
I0506 13:05:40.656363 18608 net.cpp:411] inception_4d/output_inception_4d/output_0_split -> inception_4d/output_inception_4d/output_0_split_3
I0506 13:05:40.659332 18608 net.cpp:150] Setting up inception_4d/output_inception_4d/output_0_split
I0506 13:05:40.669827 18608 net.cpp:157] Top shape: 140 528 14 14 (14488320)
I0506 13:05:40.670462 18608 net.cpp:157] Top shape: 140 528 14 14 (14488320)
I0506 13:05:40.679760 18608 net.cpp:157] Top shape: 140 528 14 14 (14488320)
I0506 13:05:40.687149 18608 net.cpp:157] Top shape: 140 528 14 14 (14488320)
I0506 13:05:40.689543 18608 net.cpp:165] Memory required for data: 6833218560
I0506 13:05:40.694110 18608 layer_factory.hpp:77] Creating layer inception_4e/1x1
I0506 13:05:40.701427 18608 net.cpp:106] Creating Layer inception_4e/1x1
I0506 13:05:40.706035 18608 net.cpp:454] inception_4e/1x1 <- inception_4d/output_inception_4d/output_0_split_0
I0506 13:05:40.709195 18608 net.cpp:411] inception_4e/1x1 -> inception_4e/1x1
I0506 13:05:40.717959 18608 net.cpp:150] Setting up inception_4e/1x1
I0506 13:05:40.719411 18608 net.cpp:157] Top shape: 140 256 14 14 (7024640)
I0506 13:05:40.720485 18608 net.cpp:165] Memory required for data: 6861317120
I0506 13:05:40.730190 18608 layer_factory.hpp:77] Creating layer inception_4e/relu_1x1
I0506 13:05:40.737901 18608 net.cpp:106] Creating Layer inception_4e/relu_1x1
I0506 13:05:40.742537 18608 net.cpp:454] inception_4e/relu_1x1 <- inception_4e/1x1
I0506 13:05:40.749624 18608 net.cpp:397] inception_4e/relu_1x1 -> inception_4e/1x1 (in-place)
I0506 13:05:40.759167 18608 net.cpp:150] Setting up inception_4e/relu_1x1
I0506 13:05:40.759662 18608 net.cpp:157] Top shape: 140 256 14 14 (7024640)
I0506 13:05:40.766934 18608 net.cpp:165] Memory required for data: 6889415680
I0506 13:05:40.776795 18608 layer_factory.hpp:77] Creating layer inception_4e/3x3_reduce
I0506 13:05:40.777556 18608 net.cpp:106] Creating Layer inception_4e/3x3_reduce
I0506 13:05:40.783244 18608 net.cpp:454] inception_4e/3x3_reduce <- inception_4d/output_inception_4d/output_0_split_1
I0506 13:05:40.783296 18608 net.cpp:411] inception_4e/3x3_reduce -> inception_4e/3x3_reduce
I0506 13:05:40.784888 18608 net.cpp:150] Setting up inception_4e/3x3_reduce
I0506 13:05:40.788208 18608 net.cpp:157] Top shape: 140 160 14 14 (4390400)
I0506 13:05:40.788239 18608 net.cpp:165] Memory required for data: 6906977280
I0506 13:05:40.788275 18608 layer_factory.hpp:77] Creating layer inception_4e/relu_3x3_reduce
I0506 13:05:40.788313 18608 net.cpp:106] Creating Layer inception_4e/relu_3x3_reduce
I0506 13:05:40.788343 18608 net.cpp:454] inception_4e/relu_3x3_reduce <- inception_4e/3x3_reduce
I0506 13:05:40.788385 18608 net.cpp:397] inception_4e/relu_3x3_reduce -> inception_4e/3x3_reduce (in-place)
I0506 13:05:40.788689 18608 net.cpp:150] Setting up inception_4e/relu_3x3_reduce
I0506 13:05:40.797683 18608 net.cpp:157] Top shape: 140 160 14 14 (4390400)
I0506 13:05:40.797709 18608 net.cpp:165] Memory required for data: 6924538880
I0506 13:05:40.797736 18608 layer_factory.hpp:77] Creating layer inception_4e/3x3
I0506 13:05:40.807659 18608 net.cpp:106] Creating Layer inception_4e/3x3
I0506 13:05:40.807687 18608 net.cpp:454] inception_4e/3x3 <- inception_4e/3x3_reduce
I0506 13:05:40.807716 18608 net.cpp:411] inception_4e/3x3 -> inception_4e/3x3
I0506 13:05:40.819802 18608 net.cpp:150] Setting up inception_4e/3x3
I0506 13:05:40.823927 18608 net.cpp:157] Top shape: 140 320 14 14 (8780800)
I0506 13:05:40.823959 18608 net.cpp:165] Memory required for data: 6959662080
I0506 13:05:40.825564 18608 layer_factory.hpp:77] Creating layer inception_4e/relu_3x3
I0506 13:05:40.825594 18608 net.cpp:106] Creating Layer inception_4e/relu_3x3
I0506 13:05:40.825624 18608 net.cpp:454] inception_4e/relu_3x3 <- inception_4e/3x3
I0506 13:05:40.830607 18608 net.cpp:397] inception_4e/relu_3x3 -> inception_4e/3x3 (in-place)
I0506 13:05:40.830808 18608 net.cpp:150] Setting up inception_4e/relu_3x3
I0506 13:05:40.831094 18608 net.cpp:157] Top shape: 140 320 14 14 (8780800)
I0506 13:05:40.831120 18608 net.cpp:165] Memory required for data: 6994785280
I0506 13:05:40.831149 18608 layer_factory.hpp:77] Creating layer inception_4e/5x5_reduce
I0506 13:05:40.834283 18608 net.cpp:106] Creating Layer inception_4e/5x5_reduce
I0506 13:05:40.834311 18608 net.cpp:454] inception_4e/5x5_reduce <- inception_4d/output_inception_4d/output_0_split_2
I0506 13:05:40.834342 18608 net.cpp:411] inception_4e/5x5_reduce -> inception_4e/5x5_reduce
I0506 13:05:40.845268 18608 net.cpp:150] Setting up inception_4e/5x5_reduce
I0506 13:05:40.854070 18608 net.cpp:157] Top shape: 140 32 14 14 (878080)
I0506 13:05:40.854099 18608 net.cpp:165] Memory required for data: 6998297600
I0506 13:05:40.854130 18608 layer_factory.hpp:77] Creating layer inception_4e/relu_5x5_reduce
I0506 13:05:40.854848 18608 net.cpp:106] Creating Layer inception_4e/relu_5x5_reduce
I0506 13:05:40.854877 18608 net.cpp:454] inception_4e/relu_5x5_reduce <- inception_4e/5x5_reduce
I0506 13:05:40.854907 18608 net.cpp:397] inception_4e/relu_5x5_reduce -> inception_4e/5x5_reduce (in-place)
I0506 13:05:40.862061 18608 net.cpp:150] Setting up inception_4e/relu_5x5_reduce
I0506 13:05:40.864663 18608 net.cpp:157] Top shape: 140 32 14 14 (878080)
I0506 13:05:40.864691 18608 net.cpp:165] Memory required for data: 7001809920
I0506 13:05:40.864717 18608 layer_factory.hpp:77] Creating layer inception_4e/5x5
I0506 13:05:40.868134 18608 net.cpp:106] Creating Layer inception_4e/5x5
I0506 13:05:40.868160 18608 net.cpp:454] inception_4e/5x5 <- inception_4e/5x5_reduce
I0506 13:05:40.868191 18608 net.cpp:411] inception_4e/5x5 -> inception_4e/5x5
I0506 13:05:40.877224 18608 net.cpp:150] Setting up inception_4e/5x5
I0506 13:05:40.877559 18608 net.cpp:157] Top shape: 140 128 14 14 (3512320)
I0506 13:05:40.877585 18608 net.cpp:165] Memory required for data: 7015859200
I0506 13:05:40.877615 18608 layer_factory.hpp:77] Creating layer inception_4e/relu_5x5
I0506 13:05:40.877662 18608 net.cpp:106] Creating Layer inception_4e/relu_5x5
I0506 13:05:40.877688 18608 net.cpp:454] inception_4e/relu_5x5 <- inception_4e/5x5
I0506 13:05:40.877717 18608 net.cpp:397] inception_4e/relu_5x5 -> inception_4e/5x5 (in-place)
I0506 13:05:40.878540 18608 net.cpp:150] Setting up inception_4e/relu_5x5
I0506 13:05:40.882537 18608 net.cpp:157] Top shape: 140 128 14 14 (3512320)
I0506 13:05:40.882567 18608 net.cpp:165] Memory required for data: 7029908480
I0506 13:05:40.882593 18608 layer_factory.hpp:77] Creating layer inception_4e/pool
I0506 13:05:40.888399 18608 net.cpp:106] Creating Layer inception_4e/pool
I0506 13:05:40.888428 18608 net.cpp:454] inception_4e/pool <- inception_4d/output_inception_4d/output_0_split_3
I0506 13:05:40.888458 18608 net.cpp:411] inception_4e/pool -> inception_4e/pool
I0506 13:05:40.891507 18608 net.cpp:150] Setting up inception_4e/pool
I0506 13:05:40.899529 18608 net.cpp:157] Top shape: 140 528 14 14 (14488320)
I0506 13:05:40.899559 18608 net.cpp:165] Memory required for data: 7087861760
I0506 13:05:40.899588 18608 layer_factory.hpp:77] Creating layer inception_4e/pool_proj
I0506 13:05:40.907138 18608 net.cpp:106] Creating Layer inception_4e/pool_proj
I0506 13:05:40.907166 18608 net.cpp:454] inception_4e/pool_proj <- inception_4e/pool
I0506 13:05:40.907193 18608 net.cpp:411] inception_4e/pool_proj -> inception_4e/pool_proj
I0506 13:05:40.914531 18608 net.cpp:150] Setting up inception_4e/pool_proj
I0506 13:05:40.916154 18608 net.cpp:157] Top shape: 140 128 14 14 (3512320)
I0506 13:05:40.916188 18608 net.cpp:165] Memory required for data: 7101911040
I0506 13:05:40.926585 18608 layer_factory.hpp:77] Creating layer inception_4e/relu_pool_proj
I0506 13:05:40.926614 18608 net.cpp:106] Creating Layer inception_4e/relu_pool_proj
I0506 13:05:40.926640 18608 net.cpp:454] inception_4e/relu_pool_proj <- inception_4e/pool_proj
I0506 13:05:40.931121 18608 net.cpp:397] inception_4e/relu_pool_proj -> inception_4e/pool_proj (in-place)
I0506 13:05:40.931429 18608 net.cpp:150] Setting up inception_4e/relu_pool_proj
I0506 13:05:40.934106 18608 net.cpp:157] Top shape: 140 128 14 14 (3512320)
I0506 13:05:40.934134 18608 net.cpp:165] Memory required for data: 7115960320
I0506 13:05:40.934160 18608 layer_factory.hpp:77] Creating layer inception_4e/output
I0506 13:05:40.940400 18608 net.cpp:106] Creating Layer inception_4e/output
I0506 13:05:40.940433 18608 net.cpp:454] inception_4e/output <- inception_4e/1x1
I0506 13:05:40.946159 18608 net.cpp:454] inception_4e/output <- inception_4e/3x3
I0506 13:05:40.946193 18608 net.cpp:454] inception_4e/output <- inception_4e/5x5
I0506 13:05:40.946228 18608 net.cpp:454] inception_4e/output <- inception_4e/pool_proj
I0506 13:05:40.956055 18608 net.cpp:411] inception_4e/output -> inception_4e/output
I0506 13:05:40.965786 18608 net.cpp:150] Setting up inception_4e/output
I0506 13:05:40.976086 18608 net.cpp:157] Top shape: 140 832 14 14 (22830080)
I0506 13:05:40.976802 18608 net.cpp:165] Memory required for data: 7207280640
I0506 13:05:40.977265 18608 layer_factory.hpp:77] Creating layer pool4/3x3_s2
I0506 13:05:40.983448 18608 net.cpp:106] Creating Layer pool4/3x3_s2
I0506 13:05:40.991156 18608 net.cpp:454] pool4/3x3_s2 <- inception_4e/output
I0506 13:05:40.997190 18608 net.cpp:411] pool4/3x3_s2 -> pool4/3x3_s2
I0506 13:05:40.998194 18608 net.cpp:150] Setting up pool4/3x3_s2
I0506 13:05:41.005493 18608 net.cpp:157] Top shape: 140 832 7 7 (5707520)
I0506 13:05:41.014592 18608 net.cpp:165] Memory required for data: 7230110720
I0506 13:05:41.014941 18608 layer_factory.hpp:77] Creating layer pool4/3x3_s2_pool4/3x3_s2_0_split
I0506 13:05:41.015822 18608 net.cpp:106] Creating Layer pool4/3x3_s2_pool4/3x3_s2_0_split
I0506 13:05:41.015851 18608 net.cpp:454] pool4/3x3_s2_pool4/3x3_s2_0_split <- pool4/3x3_s2
I0506 13:05:41.015883 18608 net.cpp:411] pool4/3x3_s2_pool4/3x3_s2_0_split -> pool4/3x3_s2_pool4/3x3_s2_0_split_0
I0506 13:05:41.024276 18608 net.cpp:411] pool4/3x3_s2_pool4/3x3_s2_0_split -> pool4/3x3_s2_pool4/3x3_s2_0_split_1
I0506 13:05:41.024307 18608 net.cpp:411] pool4/3x3_s2_pool4/3x3_s2_0_split -> pool4/3x3_s2_pool4/3x3_s2_0_split_2
I0506 13:05:41.024340 18608 net.cpp:411] pool4/3x3_s2_pool4/3x3_s2_0_split -> pool4/3x3_s2_pool4/3x3_s2_0_split_3
I0506 13:05:41.024797 18608 net.cpp:150] Setting up pool4/3x3_s2_pool4/3x3_s2_0_split
I0506 13:05:41.025231 18608 net.cpp:157] Top shape: 140 832 7 7 (5707520)
I0506 13:05:41.025259 18608 net.cpp:157] Top shape: 140 832 7 7 (5707520)
I0506 13:05:41.025286 18608 net.cpp:157] Top shape: 140 832 7 7 (5707520)
I0506 13:05:41.025329 18608 net.cpp:157] Top shape: 140 832 7 7 (5707520)
I0506 13:05:41.025355 18608 net.cpp:165] Memory required for data: 7321431040
I0506 13:05:41.025385 18608 layer_factory.hpp:77] Creating layer inception_5a/1x1
I0506 13:05:41.025951 18608 net.cpp:106] Creating Layer inception_5a/1x1
I0506 13:05:41.025979 18608 net.cpp:454] inception_5a/1x1 <- pool4/3x3_s2_pool4/3x3_s2_0_split_0
I0506 13:05:41.026010 18608 net.cpp:411] inception_5a/1x1 -> inception_5a/1x1
I0506 13:05:41.029345 18608 net.cpp:150] Setting up inception_5a/1x1
I0506 13:05:41.035209 18608 net.cpp:157] Top shape: 140 256 7 7 (1756160)
I0506 13:05:41.035238 18608 net.cpp:165] Memory required for data: 7328455680
I0506 13:05:41.035269 18608 layer_factory.hpp:77] Creating layer inception_5a/relu_1x1
I0506 13:05:41.038610 18608 net.cpp:106] Creating Layer inception_5a/relu_1x1
I0506 13:05:41.038640 18608 net.cpp:454] inception_5a/relu_1x1 <- inception_5a/1x1
I0506 13:05:41.038667 18608 net.cpp:397] inception_5a/relu_1x1 -> inception_5a/1x1 (in-place)
I0506 13:05:41.048405 18608 net.cpp:150] Setting up inception_5a/relu_1x1
I0506 13:05:41.051358 18608 net.cpp:157] Top shape: 140 256 7 7 (1756160)
I0506 13:05:41.051386 18608 net.cpp:165] Memory required for data: 7335480320
I0506 13:05:41.051412 18608 layer_factory.hpp:77] Creating layer inception_5a/3x3_reduce
I0506 13:05:41.055330 18608 net.cpp:106] Creating Layer inception_5a/3x3_reduce
I0506 13:05:41.055358 18608 net.cpp:454] inception_5a/3x3_reduce <- pool4/3x3_s2_pool4/3x3_s2_0_split_1
I0506 13:05:41.055392 18608 net.cpp:411] inception_5a/3x3_reduce -> inception_5a/3x3_reduce
I0506 13:05:41.058126 18608 net.cpp:150] Setting up inception_5a/3x3_reduce
I0506 13:05:41.061144 18608 net.cpp:157] Top shape: 140 160 7 7 (1097600)
I0506 13:05:41.061172 18608 net.cpp:165] Memory required for data: 7339870720
I0506 13:05:41.061202 18608 layer_factory.hpp:77] Creating layer inception_5a/relu_3x3_reduce
I0506 13:05:41.062141 18608 net.cpp:106] Creating Layer inception_5a/relu_3x3_reduce
I0506 13:05:41.062171 18608 net.cpp:454] inception_5a/relu_3x3_reduce <- inception_5a/3x3_reduce
I0506 13:05:41.062198 18608 net.cpp:397] inception_5a/relu_3x3_reduce -> inception_5a/3x3_reduce (in-place)
I0506 13:05:41.062839 18608 net.cpp:150] Setting up inception_5a/relu_3x3_reduce
I0506 13:05:41.062875 18608 net.cpp:157] Top shape: 140 160 7 7 (1097600)
I0506 13:05:41.062901 18608 net.cpp:165] Memory required for data: 7344261120
I0506 13:05:41.062928 18608 layer_factory.hpp:77] Creating layer inception_5a/3x3
I0506 13:05:41.069387 18608 net.cpp:106] Creating Layer inception_5a/3x3
I0506 13:05:41.069416 18608 net.cpp:454] inception_5a/3x3 <- inception_5a/3x3_reduce
I0506 13:05:41.069447 18608 net.cpp:411] inception_5a/3x3 -> inception_5a/3x3
I0506 13:05:41.081359 18608 net.cpp:150] Setting up inception_5a/3x3
I0506 13:05:41.087275 18608 net.cpp:157] Top shape: 140 320 7 7 (2195200)
I0506 13:05:41.087302 18608 net.cpp:165] Memory required for data: 7353041920
I0506 13:05:41.087332 18608 layer_factory.hpp:77] Creating layer inception_5a/relu_3x3
I0506 13:05:41.096158 18608 net.cpp:106] Creating Layer inception_5a/relu_3x3
I0506 13:05:41.096189 18608 net.cpp:454] inception_5a/relu_3x3 <- inception_5a/3x3
I0506 13:05:41.105860 18608 net.cpp:397] inception_5a/relu_3x3 -> inception_5a/3x3 (in-place)
I0506 13:05:41.106076 18608 net.cpp:150] Setting up inception_5a/relu_3x3
I0506 13:05:41.115926 18608 net.cpp:157] Top shape: 140 320 7 7 (2195200)
I0506 13:05:41.115954 18608 net.cpp:165] Memory required for data: 7361822720
I0506 13:05:41.115986 18608 layer_factory.hpp:77] Creating layer inception_5a/5x5_reduce
I0506 13:05:41.119874 18608 net.cpp:106] Creating Layer inception_5a/5x5_reduce
I0506 13:05:41.119905 18608 net.cpp:454] inception_5a/5x5_reduce <- pool4/3x3_s2_pool4/3x3_s2_0_split_2
I0506 13:05:41.119941 18608 net.cpp:411] inception_5a/5x5_reduce -> inception_5a/5x5_reduce
I0506 13:05:41.121973 18608 net.cpp:150] Setting up inception_5a/5x5_reduce
I0506 13:05:41.129762 18608 net.cpp:157] Top shape: 140 32 7 7 (219520)
I0506 13:05:41.129791 18608 net.cpp:165] Memory required for data: 7362700800
I0506 13:05:41.129824 18608 layer_factory.hpp:77] Creating layer inception_5a/relu_5x5_reduce
I0506 13:05:41.133437 18608 net.cpp:106] Creating Layer inception_5a/relu_5x5_reduce
I0506 13:05:41.133467 18608 net.cpp:454] inception_5a/relu_5x5_reduce <- inception_5a/5x5_reduce
I0506 13:05:41.133494 18608 net.cpp:397] inception_5a/relu_5x5_reduce -> inception_5a/5x5_reduce (in-place)
I0506 13:05:41.140470 18608 net.cpp:150] Setting up inception_5a/relu_5x5_reduce
I0506 13:05:41.150454 18608 net.cpp:157] Top shape: 140 32 7 7 (219520)
I0506 13:05:41.150482 18608 net.cpp:165] Memory required for data: 7363578880
I0506 13:05:41.150513 18608 layer_factory.hpp:77] Creating layer inception_5a/5x5
I0506 13:05:41.157953 18608 net.cpp:106] Creating Layer inception_5a/5x5
I0506 13:05:41.157981 18608 net.cpp:454] inception_5a/5x5 <- inception_5a/5x5_reduce
I0506 13:05:41.158010 18608 net.cpp:411] inception_5a/5x5 -> inception_5a/5x5
I0506 13:05:41.168383 18608 net.cpp:150] Setting up inception_5a/5x5
I0506 13:05:41.168946 18608 net.cpp:157] Top shape: 140 128 7 7 (878080)
I0506 13:05:41.168977 18608 net.cpp:165] Memory required for data: 7367091200
I0506 13:05:41.169005 18608 layer_factory.hpp:77] Creating layer inception_5a/relu_5x5
I0506 13:05:41.176640 18608 net.cpp:106] Creating Layer inception_5a/relu_5x5
I0506 13:05:41.176668 18608 net.cpp:454] inception_5a/relu_5x5 <- inception_5a/5x5
I0506 13:05:41.176697 18608 net.cpp:397] inception_5a/relu_5x5 -> inception_5a/5x5 (in-place)
I0506 13:05:41.183751 18608 net.cpp:150] Setting up inception_5a/relu_5x5
I0506 13:05:41.192926 18608 net.cpp:157] Top shape: 140 128 7 7 (878080)
I0506 13:05:41.192955 18608 net.cpp:165] Memory required for data: 7370603520
I0506 13:05:41.192982 18608 layer_factory.hpp:77] Creating layer inception_5a/pool
I0506 13:05:41.195392 18608 net.cpp:106] Creating Layer inception_5a/pool
I0506 13:05:41.195422 18608 net.cpp:454] inception_5a/pool <- pool4/3x3_s2_pool4/3x3_s2_0_split_3
I0506 13:05:41.203790 18608 net.cpp:411] inception_5a/pool -> inception_5a/pool
I0506 13:05:41.204043 18608 net.cpp:150] Setting up inception_5a/pool
I0506 13:05:41.213095 18608 net.cpp:157] Top shape: 140 832 7 7 (5707520)
I0506 13:05:41.213124 18608 net.cpp:165] Memory required for data: 7393433600
I0506 13:05:41.213150 18608 layer_factory.hpp:77] Creating layer inception_5a/pool_proj
I0506 13:05:41.213196 18608 net.cpp:106] Creating Layer inception_5a/pool_proj
I0506 13:05:41.213224 18608 net.cpp:454] inception_5a/pool_proj <- inception_5a/pool
I0506 13:05:41.213253 18608 net.cpp:411] inception_5a/pool_proj -> inception_5a/pool_proj
I0506 13:05:41.223769 18608 net.cpp:150] Setting up inception_5a/pool_proj
I0506 13:05:41.232842 18608 net.cpp:157] Top shape: 140 128 7 7 (878080)
I0506 13:05:41.232872 18608 net.cpp:165] Memory required for data: 7396945920
I0506 13:05:41.232900 18608 layer_factory.hpp:77] Creating layer inception_5a/relu_pool_proj
I0506 13:05:41.242521 18608 net.cpp:106] Creating Layer inception_5a/relu_pool_proj
I0506 13:05:41.242553 18608 net.cpp:454] inception_5a/relu_pool_proj <- inception_5a/pool_proj
I0506 13:05:41.242584 18608 net.cpp:397] inception_5a/relu_pool_proj -> inception_5a/pool_proj (in-place)
I0506 13:05:41.252146 18608 net.cpp:150] Setting up inception_5a/relu_pool_proj
I0506 13:05:41.255504 18608 net.cpp:157] Top shape: 140 128 7 7 (878080)
I0506 13:05:41.255532 18608 net.cpp:165] Memory required for data: 7400458240
I0506 13:05:41.255558 18608 layer_factory.hpp:77] Creating layer inception_5a/output
I0506 13:05:41.255851 18608 net.cpp:106] Creating Layer inception_5a/output
I0506 13:05:41.255879 18608 net.cpp:454] inception_5a/output <- inception_5a/1x1
I0506 13:05:41.255908 18608 net.cpp:454] inception_5a/output <- inception_5a/3x3
I0506 13:05:41.256304 18608 net.cpp:454] inception_5a/output <- inception_5a/5x5
I0506 13:05:41.256333 18608 net.cpp:454] inception_5a/output <- inception_5a/pool_proj
I0506 13:05:41.256362 18608 net.cpp:411] inception_5a/output -> inception_5a/output
I0506 13:05:41.264103 18608 net.cpp:150] Setting up inception_5a/output
I0506 13:05:41.264133 18608 net.cpp:157] Top shape: 140 832 7 7 (5707520)
I0506 13:05:41.264470 18608 net.cpp:165] Memory required for data: 7423288320
I0506 13:05:41.264497 18608 layer_factory.hpp:77] Creating layer inception_5a/output_inception_5a/output_0_split
I0506 13:05:41.264533 18608 net.cpp:106] Creating Layer inception_5a/output_inception_5a/output_0_split
I0506 13:05:41.272234 18608 net.cpp:454] inception_5a/output_inception_5a/output_0_split <- inception_5a/output
I0506 13:05:41.272264 18608 net.cpp:411] inception_5a/output_inception_5a/output_0_split -> inception_5a/output_inception_5a/output_0_split_0
I0506 13:05:41.272295 18608 net.cpp:411] inception_5a/output_inception_5a/output_0_split -> inception_5a/output_inception_5a/output_0_split_1
I0506 13:05:41.273087 18608 net.cpp:411] inception_5a/output_inception_5a/output_0_split -> inception_5a/output_inception_5a/output_0_split_2
I0506 13:05:41.273141 18608 net.cpp:411] inception_5a/output_inception_5a/output_0_split -> inception_5a/output_inception_5a/output_0_split_3
I0506 13:05:41.274124 18608 net.cpp:150] Setting up inception_5a/output_inception_5a/output_0_split
I0506 13:05:41.281462 18608 net.cpp:157] Top shape: 140 832 7 7 (5707520)
I0506 13:05:41.281492 18608 net.cpp:157] Top shape: 140 832 7 7 (5707520)
I0506 13:05:41.281519 18608 net.cpp:157] Top shape: 140 832 7 7 (5707520)
I0506 13:05:41.281563 18608 net.cpp:157] Top shape: 140 832 7 7 (5707520)
I0506 13:05:41.281591 18608 net.cpp:165] Memory required for data: 7514608640
I0506 13:05:41.281617 18608 layer_factory.hpp:77] Creating layer inception_5b/1x1
I0506 13:05:41.282469 18608 net.cpp:106] Creating Layer inception_5b/1x1
I0506 13:05:41.282498 18608 net.cpp:454] inception_5b/1x1 <- inception_5a/output_inception_5a/output_0_split_0
I0506 13:05:41.283018 18608 net.cpp:411] inception_5b/1x1 -> inception_5b/1x1
I0506 13:05:41.293232 18608 net.cpp:150] Setting up inception_5b/1x1
I0506 13:05:41.294450 18608 net.cpp:157] Top shape: 140 384 7 7 (2634240)
I0506 13:05:41.301172 18608 net.cpp:165] Memory required for data: 7525145600
I0506 13:05:41.310055 18608 layer_factory.hpp:77] Creating layer inception_5b/relu_1x1
I0506 13:05:41.313968 18608 net.cpp:106] Creating Layer inception_5b/relu_1x1
I0506 13:05:41.321738 18608 net.cpp:454] inception_5b/relu_1x1 <- inception_5b/1x1
I0506 13:05:41.325176 18608 net.cpp:397] inception_5b/relu_1x1 -> inception_5b/1x1 (in-place)
I0506 13:05:41.330629 18608 net.cpp:150] Setting up inception_5b/relu_1x1
I0506 13:05:41.334162 18608 net.cpp:157] Top shape: 140 384 7 7 (2634240)
I0506 13:05:41.344347 18608 net.cpp:165] Memory required for data: 7535682560
I0506 13:05:41.344389 18608 layer_factory.hpp:77] Creating layer inception_5b/3x3_reduce
I0506 13:05:41.344421 18608 net.cpp:106] Creating Layer inception_5b/3x3_reduce
I0506 13:05:41.344456 18608 net.cpp:454] inception_5b/3x3_reduce <- inception_5a/output_inception_5a/output_0_split_1
I0506 13:05:41.352409 18608 net.cpp:411] inception_5b/3x3_reduce -> inception_5b/3x3_reduce
I0506 13:05:41.354938 18608 net.cpp:150] Setting up inception_5b/3x3_reduce
I0506 13:05:41.355736 18608 net.cpp:157] Top shape: 140 192 7 7 (1317120)
I0506 13:05:41.356143 18608 net.cpp:165] Memory required for data: 7540951040
I0506 13:05:41.356690 18608 layer_factory.hpp:77] Creating layer inception_5b/relu_3x3_reduce
I0506 13:05:41.357002 18608 net.cpp:106] Creating Layer inception_5b/relu_3x3_reduce
I0506 13:05:41.363754 18608 net.cpp:454] inception_5b/relu_3x3_reduce <- inception_5b/3x3_reduce
I0506 13:05:41.364712 18608 net.cpp:397] inception_5b/relu_3x3_reduce -> inception_5b/3x3_reduce (in-place)
I0506 13:05:41.365279 18608 net.cpp:150] Setting up inception_5b/relu_3x3_reduce
I0506 13:05:41.365473 18608 net.cpp:157] Top shape: 140 192 7 7 (1317120)
I0506 13:05:41.365741 18608 net.cpp:165] Memory required for data: 7546219520
I0506 13:05:41.366235 18608 layer_factory.hpp:77] Creating layer inception_5b/3x3
I0506 13:05:41.366940 18608 net.cpp:106] Creating Layer inception_5b/3x3
I0506 13:05:41.374167 18608 net.cpp:454] inception_5b/3x3 <- inception_5b/3x3_reduce
I0506 13:05:41.374218 18608 net.cpp:411] inception_5b/3x3 -> inception_5b/3x3
I0506 13:05:41.380280 18608 net.cpp:150] Setting up inception_5b/3x3
I0506 13:05:41.388335 18608 net.cpp:157] Top shape: 140 384 7 7 (2634240)
I0506 13:05:41.388828 18608 net.cpp:165] Memory required for data: 7556756480
I0506 13:05:41.389382 18608 layer_factory.hpp:77] Creating layer inception_5b/relu_3x3
I0506 13:05:41.396679 18608 net.cpp:106] Creating Layer inception_5b/relu_3x3
I0506 13:05:41.402941 18608 net.cpp:454] inception_5b/relu_3x3 <- inception_5b/3x3
I0506 13:05:41.405439 18608 net.cpp:397] inception_5b/relu_3x3 -> inception_5b/3x3 (in-place)
I0506 13:05:41.405781 18608 net.cpp:150] Setting up inception_5b/relu_3x3
I0506 13:05:41.415668 18608 net.cpp:157] Top shape: 140 384 7 7 (2634240)
I0506 13:05:41.416153 18608 net.cpp:165] Memory required for data: 7567293440
I0506 13:05:41.416223 18608 layer_factory.hpp:77] Creating layer inception_5b/5x5_reduce
I0506 13:05:41.416265 18608 net.cpp:106] Creating Layer inception_5b/5x5_reduce
I0506 13:05:41.423367 18608 net.cpp:454] inception_5b/5x5_reduce <- inception_5a/output_inception_5a/output_0_split_2
I0506 13:05:41.423877 18608 net.cpp:411] inception_5b/5x5_reduce -> inception_5b/5x5_reduce
I0506 13:05:41.425562 18608 net.cpp:150] Setting up inception_5b/5x5_reduce
I0506 13:05:41.433415 18608 net.cpp:157] Top shape: 140 48 7 7 (329280)
I0506 13:05:41.433714 18608 net.cpp:165] Memory required for data: 7568610560
I0506 13:05:41.438927 18608 layer_factory.hpp:77] Creating layer inception_5b/relu_5x5_reduce
I0506 13:05:41.441176 18608 net.cpp:106] Creating Layer inception_5b/relu_5x5_reduce
I0506 13:05:41.444684 18608 net.cpp:454] inception_5b/relu_5x5_reduce <- inception_5b/5x5_reduce
I0506 13:05:41.451737 18608 net.cpp:397] inception_5b/relu_5x5_reduce -> inception_5b/5x5_reduce (in-place)
I0506 13:05:41.452230 18608 net.cpp:150] Setting up inception_5b/relu_5x5_reduce
I0506 13:05:41.457351 18608 net.cpp:157] Top shape: 140 48 7 7 (329280)
I0506 13:05:41.459926 18608 net.cpp:165] Memory required for data: 7569927680
I0506 13:05:41.460737 18608 layer_factory.hpp:77] Creating layer inception_5b/5x5
I0506 13:05:41.467176 18608 net.cpp:106] Creating Layer inception_5b/5x5
I0506 13:05:41.471892 18608 net.cpp:454] inception_5b/5x5 <- inception_5b/5x5_reduce
I0506 13:05:41.472776 18608 net.cpp:411] inception_5b/5x5 -> inception_5b/5x5
I0506 13:05:41.481655 18608 net.cpp:150] Setting up inception_5b/5x5
I0506 13:05:41.483077 18608 net.cpp:157] Top shape: 140 128 7 7 (878080)
I0506 13:05:41.493355 18608 net.cpp:165] Memory required for data: 7573440000
I0506 13:05:41.501756 18608 layer_factory.hpp:77] Creating layer inception_5b/relu_5x5
I0506 13:05:41.501806 18608 net.cpp:106] Creating Layer inception_5b/relu_5x5
I0506 13:05:41.501832 18608 net.cpp:454] inception_5b/relu_5x5 <- inception_5b/5x5
I0506 13:05:41.502122 18608 net.cpp:397] inception_5b/relu_5x5 -> inception_5b/5x5 (in-place)
I0506 13:05:41.502998 18608 net.cpp:150] Setting up inception_5b/relu_5x5
I0506 13:05:41.503414 18608 net.cpp:157] Top shape: 140 128 7 7 (878080)
I0506 13:05:41.509315 18608 net.cpp:165] Memory required for data: 7576952320
I0506 13:05:41.514487 18608 layer_factory.hpp:77] Creating layer inception_5b/pool
I0506 13:05:41.515151 18608 net.cpp:106] Creating Layer inception_5b/pool
I0506 13:05:41.515178 18608 net.cpp:454] inception_5b/pool <- inception_5a/output_inception_5a/output_0_split_3
I0506 13:05:41.518857 18608 net.cpp:411] inception_5b/pool -> inception_5b/pool
I0506 13:05:41.519232 18608 net.cpp:150] Setting up inception_5b/pool
I0506 13:05:41.521354 18608 net.cpp:157] Top shape: 140 832 7 7 (5707520)
I0506 13:05:41.521380 18608 net.cpp:165] Memory required for data: 7599782400
I0506 13:05:41.521406 18608 layer_factory.hpp:77] Creating layer inception_5b/pool_proj
I0506 13:05:41.521461 18608 net.cpp:106] Creating Layer inception_5b/pool_proj
I0506 13:05:41.521486 18608 net.cpp:454] inception_5b/pool_proj <- inception_5b/pool
I0506 13:05:41.521517 18608 net.cpp:411] inception_5b/pool_proj -> inception_5b/pool_proj
I0506 13:05:41.524197 18608 net.cpp:150] Setting up inception_5b/pool_proj
I0506 13:05:41.527132 18608 net.cpp:157] Top shape: 140 128 7 7 (878080)
I0506 13:05:41.527158 18608 net.cpp:165] Memory required for data: 7603294720
I0506 13:05:41.527187 18608 layer_factory.hpp:77] Creating layer inception_5b/relu_pool_proj
I0506 13:05:41.533521 18608 net.cpp:106] Creating Layer inception_5b/relu_pool_proj
I0506 13:05:41.533550 18608 net.cpp:454] inception_5b/relu_pool_proj <- inception_5b/pool_proj
I0506 13:05:41.533576 18608 net.cpp:397] inception_5b/relu_pool_proj -> inception_5b/pool_proj (in-place)
I0506 13:05:41.533798 18608 net.cpp:150] Setting up inception_5b/relu_pool_proj
I0506 13:05:41.542295 18608 net.cpp:157] Top shape: 140 128 7 7 (878080)
I0506 13:05:41.542322 18608 net.cpp:165] Memory required for data: 7606807040
I0506 13:05:41.542352 18608 layer_factory.hpp:77] Creating layer inception_5b/output
I0506 13:05:41.548964 18608 net.cpp:106] Creating Layer inception_5b/output
I0506 13:05:41.548992 18608 net.cpp:454] inception_5b/output <- inception_5b/1x1
I0506 13:05:41.557298 18608 net.cpp:454] inception_5b/output <- inception_5b/3x3
I0506 13:05:41.557327 18608 net.cpp:454] inception_5b/output <- inception_5b/5x5
I0506 13:05:41.557354 18608 net.cpp:454] inception_5b/output <- inception_5b/pool_proj
I0506 13:05:41.557641 18608 net.cpp:411] inception_5b/output -> inception_5b/output
I0506 13:05:41.557700 18608 net.cpp:150] Setting up inception_5b/output
I0506 13:05:41.561653 18608 net.cpp:157] Top shape: 140 1024 7 7 (7024640)
I0506 13:05:41.561679 18608 net.cpp:165] Memory required for data: 7634905600
I0506 13:05:41.561704 18608 layer_factory.hpp:77] Creating layer pool5/7x7_s1
I0506 13:05:41.562021 18608 net.cpp:106] Creating Layer pool5/7x7_s1
I0506 13:05:41.562047 18608 net.cpp:454] pool5/7x7_s1 <- inception_5b/output
I0506 13:05:41.562074 18608 net.cpp:411] pool5/7x7_s1 -> pool5/7x7_s1
I0506 13:05:41.572188 18608 net.cpp:150] Setting up pool5/7x7_s1
I0506 13:05:41.579654 18608 net.cpp:157] Top shape: 140 1024 1 1 (143360)
I0506 13:05:41.587278 18608 net.cpp:165] Memory required for data: 7635479040
I0506 13:05:41.593802 18608 net.cpp:228] pool5/7x7_s1 does not need backward computation.
I0506 13:05:41.593830 18608 net.cpp:228] inception_5b/output does not need backward computation.
I0506 13:05:41.593888 18608 net.cpp:228] inception_5b/relu_pool_proj does not need backward computation.
I0506 13:05:41.594789 18608 net.cpp:228] inception_5b/pool_proj does not need backward computation.
…
