…
                  Copyright 1984-2014 The MathWorks, Inc.
                    R2014a (8.3.0.532) 64-bit (glnxa64)
                             February 11, 2014

 
To get started, type one of these: helpwin, helpdesk, or demo.
For product information, visit www.mathworks.com.
 
Cleared 0 solvers and 0 stand-alone nets
WARNING: Logging before InitGoogleLogging() is written to STDERR
I0506 13:05:21.795955 18513 net.cpp:49] Initializing net from parameters: 
name: "GoogleNet"
input: "data"
input_dim: 140
input_dim: 3
input_dim: 224
input_dim: 224
state {
  phase: TEST
}
layer {
  name: "conv1/7x7_s2"
  type: "Convolution"
  bottom: "data"
  top: "conv1/7x7_s2"
  param {
    lr_mult: 1
    decay_mult: 1
  }
  param {
    lr_mult: 2
    decay_mult: 0
  }
  convolution_param {
    num_output: 64
    pad: 3
    kernel_size: 7
    stride: 2
    weight_filler {
      type: "xavier"
      std: 0.1
    }
    bias_filler {
      type: "constant"
      value: 0.2
    }
  }
}
layer {
  name: "conv1/relu_7x7"
  type: "ReLU"
  bottom: "conv1/7x7_s2"
  top: "conv1/7x7_s2"
}
layer {
  name: "pool1/3x3_s2"
  type: "Pooling"
  bottom: "conv1/7x7_s2"
  top: "pool1/3x3_s2"
  pooling_param {
    pool: MAX
    kernel_size: 3
    stride: 2
  }
}
layer {
  name: "pool1/norm1"
  type: "LRN"
  bottom: "pool1/3x3_s2"
  top: "pool1/norm1"
  lrn_param {
    local_size: 5
    alpha: 0.0001
    beta: 0.75
  }
}
layer {
  name: "conv2/3x3_reduce"
  type: "Convolution"
  bottom: "pool1/norm1"
  top: "conv2/3x3_reduce"
  param {
    lr_mult: 1
    decay_mult: 1
  }
  param {
    lr_mult: 2
    decay_mult: 0
  }
  convolution_param {
    num_output: 64
    kernel_size: 1
    weight_filler {
      type: "xavier"
      std: 0.1
    }
    bias_filler {
      type: "constant"
      value: 0.2
    }
  }
}
layer {
  name: "conv2/relu_3x3_reduce"
  type: "ReLU"
  bottom: "conv2/3x3_reduce"
  top: "conv2/3x3_reduce"
}
layer {
  name: "conv2/3x3"
  type: "Convolution"
  bottom: "conv2/3x3_reduce"
  top: "conv2/3x3"
  param {
    lr_mult: 1
    decay_mult: 1
  }
  param {
    lr_mult: 2
    decay_mult: 0
  }
  convolution_param {
    num_output: 192
    pad: 1
    kernel_size: 3
    weight_filler {
      type: "xavier"
      std: 0.03
    }
    bias_filler {
      type: "constant"
      value: 0.2
    }
  }
}
layer {
  name: "conv2/relu_3x3"
  type: "ReLU"
  bottom: "conv2/3x3"
  top: "conv2/3x3"
}
layer {
  name: "conv2/norm2"
  type: "LRN"
  bottom: "conv2/3x3"
  top: "conv2/norm2"
  lrn_param {
    local_size: 5
    alpha: 0.0001
    beta: 0.75
  }
}
layer {
  name: "pool2/3x3_s2"
  type: "Pooling"
  bottom: "conv2/norm2"
  top: "pool2/3x3_s2"
  pooling_param {
    pool: MAX
    kernel_size: 3
    stride: 2
  }
}
layer {
  name: "inception_3a/1x1"
  type: "Convolution"
  bottom: "pool2/3x3_s2"
  top: "inception_3a/1x1"
  param {
    lr_mult: 1
    decay_mult: 1
  }
  param {
    lr_mult: 2
    decay_mult: 0
  }
  convolution_param {
    num_output: 64
    kernel_size: 1
    weight_filler {
      type: "xavier"
      std: 0.03
    }
    bias_filler {
      type: "constant"
      value: 0.2
    }
  }
}
layer {
  name: "inception_3a/relu_1x1"
  type: "ReLU"
  bottom: "inception_3a/1x1"
  top: "inception_3a/1x1"
}
layer {
  name: "inception_3a/3x3_reduce"
  type: "Convolution"
  bottom: "pool2/3x3_s2"
  top: "inception_3a/3x3_reduce"
  param {
    lr_mult: 1
    decay_mult: 1
  }
  param {
    lr_mult: 2
    decay_mult: 0
  }
  convolution_param {
    num_output: 96
    kernel_size: 1
    weight_filler {
      type: "xavier"
      std: 0.09
    }
    bias_filler {
      type: "constant"
      value: 0.2
    }
  }
}
layer {
  name: "inception_3a/relu_3x3_reduce"
  type: "ReLU"
  bottom: "inception_3a/3x3_reduce"
  top: "inception_3a/3x3_reduce"
}
layer {
  name: "inception_3a/3x3"
  type: "Convolution"
  bottom: "inception_3a/3x3_reduce"
  top: "inception_3a/3x3"
  param {
    lr_mult: 1
    decay_mult: 1
  }
  param {
    lr_mult: 2
    decay_mult: 0
  }
  convolution_param {
    num_output: 128
    pad: 1
    kernel_size: 3
    weight_filler {
      type: "xavier"
      std: 0.03
    }
    bias_filler {
      type: "constant"
      value: 0.2
    }
  }
}
layer {
  name: "inception_3a/relu_3x3"
  type: "ReLU"
  bottom: "inception_3a/3x3"
  top: "inception_3a/3x3"
}
layer {
  name: "inception_3a/5x5_reduce"
  type: "Convolution"
  bottom: "pool2/3x3_s2"
  top: "inception_3a/5x5_reduce"
  param {
    lr_mult: 1
    decay_mult: 1
  }
  param {
    lr_mult: 2
    decay_mult: 0
  }
  convolution_param {
    num_output: 16
    kernel_size: 1
    weight_filler {
      type: "xavier"
      std: 0.2
    }
    bias_filler {
      type: "constant"
      value: 0.2
    }
  }
}
layer {
  name: "inception_3a/relu_5x5_reduce"
  type: "ReLU"
  bottom: "inception_3a/5x5_reduce"
  top: "inception_3a/5x5_reduce"
}
layer {
  name: "inception_3a/5x5"
  type: "Convolution"
  bottom: "inception_3a/5x5_reduce"
  top: "inception_3a/5x5"
  param {
    lr_mult: 1
    decay_mult: 1
  }
  param {
    lr_mult: 2
    decay_mult: 0
  }
  convolution_param {
    num_output: 32
    pad: 2
    kernel_size: 5
    weight_filler {
      type: "xavier"
      std: 0.03
    }
    bias_filler {
      type: "constant"
      value: 0.2
    }
  }
}
layer {
  name: "inception_3a/relu_5x5"
  type: "ReLU"
  bottom: "inception_3a/5x5"
  top: "inception_3a/5x5"
}
layer {
  name: "inception_3a/pool"
  type: "Pooling"
  bottom: "pool2/3x3_s2"
  top: "inception_3a/pool"
  pooling_param {
    pool: MAX
    kernel_size: 3
    stride: 1
    pad: 1
  }
}
layer {
  name: "inception_3a/pool_proj"
  type: "Convolution"
  bottom: "inception_3a/pool"
  top: "inception_3a/pool_proj"
  param {
    lr_mult: 1
    decay_mult: 1
  }
  param {
    lr_mult: 2
    decay_mult: 0
  }
  convolution_param {
    num_output: 32
    kernel_size: 1
    weight_filler {
      type: "xavier"
      std: 0.1
    }
    bias_filler {
      type: "constant"
      value: 0.2
    }
  }
}
layer {
  name: "inception_3a/relu_pool_proj"
  type: "ReLU"
  bottom: "inception_3a/pool_proj"
  top: "inception_3a/pool_proj"
}
layer {
  name: "inception_3a/output"
  type: "Concat"
  bottom: "inception_3a/1x1"
  bottom: "inception_3a/3x3"
  bottom: "inception_3a/5x5"
  bottom: "inception_3a/pool_proj"
  top: "inception_3a/output"
}
layer {
  name: "inception_3b/1x1"
  type: "Convolution"
  bottom: "inception_3a/output"
  top: "inception_3b/1x1"
  param {
    lr_mult: 1
    decay_mult: 1
  }
  param {
    lr_mult: 2
    decay_mult: 0
  }
  convolution_param {
    num_output: 128
    kernel_size: 1
    weight_filler {
      type: "xavier"
      std: 0.03
    }
    bias_filler {
      type: "constant"
      value: 0.2
    }
  }
}
layer {
  name: "inception_3b/relu_1x1"
  type: "ReLU"
  bottom: "inception_3b/1x1"
  top: "inception_3b/1x1"
}
layer {
  name: "inception_3b/3x3_reduce"
  type: "Convolution"
  bottom: "inception_3a/output"
  top: "inception_3b/3x3_reduce"
  param {
    lr_mult: 1
    decay_mult: 1
  }
  param {
    lr_mult: 2
    decay_mult: 0
  }
  convolution_param {
    num_output: 128
    kernel_size: 1
    weight_filler {
      type: "xavier"
      std: 0.09
    }
    bias_filler {
      type: "constant"
      value: 0.2
    }
  }
}
layer {
  name: "inception_3b/relu_3x3_reduce"
  type: "ReLU"
  bottom: "inception_3b/3x3_reduce"
  top: "inception_3b/3x3_reduce"
}
layer {
  name: "inception_3b/3x3"
  type: "Convolution"
  bottom: "inception_3b/3x3_reduce"
  top: "inception_3b/3x3"
  param {
    lr_mult: 1
    decay_mult: 1
  }
  param {
    lr_mult: 2
    decay_mult: 0
  }
  convolution_param {
    num_output: 192
    pad: 1
    kernel_size: 3
    weight_filler {
      type: "xavier"
      std: 0.03
    }
    bias_filler {
      type: "constant"
      value: 0.2
    }
  }
}
layer {
  name: "inception_3b/relu_3x3"
  type: "ReLU"
  bottom: "inception_3b/3x3"
  top: "inception_3b/3x3"
}
layer {
  name: "inception_3b/5x5_reduce"
  type: "Convolution"
  bottom: "inception_3a/output"
  top: "inception_3b/5x5_reduce"
  param {
    lr_mult: 1
    decay_mult: 1
  }
  param {
    lr_mult: 2
    decay_mult: 0
  }
  convolution_param {
    num_output: 32
    kernel_size: 1
    weight_filler {
      type: "xavier"
      std: 0.2
    }
    bias_filler {
      type: "constant"
      value: 0.2
    }
  }
}
layer {
  name: "inception_3b/relu_5x5_reduce"
  type: "ReLU"
  bottom: "inception_3b/5x5_reduce"
  top: "inception_3b/5x5_reduce"
}
layer {
  name: "inception_3b/5x5"
  type: "Convolution"
  bottom: "inception_3b/5x5_reduce"
  top: "inception_3b/5x5"
  param {
    lr_mult: 1
    decay_mult: 1
  }
  param {
    lr_mult: 2
    decay_mult: 0
  }
  convolution_param {
    num_output: 96
    pad: 2
    kernel_size: 5
    weight_filler {
      type: "xavier"
      std: 0.03
    }
    bias_filler {
      type: "constant"
      value: 0.2
    }
  }
}
layer {
  name: "inception_3b/relu_5x5"
  type: "ReLU"
  bottom: "inception_3b/5x5"
  top: "inception_3b/5x5"
}
layer {
  name: "inception_3b/pool"
  type: "Pooling"
  bottom: "inception_3a/output"
  top: "inception_3b/pool"
  pooling_param {
    pool: MAX
    kernel_size: 3
    stride: 1
    pad: 1
  }
}
layer {
  name: "inception_3b/pool_proj"
  type: "Convolution"
  bottom: "inception_3b/pool"
  top: "inception_3b/pool_proj"
  param {
    lr_mult: 1
    decay_mult: 1
  }
  param {
    lr_mult: 2
    decay_mult: 0
  }
  convolution_param {
    num_output: 64
    kernel_size: 1
    weight_filler {
      type: "xavier"
      std: 0.1
    }
    bias_filler {
      type: "constant"
      value: 0.2
    }
  }
}
layer {
  name: "inception_3b/relu_pool_proj"
  type: "ReLU"
  bottom: "inception_3b/pool_proj"
  top: "inception_3b/pool_proj"
}
layer {
  name: "inception_3b/output"
  type: "Concat"
  bottom: "inception_3b/1x1"
  bottom: "inception_3b/3x3"
  bottom: "inception_3b/5x5"
  bottom: "inception_3b/pool_proj"
  top: "inception_3b/output"
}
layer {
  name: "pool3/3x3_s2"
  type: "Pooling"
  bottom: "inception_3b/output"
  top: "pool3/3x3_s2"
  pooling_param {
    pool: MAX
    kernel_size: 3
    stride: 2
  }
}
layer {
  name: "inception_4a/1x1"
  type: "Convolution"
  bottom: "pool3/3x3_s2"
  top: "inception_4a/1x1"
  param {
    lr_mult: 1
    decay_mult: 1
  }
  param {
    lr_mult: 2
    decay_mult: 0
  }
  convolution_param {
    num_output: 192
    kernel_size: 1
    weight_filler {
      type: "xavier"
      std: 0.03
    }
    bias_filler {
      type: "constant"
      value: 0.2
    }
  }
}
layer {
  name: "inception_4a/relu_1x1"
  type: "ReLU"
  bottom: "inception_4a/1x1"
  top: "inception_4a/1x1"
}
layer {
  name: "inception_4a/3x3_reduce"
  type: "Convolution"
  bottom: "pool3/3x3_s2"
  top: "inception_4a/3x3_reduce"
  param {
    lr_mult: 1
    decay_mult: 1
  }
  param {
    lr_mult: 2
    decay_mult: 0
  }
  convolution_param {
    num_output: 96
    kernel_size: 1
    weight_filler {
      type: "xavier"
      std: 0.09
    }
    bias_filler {
      type: "constant"
      value: 0.2
    }
  }
}
layer {
  name: "inception_4a/relu_3x3_reduce"
  type: "ReLU"
  bottom: "inception_4a/3x3_reduce"
  top: "inception_4a/3x3_reduce"
}
layer {
  name: "inception_4a/3x3"
  type: "Convolution"
  bottom: "inception_4a/3x3_reduce"
  top: "inception_4a/3x3"
  param {
    lr_mult: 1
    decay_mult: 1
  }
  param {
    lr_mult: 2
    decay_mult: 0
  }
  convolution_param {
    num_output: 208
    pad: 1
    kernel_size: 3
    weight_filler {
      type: "xavier"
      std: 0.03
    }
    bias_filler {
      type: "constant"
      value: 0.2
    }
  }
}
layer {
  name: "inception_4a/relu_3x3"
  type: "ReLU"
  bottom: "inception_4a/3x3"
  top: "inception_4a/3x3"
}
layer {
  name: "inception_4a/5x5_reduce"
  type: "Convolution"
  bottom: "pool3/3x3_s2"
  top: "inception_4a/5x5_reduce"
  param {
    lr_mult: 1
    decay_mult: 1
  }
  param {
    lr_mult: 2
    decay_mult: 0
  }
  convolution_param {
    num_output: 16
    kernel_size: 1
    weight_filler {
      type: "xavier"
      std: 0.2
    }
    bias_filler {
      type: "constant"
      value: 0.2
    }
  }
}
layer {
  name: "inception_4a/relu_5x5_reduce"
  type: "ReLU"
  bottom: "inception_4a/5x5_reduce"
  top: "inception_4a/5x5_reduce"
}
layer {
  name: "inception_4a/5x5"
  type: "Convolution"
  bottom: "inception_4a/5x5_reduce"
  top: "inception_4a/5x5"
  param {
    lr_mult: 1
    decay_mult: 1
  }
  param {
    lr_mult: 2
    decay_mult: 0
  }
  convolution_param {
    num_output: 48
    pad: 2
    kernel_size: 5
    weight_filler {
      type: "xavier"
      std: 0.03
    }
    bias_filler {
      type: "constant"
      value: 0.2
    }
  }
}
layer {
  name: "inception_4a/relu_5x5"
  type: "ReLU"
  bottom: "inception_4a/5x5"
  top: "inception_4a/5x5"
}
layer {
  name: "inception_4a/pool"
  type: "Pooling"
  bottom: "pool3/3x3_s2"
  top: "inception_4a/pool"
  pooling_param {
    pool: MAX
    kernel_size: 3
    stride: 1
    pad: 1
  }
}
layer {
  name: "inception_4a/pool_proj"
  type: "Convolution"
  bottom: "inception_4a/pool"
  top: "inception_4a/pool_proj"
  param {
    lr_mult: 1
    decay_mult: 1
  }
  param {
    lr_mult: 2
    decay_mult: 0
  }
  convolution_param {
    num_output: 64
    kernel_size: 1
    weight_filler {
      type: "xavier"
      std: 0.1
    }
    bias_filler {
      type: "constant"
      value: 0.2
    }
  }
}
layer {
  name: "inception_4a/relu_pool_proj"
  type: "ReLU"
  bottom: "inception_4a/pool_proj"
  top: "inception_4a/pool_proj"
}
layer {
  name: "inception_4a/output"
  type: "Concat"
  bottom: "inception_4a/1x1"
  bottom: "inception_4a/3x3"
  bottom: "inception_4a/5x5"
  bottom: "inception_4a/pool_proj"
  top: "inception_4a/output"
}
layer {
  name: "inception_4b/1x1"
  type: "Convolution"
  bottom: "inception_4a/output"
  top: "inception_4b/1x1"
  param {
    lr_mult: 1
    decay_mult: 1
  }
  param {
    lr_mult: 2
    decay_mult: 0
  }
  convolution_param {
    num_output: 160
    kernel_size: 1
    weight_filler {
      type: "xavier"
      std: 0.03
    }
    bias_filler {
      type: "constant"
      value: 0.2
    }
  }
}
layer {
  name: "inception_4b/relu_1x1"
  type: "ReLU"
  bottom: "inception_4b/1x1"
  top: "inception_4b/1x1"
}
layer {
  name: "inception_4b/3x3_reduce"
  type: "Convolution"
  bottom: "inception_4a/output"
  top: "inception_4b/3x3_reduce"
  param {
    lr_mult: 1
    decay_mult: 1
  }
  param {
    lr_mult: 2
    decay_mult: 0
  }
  convolution_param {
    num_output: 112
    kernel_size: 1
    weight_filler {
      type: "xavier"
      std: 0.09
    }
    bias_filler {
      type: "constant"
      value: 0.2
    }
  }
}
layer {
  name: "inception_4b/relu_3x3_reduce"
  type: "ReLU"
  bottom: "inception_4b/3x3_reduce"
  top: "inception_4b/3x3_reduce"
}
layer {
  name: "inception_4b/3x3"
  type: "Convolution"
  bottom: "inception_4b/3x3_reduce"
  top: "inception_4b/3x3"
  param {
    lr_mult: 1
    decay_mult: 1
  }
  param {
    lr_mult: 2
    decay_mult: 0
  }
  convolution_param {
    num_output: 224
    pad: 1
    kernel_size: 3
    weight_filler {
      type: "xavier"
      std: 0.03
    }
    bias_filler {
      type: "constant"
      value: 0.2
    }
  }
}
layer {
  name: "inception_4b/relu_3x3"
  type: "ReLU"
  bottom: "inception_4b/3x3"
  top: "inception_4b/3x3"
}
layer {
  name: "inception_4b/5x5_reduce"
  type: "Convolution"
  bottom: "inception_4a/output"
  top: "inception_4b/5x5_reduce"
  param {
    lr_mult: 1
    decay_mult: 1
  }
  param {
    lr_mult: 2
    decay_mult: 0
  }
  convolution_param {
    num_output: 24
    kernel_size: 1
    weight_filler {
      type: "xavier"
      std: 0.2
    }
    bias_filler {
      type: "constant"
      value: 0.2
    }
  }
}
layer {
  name: "inception_4b/relu_5x5_reduce"
  type: "ReLU"
  bottom: "inception_4b/5x5_reduce"
  top: "inception_4b/5x5_reduce"
}
layer {
  name: "inception_4b/5x5"
  type: "Convolution"
  bottom: "inception_4b/5x5_reduce"
  top: "inception_4b/5x5"
  param {
    lr_mult: 1
    decay_mult: 1
  }
  param {
    lr_mult: 2
    decay_mult: 0
  }
  convolution_param {
    num_output: 64
    pad: 2
    kernel_size: 5
    weight_filler {
      type: "xavier"
      std: 0.03
    }
    bias_filler {
      type: "constant"
      value: 0.2
    }
  }
}
layer {
  name: "inception_4b/relu_5x5"
  type: "ReLU"
  bottom: "inception_4b/5x5"
  top: "inception_4b/5x5"
}
layer {
  name: "inception_4b/pool"
  type: "Pooling"
  bottom: "inception_4a/output"
  top: "inception_4b/pool"
  pooling_param {
    pool: MAX
    kernel_size: 3
    stride: 1
    pad: 1
  }
}
layer {
  name: "inception_4b/pool_proj"
  type: "Convolution"
  bottom: "inception_4b/pool"
  top: "inception_4b/pool_proj"
  param {
    lr_mult: 1
    decay_mult: 1
  }
  param {
    lr_mult: 2
    decay_mult: 0
  }
  convolution_param {
    num_output: 64
    kernel_size: 1
    weight_filler {
      type: "xavier"
      std: 0.1
    }
    bias_filler {
      type: "constant"
      value: 0.2
    }
  }
}
layer {
  name: "inception_4b/relu_pool_proj"
  type: "ReLU"
  bottom: "inception_4b/pool_proj"
  top: "inception_4b/pool_proj"
}
layer {
  name: "inception_4b/output"
  type: "Concat"
  bottom: "inception_4b/1x1"
  bottom: "inception_4b/3x3"
  bottom: "inception_4b/5x5"
  bottom: "inception_4b/pool_proj"
  top: "inception_4b/output"
}
layer {
  name: "inception_4c/1x1"
  type: "Convolution"
  bottom: "inception_4b/output"
  top: "inception_4c/1x1"
  param {
    lr_mult: 1
    decay_mult: 1
  }
  param {
    lr_mult: 2
    decay_mult: 0
  }
  convolution_param {
    num_output: 128
    kernel_size: 1
    weight_filler {
      type: "xavier"
      std: 0.03
    }
    bias_filler {
      type: "constant"
      value: 0.2
    }
  }
}
layer {
  name: "inception_4c/relu_1x1"
  type: "ReLU"
  bottom: "inception_4c/1x1"
  top: "inception_4c/1x1"
}
layer {
  name: "inception_4c/3x3_reduce"
  type: "Convolution"
  bottom: "inception_4b/output"
  top: "inception_4c/3x3_reduce"
  param {
    lr_mult: 1
    decay_mult: 1
  }
  param {
    lr_mult: 2
    decay_mult: 0
  }
  convolution_param {
    num_output: 128
    kernel_size: 1
    weight_filler {
      type: "xavier"
      std: 0.09
    }
    bias_filler {
      type: "constant"
      value: 0.2
    }
  }
}
layer {
  name: "inception_4c/relu_3x3_reduce"
  type: "ReLU"
  bottom: "inception_4c/3x3_reduce"
  top: "inception_4c/3x3_reduce"
}
layer {
  name: "inception_4c/3x3"
  type: "Convolution"
  bottom: "inception_4c/3x3_reduce"
  top: "inception_4c/3x3"
  param {
    lr_mult: 1
    decay_mult: 1
  }
  param {
    lr_mult: 2
    decay_mult: 0
  }
  convolution_param {
    num_output: 256
    pad: 1
    kernel_size: 3
    weight_filler {
      type: "xavier"
      std: 0.03
    }
    bias_filler {
      type: "constant"
      value: 0.2
    }
  }
}
layer {
  name: "inception_4c/relu_3x3"
  type: "ReLU"
  bottom: "inception_4c/3x3"
  top: "inception_4c/3x3"
}
layer {
  name: "inception_4c/5x5_reduce"
  type: "Convolution"
  bottom: "inception_4b/output"
  top: "inception_4c/5x5_reduce"
  param {
    lr_mult: 1
    decay_mult: 1
  }
  param {
    lr_mult: 2
    decay_mult: 0
  }
  convolution_param {
    num_output: 24
    kernel_size: 1
    weight_filler {
      type: "xavier"
      std: 0.2
    }
    bias_filler {
      type: "constant"
      value: 0.2
    }
  }
}
layer {
  name: "inception_4c/relu_5x5_reduce"
  type: "ReLU"
  bottom: "inception_4c/5x5_reduce"
  top: "inception_4c/5x5_reduce"
}
layer {
  name: "inception_4c/5x5"
  type: "Convolution"
  bottom: "inception_4c/5x5_reduce"
  top: "inception_4c/5x5"
  param {
    lr_mult: 1
    decay_mult: 1
  }
  param {
    lr_mult: 2
    decay_mult: 0
  }
  convolution_param {
    num_output: 64
    pad: 2
    kernel_size: 5
    weight_filler {
      type: "xavier"
      std: 0.03
    }
    bias_filler {
      type: "constant"
      value: 0.2
    }
  }
}
layer {
  name: "inception_4c/relu_5x5"
  type: "ReLU"
  bottom: "inception_4c/5x5"
  top: "inception_4c/5x5"
}
layer {
  name: "inception_4c/pool"
  type: "Pooling"
  bottom: "inception_4b/output"
  top: "inception_4c/pool"
  pooling_param {
    pool: MAX
    kernel_size: 3
    stride: 1
    pad: 1
  }
}
layer {
  name: "inception_4c/pool_proj"
  type: "Convolution"
  bottom: "inception_4c/pool"
  top: "inception_4c/pool_proj"
  param {
    lr_mult: 1
    decay_mult: 1
  }
  param {
    lr_mult: 2
    decay_mult: 0
  }
  convolution_param {
    num_output: 64
    kernel_size: 1
    weight_filler {
      type: "xavier"
      std: 0.1
    }
    bias_filler {
      type: "constant"
      value: 0.2
    }
  }
}
layer {
  name: "inception_4c/relu_pool_proj"
  type: "ReLU"
  bottom: "inception_4c/pool_proj"
  top: "inception_4c/pool_proj"
}
layer {
  name: "inception_4c/output"
  type: "Concat"
  bottom: "inception_4c/1x1"
  bottom: "inception_4c/3x3"
  bottom: "inception_4c/5x5"
  bottom: "inception_4c/pool_proj"
  top: "inception_4c/output"
}
layer {
  name: "inception_4d/1x1"
  type: "Convolution"
  bottom: "inception_4c/output"
  top: "inception_4d/1x1"
  param {
    lr_mult: 1
    decay_mult: 1
  }
  param {
    lr_mult: 2
    decay_mult: 0
  }
  convolution_param {
    num_output: 112
    kernel_size: 1
    weight_filler {
      type: "xavier"
      std: 0.03
    }
    bias_filler {
      type: "constant"
      value: 0.2
    }
  }
}
layer {
  name: "inception_4d/relu_1x1"
  type: "ReLU"
  bottom: "inception_4d/1x1"
  top: "inception_4d/1x1"
}
layer {
  name: "inception_4d/3x3_reduce"
  type: "Convolution"
  bottom: "inception_4c/output"
  top: "inception_4d/3x3_reduce"
  param {
    lr_mult: 1
    decay_mult: 1
  }
  param {
    lr_mult: 2
    decay_mult: 0
  }
  convolution_param {
    num_output: 144
    kernel_size: 1
    weight_filler {
      type: "xavier"
      std: 0.09
    }
    bias_filler {
      type: "constant"
      value: 0.2
    }
  }
}
layer {
  name: "inception_4d/relu_3x3_reduce"
  type: "ReLU"
  bottom: "inception_4d/3x3_reduce"
  top: "inception_4d/3x3_reduce"
}
layer {
  name: "inception_4d/3x3"
  type: "Convolution"
  bottom: "inception_4d/3x3_reduce"
  top: "inception_4d/3x3"
  param {
    lr_mult: 1
    decay_mult: 1
  }
  param {
    lr_mult: 2
    decay_mult: 0
  }
  convolution_param {
    num_output: 288
    pad: 1
    kernel_size: 3
    weight_filler {
      type: "xavier"
      std: 0.03
    }
    bias_filler {
      type: "constant"
      value: 0.2
    }
  }
}
layer {
  name: "inception_4d/relu_3x3"
  type: "ReLU"
  bottom: "inception_4d/3x3"
  top: "inception_4d/3x3"
}
layer {
  name: "inception_4d/5x5_reduce"
  type: "Convolution"
  bottom: "inception_4c/output"
  top: "inception_4d/5x5_reduce"
  param {
    lr_mult: 1
    decay_mult: 1
  }
  param {
    lr_mult: 2
    decay_mult: 0
  }
  convolution_param {
    num_output: 32
    kernel_size: 1
    weight_filler {
      type: "xavier"
      std: 0.2
    }
    bias_filler {
      type: "constant"
      value: 0.2
    }
  }
}
layer {
  name: "inception_4d/relu_5x5_reduce"
  type: "ReLU"
  bottom: "inception_4d/5x5_reduce"
  top: "inception_4d/5x5_reduce"
}
layer {
  name: "inception_4d/5x5"
  type: "Convolution"
  bottom: "inception_4d/5x5_reduce"
  top: "inception_4d/5x5"
  param {
    lr_mult: 1
    decay_mult: 1
  }
  param {
    lr_mult: 2
    decay_mult: 0
  }
  convolution_param {
    num_output: 64
    pad: 2
    kernel_size: 5
    weight_filler {
      type: "xavier"
      std: 0.03
    }
    bias_filler {
      type: "constant"
      value: 0.2
    }
  }
}
layer {
  name: "inception_4d/relu_5x5"
  type: "ReLU"
  bottom: "inception_4d/5x5"
  top: "inception_4d/5x5"
}
layer {
  name: "inception_4d/pool"
  type: "Pooling"
  bottom: "inception_4c/output"
  top: "inception_4d/pool"
  pooling_param {
    pool: MAX
    kernel_size: 3
    stride: 1
    pad: 1
  }
}
layer {
  name: "inception_4d/pool_proj"
  type: "Convolution"
  bottom: "inception_4d/pool"
  top: "inception_4d/pool_proj"
  param {
    lr_mult: 1
    decay_mult: 1
  }
  param {
    lr_mult: 2
    decay_mult: 0
  }
  convolution_param {
    num_output: 64
    kernel_size: 1
    weight_filler {
      type: "xavier"
      std: 0.1
    }
    bias_filler {
      type: "constant"
      value: 0.2
    }
  }
}
layer {
  name: "inception_4d/relu_pool_proj"
  type: "ReLU"
  bottom: "inception_4d/pool_proj"
  top: "inception_4d/pool_proj"
}
layer {
  name: "inception_4d/output"
  type: "Concat"
  bottom: "inception_4d/1x1"
  bottom: "inception_4d/3x3"
  bottom: "inception_4d/5x5"
  bottom: "inception_4d/pool_proj"
  top: "inception_4d/output"
}
layer {
  name: "inception_4e/1x1"
  type: "Convolution"
  bottom: "inception_4d/output"
  top: "inception_4e/1x1"
  param {
    lr_mult: 1
    decay_mult: 1
  }
  param {
    lr_mult: 2
    decay_mult: 0
  }
  convolution_param {
    num_output: 256
    kernel_size: 1
    weight_filler {
      type: "xavier"
      std: 0.03
    }
    bias_filler {
      type: "constant"
      value: 0.2
    }
  }
}
layer {
  name: "inception_4e/relu_1x1"
  type: "ReLU"
  bottom: "inception_4e/1x1"
  top: "inception_4e/1x1"
}
layer {
  name: "inception_4e/3x3_reduce"
  type: "Convolution"
  bottom: "inception_4d/output"
  top: "inception_4e/3x3_reduce"
  param {
    lr_mult: 1
    decay_mult: 1
  }
  param {
    lr_mult: 2
    decay_mult: 0
  }
  convolution_param {
    num_output: 160
    kernel_size: 1
    weight_filler {
      type: "xavier"
      std: 0.09
    }
    bias_filler {
      type: "constant"
      value: 0.2
    }
  }
}
layer {
  name: "inception_4e/relu_3x3_reduce"
  type: "ReLU"
  bottom: "inception_4e/3x3_reduce"
  top: "inception_4e/3x3_reduce"
}
layer {
  name: "inception_4e/3x3"
  type: "Convolution"
  bottom: "inception_4e/3x3_reduce"
  top: "inception_4e/3x3"
  param {
    lr_mult: 1
    decay_mult: 1
  }
  param {
    lr_mult: 2
    decay_mult: 0
  }
  convolution_param {
    num_output: 320
    pad: 1
    kernel_size: 3
    weight_filler {
      type: "xavier"
      std: 0.03
    }
    bias_filler {
      type: "constant"
      value: 0.2
    }
  }
}
layer {
  name: "inception_4e/relu_3x3"
  type: "ReLU"
  bottom: "inception_4e/3x3"
  top: "inception_4e/3x3"
}
layer {
  name: "inception_4e/5x5_reduce"
  type: "Convolution"
  bottom: "inception_4d/output"
  top: "inception_4e/5x5_reduce"
  param {
    lr_mult: 1
    decay_mult: 1
  }
  param {
    lr_mult: 2
    decay_mult: 0
  }
  convolution_param {
    num_output: 32
    kernel_size: 1
    weight_filler {
      type: "xavier"
      std: 0.2
    }
    bias_filler {
      type: "constant"
      value: 0.2
    }
  }
}
layer {
  name: "inception_4e/relu_5x5_reduce"
  type: "ReLU"
  bottom: "inception_4e/5x5_reduce"
  top: "inception_4e/5x5_reduce"
}
layer {
  name: "inception_4e/5x5"
  type: "Convolution"
  bottom: "inception_4e/5x5_reduce"
  top: "inception_4e/5x5"
  param {
    lr_mult: 1
    decay_mult: 1
  }
  param {
    lr_mult: 2
    decay_mult: 0
  }
  convolution_param {
    num_output: 128
    pad: 2
    kernel_size: 5
    weight_filler {
      type: "xavier"
      std: 0.03
    }
    bias_filler {
      type: "constant"
      value: 0.2
    }
  }
}
layer {
  name: "inception_4e/relu_5x5"
  type: "ReLU"
  bottom: "inception_4e/5x5"
  top: "inception_4e/5x5"
}
layer {
  name: "inception_4e/pool"
  type: "Pooling"
  bottom: "inception_4d/output"
  top: "inception_4e/pool"
  pooling_param {
    pool: MAX
    kernel_size: 3
    stride: 1
    pad: 1
  }
}
layer {
  name: "inception_4e/pool_proj"
  type: "Convolution"
  bottom: "inception_4e/pool"
  top: "inception_4e/pool_proj"
  param {
    lr_mult: 1
    decay_mult: 1
  }
  param {
    lr_mult: 2
    decay_mult: 0
  }
  convolution_param {
    num_output: 128
    kernel_size: 1
    weight_filler {
      type: "xavier"
      std: 0.1
    }
    bias_filler {
      type: "constant"
      value: 0.2
    }
  }
}
layer {
  name: "inception_4e/relu_pool_proj"
  type: "ReLU"
  bottom: "inception_4e/pool_proj"
  top: "inception_4e/pool_proj"
}
layer {
  name: "inception_4e/output"
  type: "Concat"
  bottom: "inception_4e/1x1"
  bottom: "inception_4e/3x3"
  bottom: "inception_4e/5x5"
  bottom: "inception_4e/pool_proj"
  top: "inception_4e/output"
}
layer {
  name: "pool4/3x3_s2"
  type: "Pooling"
  bottom: "inception_4e/output"
  top: "pool4/3x3_s2"
  pooling_param {
    pool: MAX
    kernel_size: 3
    stride: 2
  }
}
layer {
  name: "inception_5a/1x1"
  type: "Convolution"
  bottom: "pool4/3x3_s2"
  top: "inception_5a/1x1"
  param {
    lr_mult: 1
    decay_mult: 1
  }
  param {
    lr_mult: 2
    decay_mult: 0
  }
  convolution_param {
    num_output: 256
    kernel_size: 1
    weight_filler {
      type: "xavier"
      std: 0.03
    }
    bias_filler {
      type: "constant"
      value: 0.2
    }
  }
}
layer {
  name: "inception_5a/relu_1x1"
  type: "ReLU"
  bottom: "inception_5a/1x1"
  top: "inception_5a/1x1"
}
layer {
  name: "inception_5a/3x3_reduce"
  type: "Convolution"
  bottom: "pool4/3x3_s2"
  top: "inception_5a/3x3_reduce"
  param {
    lr_mult: 1
    decay_mult: 1
  }
  param {
    lr_mult: 2
    decay_mult: 0
  }
  convolution_param {
    num_output: 160
    kernel_size: 1
    weight_filler {
      type: "xavier"
      std: 0.09
    }
    bias_filler {
      type: "constant"
      value: 0.2
    }
  }
}
layer {
  name: "inception_5a/relu_3x3_reduce"
  type: "ReLU"
  bottom: "inception_5a/3x3_reduce"
  top: "inception_5a/3x3_reduce"
}
layer {
  name: "inception_5a/3x3"
  type: "Convolution"
  bottom: "inception_5a/3x3_reduce"
  top: "inception_5a/3x3"
  param {
    lr_mult: 1
    decay_mult: 1
  }
  param {
    lr_mult: 2
    decay_mult: 0
  }
  convolution_param {
    num_output: 320
    pad: 1
    kernel_size: 3
    weight_filler {
      type: "xavier"
      std: 0.03
    }
    bias_filler {
      type: "constant"
      value: 0.2
    }
  }
}
layer {
  name: "inception_5a/relu_3x3"
  type: "ReLU"
  bottom: "inception_5a/3x3"
  top: "inception_5a/3x3"
}
layer {
  name: "inception_5a/5x5_reduce"
  type: "Convolution"
  bottom: "pool4/3x3_s2"
  top: "inception_5a/5x5_reduce"
  param {
    lr_mult: 1
    decay_mult: 1
  }
  param {
    lr_mult: 2
    decay_mult: 0
  }
  convolution_param {
    num_output: 32
    kernel_size: 1
    weight_filler {
      type: "xavier"
      std: 0.2
    }
    bias_filler {
      type: "constant"
      value: 0.2
    }
  }
}
layer {
  name: "inception_5a/relu_5x5_reduce"
  type: "ReLU"
  bottom: 
I0506 13:05:21.796730 18513 net.cpp:413] Input 0 -> data
I0506 13:05:21.803931 18513 layer_factory.hpp:77] Creating layer conv1/7x7_s2
I0506 13:05:21.803997 18513 net.cpp:106] Creating Layer conv1/7x7_s2
I0506 13:05:21.804033 18513 net.cpp:454] conv1/7x7_s2 <- data
I0506 13:05:21.804066 18513 net.cpp:411] conv1/7x7_s2 -> conv1/7x7_s2
I0506 13:05:22.019325 18513 net.cpp:150] Setting up conv1/7x7_s2
I0506 13:05:22.019382 18513 net.cpp:157] Top shape: 140 64 112 112 (112394240)
I0506 13:05:22.019413 18513 net.cpp:165] Memory required for data: 449576960
I0506 13:05:22.019449 18513 layer_factory.hpp:77] Creating layer conv1/relu_7x7
I0506 13:05:22.019482 18513 net.cpp:106] Creating Layer conv1/relu_7x7
I0506 13:05:22.019517 18513 net.cpp:454] conv1/relu_7x7 <- conv1/7x7_s2
I0506 13:05:22.019547 18513 net.cpp:397] conv1/relu_7x7 -> conv1/7x7_s2 (in-place)
I0506 13:05:22.019783 18513 net.cpp:150] Setting up conv1/relu_7x7
I0506 13:05:22.019824 18513 net.cpp:157] Top shape: 140 64 112 112 (112394240)
I0506 13:05:22.019852 18513 net.cpp:165] Memory required for data: 899153920
I0506 13:05:22.019886 18513 layer_factory.hpp:77] Creating layer pool1/3x3_s2
I0506 13:05:22.019917 18513 net.cpp:106] Creating Layer pool1/3x3_s2
I0506 13:05:22.019945 18513 net.cpp:454] pool1/3x3_s2 <- conv1/7x7_s2
I0506 13:05:22.019975 18513 net.cpp:411] pool1/3x3_s2 -> pool1/3x3_s2
I0506 13:05:22.020134 18513 net.cpp:150] Setting up pool1/3x3_s2
I0506 13:05:22.020176 18513 net.cpp:157] Top shape: 140 64 56 56 (28098560)
I0506 13:05:22.020205 18513 net.cpp:165] Memory required for data: 1011548160
I0506 13:05:22.020232 18513 layer_factory.hpp:77] Creating layer pool1/norm1
I0506 13:05:22.020263 18513 net.cpp:106] Creating Layer pool1/norm1
I0506 13:05:22.020294 18513 net.cpp:454] pool1/norm1 <- pool1/3x3_s2
I0506 13:05:22.020328 18513 net.cpp:411] pool1/norm1 -> pool1/norm1
I0506 13:05:22.020568 18513 net.cpp:150] Setting up pool1/norm1
I0506 13:05:22.020607 18513 net.cpp:157] Top shape: 140 64 56 56 (28098560)
I0506 13:05:22.020635 18513 net.cpp:165] Memory required for data: 1123942400
I0506 13:05:22.020664 18513 layer_factory.hpp:77] Creating layer conv2/3x3_reduce
I0506 13:05:22.020701 18513 net.cpp:106] Creating Layer conv2/3x3_reduce
I0506 13:05:22.020730 18513 net.cpp:454] conv2/3x3_reduce <- pool1/norm1
I0506 13:05:22.020788 18513 net.cpp:411] conv2/3x3_reduce -> conv2/3x3_reduce
I0506 13:05:22.021662 18513 net.cpp:150] Setting up conv2/3x3_reduce
I0506 13:05:22.021759 18513 net.cpp:157] Top shape: 140 64 56 56 (28098560)
I0506 13:05:22.021796 18513 net.cpp:165] Memory required for data: 1236336640
I0506 13:05:22.021870 18513 layer_factory.hpp:77] Creating layer conv2/relu_3x3_reduce
I0506 13:05:22.021901 18513 net.cpp:106] Creating Layer conv2/relu_3x3_reduce
I0506 13:05:22.021931 18513 net.cpp:454] conv2/relu_3x3_reduce <- conv2/3x3_reduce
I0506 13:05:22.021966 18513 net.cpp:397] conv2/relu_3x3_reduce -> conv2/3x3_reduce (in-place)
I0506 13:05:22.022228 18513 net.cpp:150] Setting up conv2/relu_3x3_reduce
I0506 13:05:22.022311 18513 net.cpp:157] Top shape: 140 64 56 56 (28098560)
I0506 13:05:22.022383 18513 net.cpp:165] Memory required for data: 1348730880
I0506 13:05:22.022456 18513 layer_factory.hpp:77] Creating layer conv2/3x3
I0506 13:05:22.022541 18513 net.cpp:106] Creating Layer conv2/3x3
I0506 13:05:22.022614 18513 net.cpp:454] conv2/3x3 <- conv2/3x3_reduce
I0506 13:05:22.022687 18513 net.cpp:411] conv2/3x3 -> conv2/3x3
I0506 13:05:22.024199 18513 net.cpp:150] Setting up conv2/3x3
I0506 13:05:22.024288 18513 net.cpp:157] Top shape: 140 192 56 56 (84295680)
I0506 13:05:22.024363 18513 net.cpp:165] Memory required for data: 1685913600
I0506 13:05:22.024443 18513 layer_factory.hpp:77] Creating layer conv2/relu_3x3
I0506 13:05:22.024515 18513 net.cpp:106] Creating Layer conv2/relu_3x3
I0506 13:05:22.024585 18513 net.cpp:454] conv2/relu_3x3 <- conv2/3x3
I0506 13:05:22.024663 18513 net.cpp:397] conv2/relu_3x3 -> conv2/3x3 (in-place)
I0506 13:05:22.024857 18513 net.cpp:150] Setting up conv2/relu_3x3
I0506 13:05:22.024935 18513 net.cpp:157] Top shape: 140 192 56 56 (84295680)
I0506 13:05:22.025004 18513 net.cpp:165] Memory required for data: 2023096320
I0506 13:05:22.025075 18513 layer_factory.hpp:77] Creating layer conv2/norm2
I0506 13:05:22.025148 18513 net.cpp:106] Creating Layer conv2/norm2
I0506 13:05:22.025218 18513 net.cpp:454] conv2/norm2 <- conv2/3x3
I0506 13:05:22.025292 18513 net.cpp:411] conv2/norm2 -> conv2/norm2
I0506 13:05:22.025591 18513 net.cpp:150] Setting up conv2/norm2
I0506 13:05:22.025674 18513 net.cpp:157] Top shape: 140 192 56 56 (84295680)
I0506 13:05:22.025746 18513 net.cpp:165] Memory required for data: 2360279040
I0506 13:05:22.025818 18513 layer_factory.hpp:77] Creating layer pool2/3x3_s2
I0506 13:05:22.025897 18513 net.cpp:106] Creating Layer pool2/3x3_s2
I0506 13:05:22.025965 18513 net.cpp:454] pool2/3x3_s2 <- conv2/norm2
I0506 13:05:22.026038 18513 net.cpp:411] pool2/3x3_s2 -> pool2/3x3_s2
I0506 13:05:22.026247 18513 net.cpp:150] Setting up pool2/3x3_s2
I0506 13:05:22.026325 18513 net.cpp:157] Top shape: 140 192 28 28 (21073920)
I0506 13:05:22.026396 18513 net.cpp:165] Memory required for data: 2444574720
I0506 13:05:22.026468 18513 layer_factory.hpp:77] Creating layer pool2/3x3_s2_pool2/3x3_s2_0_split
I0506 13:05:22.026546 18513 net.cpp:106] Creating Layer pool2/3x3_s2_pool2/3x3_s2_0_split
I0506 13:05:22.026615 18513 net.cpp:454] pool2/3x3_s2_pool2/3x3_s2_0_split <- pool2/3x3_s2
I0506 13:05:22.026690 18513 net.cpp:411] pool2/3x3_s2_pool2/3x3_s2_0_split -> pool2/3x3_s2_pool2/3x3_s2_0_split_0
I0506 13:05:22.026763 18513 net.cpp:411] pool2/3x3_s2_pool2/3x3_s2_0_split -> pool2/3x3_s2_pool2/3x3_s2_0_split_1
I0506 13:05:22.026836 18513 net.cpp:411] pool2/3x3_s2_pool2/3x3_s2_0_split -> pool2/3x3_s2_pool2/3x3_s2_0_split_2
I0506 13:05:22.026908 18513 net.cpp:411] pool2/3x3_s2_pool2/3x3_s2_0_split -> pool2/3x3_s2_pool2/3x3_s2_0_split_3
I0506 13:05:22.027027 18513 net.cpp:150] Setting up pool2/3x3_s2_pool2/3x3_s2_0_split
I0506 13:05:22.027102 18513 net.cpp:157] Top shape: 140 192 28 28 (21073920)
I0506 13:05:22.027173 18513 net.cpp:157] Top shape: 140 192 28 28 (21073920)
I0506 13:05:22.027242 18513 net.cpp:157] Top shape: 140 192 28 28 (21073920)
I0506 13:05:22.027313 18513 net.cpp:157] Top shape: 140 192 28 28 (21073920)
I0506 13:05:22.027382 18513 net.cpp:165] Memory required for data: 2781757440
I0506 13:05:22.027508 18513 layer_factory.hpp:77] Creating layer inception_3a/1x1
I0506 13:05:22.027585 18513 net.cpp:106] Creating Layer inception_3a/1x1
I0506 13:05:22.027655 18513 net.cpp:454] inception_3a/1x1 <- pool2/3x3_s2_pool2/3x3_s2_0_split_0
I0506 13:05:22.027729 18513 net.cpp:411] inception_3a/1x1 -> inception_3a/1x1
I0506 13:05:22.028812 18513 net.cpp:150] Setting up inception_3a/1x1
I0506 13:05:22.028906 18513 net.cpp:157] Top shape: 140 64 28 28 (7024640)
I0506 13:05:22.028980 18513 net.cpp:165] Memory required for data: 2809856000
I0506 13:05:22.029055 18513 layer_factory.hpp:77] Creating layer inception_3a/relu_1x1
I0506 13:05:22.029127 18513 net.cpp:106] Creating Layer inception_3a/relu_1x1
I0506 13:05:22.029197 18513 net.cpp:454] inception_3a/relu_1x1 <- inception_3a/1x1
I0506 13:05:22.029271 18513 net.cpp:397] inception_3a/relu_1x1 -> inception_3a/1x1 (in-place)
I0506 13:05:22.029552 18513 net.cpp:150] Setting up inception_3a/relu_1x1
I0506 13:05:22.029638 18513 net.cpp:157] Top shape: 140 64 28 28 (7024640)
I0506 13:05:22.029708 18513 net.cpp:165] Memory required for data: 2837954560
I0506 13:05:22.029778 18513 layer_factory.hpp:77] Creating layer inception_3a/3x3_reduce
I0506 13:05:22.029855 18513 net.cpp:106] Creating Layer inception_3a/3x3_reduce
I0506 13:05:22.029924 18513 net.cpp:454] inception_3a/3x3_reduce <- pool2/3x3_s2_pool2/3x3_s2_0_split_1
I0506 13:05:22.029964 18513 net.cpp:411] inception_3a/3x3_reduce -> inception_3a/3x3_reduce
I0506 13:05:22.031103 18513 net.cpp:150] Setting up inception_3a/3x3_reduce
I0506 13:05:22.031194 18513 net.cpp:157] Top shape: 140 96 28 28 (10536960)
I0506 13:05:22.031270 18513 net.cpp:165] Memory required for data: 2880102400
I0506 13:05:22.031348 18513 layer_factory.hpp:77] Creating layer inception_3a/relu_3x3_reduce
I0506 13:05:22.031424 18513 net.cpp:106] Creating Layer inception_3a/relu_3x3_reduce
I0506 13:05:22.031493 18513 net.cpp:454] inception_3a/relu_3x3_reduce <- inception_3a/3x3_reduce
I0506 13:05:22.031565 18513 net.cpp:397] inception_3a/relu_3x3_reduce -> inception_3a/3x3_reduce (in-place)
I0506 13:05:22.031759 18513 net.cpp:150] Setting up inception_3a/relu_3x3_reduce
I0506 13:05:22.031836 18513 net.cpp:157] Top shape: 140 96 28 28 (10536960)
I0506 13:05:22.031886 18513 net.cpp:165] Memory required for data: 2922250240
I0506 13:05:22.031949 18513 layer_factory.hpp:77] Creating layer inception_3a/3x3
I0506 13:05:22.032027 18513 net.cpp:106] Creating Layer inception_3a/3x3
I0506 13:05:22.032096 18513 net.cpp:454] inception_3a/3x3 <- inception_3a/3x3_reduce
I0506 13:05:22.032171 18513 net.cpp:411] inception_3a/3x3 -> inception_3a/3x3
I0506 13:05:22.033540 18513 net.cpp:150] Setting up inception_3a/3x3
I0506 13:05:22.033634 18513 net.cpp:157] Top shape: 140 128 28 28 (14049280)
I0506 13:05:22.033710 18513 net.cpp:165] Memory required for data: 2978447360
I0506 13:05:22.033784 18513 layer_factory.hpp:77] Creating layer inception_3a/relu_3x3
I0506 13:05:22.033857 18513 net.cpp:106] Creating Layer inception_3a/relu_3x3
I0506 13:05:22.033927 18513 net.cpp:454] inception_3a/relu_3x3 <- inception_3a/3x3
I0506 13:05:22.033999 18513 net.cpp:397] inception_3a/relu_3x3 -> inception_3a/3x3 (in-place)
I0506 13:05:22.034196 18513 net.cpp:150] Setting up inception_3a/relu_3x3
I0506 13:05:22.034276 18513 net.cpp:157] Top shape: 140 128 28 28 (14049280)
I0506 13:05:22.034351 18513 net.cpp:165] Memory required for data: 3034644480
I0506 13:05:22.034421 18513 layer_factory.hpp:77] Creating layer inception_3a/5x5_reduce
I0506 13:05:22.034494 18513 net.cpp:106] Creating Layer inception_3a/5x5_reduce
I0506 13:05:22.034574 18513 net.cpp:454] inception_3a/5x5_reduce <- pool2/3x3_s2_pool2/3x3_s2_0_split_2
I0506 13:05:22.034651 18513 net.cpp:411] inception_3a/5x5_reduce -> inception_3a/5x5_reduce
I0506 13:05:22.035423 18513 net.cpp:150] Setting up inception_3a/5x5_reduce
I0506 13:05:22.035516 18513 net.cpp:157] Top shape: 140 16 28 28 (1756160)
I0506 13:05:22.035600 18513 net.cpp:165] Memory required for data: 3041669120
I0506 13:05:22.035676 18513 layer_factory.hpp:77] Creating layer inception_3a/relu_5x5_reduce
I0506 13:05:22.035812 18513 net.cpp:106] Creating Layer inception_3a/relu_5x5_reduce
I0506 13:05:22.035894 18513 net.cpp:454] inception_3a/relu_5x5_reduce <- inception_3a/5x5_reduce
I0506 13:05:22.035969 18513 net.cpp:397] inception_3a/relu_5x5_reduce -> inception_3a/5x5_reduce (in-place)
I0506 13:05:22.036314 18513 net.cpp:150] Setting up inception_3a/relu_5x5_reduce
I0506 13:05:22.036360 18513 net.cpp:157] Top shape: 140 16 28 28 (1756160)
I0506 13:05:22.036437 18513 net.cpp:165] Memory required for data: 3048693760
I0506 13:05:22.036507 18513 layer_factory.hpp:77] Creating layer inception_3a/5x5
I0506 13:05:22.036584 18513 net.cpp:106] Creating Layer inception_3a/5x5
I0506 13:05:22.036651 18513 net.cpp:454] inception_3a/5x5 <- inception_3a/5x5_reduce
I0506 13:05:22.036731 18513 net.cpp:411] inception_3a/5x5 -> inception_3a/5x5
I0506 13:05:22.037858 18513 net.cpp:150] Setting up inception_3a/5x5
I0506 13:05:22.037945 18513 net.cpp:157] Top shape: 140 32 28 28 (3512320)
I0506 13:05:22.038028 18513 net.cpp:165] Memory required for data: 3062743040
I0506 13:05:22.038101 18513 layer_factory.hpp:77] Creating layer inception_3a/relu_5x5
I0506 13:05:22.038172 18513 net.cpp:106] Creating Layer inception_3a/relu_5x5
I0506 13:05:22.038247 18513 net.cpp:454] inception_3a/relu_5x5 <- inception_3a/5x5
I0506 13:05:22.038318 18513 net.cpp:397] inception_3a/relu_5x5 -> inception_3a/5x5 (in-place)
I0506 13:05:22.038573 18513 net.cpp:150] Setting up inception_3a/relu_5x5
I0506 13:05:22.038636 18513 net.cpp:157] Top shape: 140 32 28 28 (3512320)
I0506 13:05:22.038709 18513 net.cpp:165] Memory required for data: 3076792320
I0506 13:05:22.038789 18513 layer_factory.hpp:77] Creating layer inception_3a/pool
I0506 13:05:22.038861 18513 net.cpp:106] Creating Layer inception_3a/pool
I0506 13:05:22.038929 18513 net.cpp:454] inception_3a/pool <- pool2/3x3_s2_pool2/3x3_s2_0_split_3
I0506 13:05:22.039011 18513 net.cpp:411] inception_3a/pool -> inception_3a/pool
I0506 13:05:22.039386 18513 net.cpp:150] Setting up inception_3a/pool
I0506 13:05:22.039459 18513 net.cpp:157] Top shape: 140 192 28 28 (21073920)
I0506 13:05:22.039530 18513 net.cpp:165] Memory required for data: 3161088000
I0506 13:05:22.039608 18513 layer_factory.hpp:77] Creating layer inception_3a/pool_proj
I0506 13:05:22.039681 18513 net.cpp:106] Creating Layer inception_3a/pool_proj
I0506 13:05:22.039751 18513 net.cpp:454] inception_3a/pool_proj <- inception_3a/pool
I0506 13:05:22.039832 18513 net.cpp:411] inception_3a/pool_proj -> inception_3a/pool_proj
I0506 13:05:22.040812 18513 net.cpp:150] Setting up inception_3a/pool_proj
I0506 13:05:22.040895 18513 net.cpp:157] Top shape: 140 32 28 28 (3512320)
I0506 13:05:22.040977 18513 net.cpp:165] Memory required for data: 3175137280
I0506 13:05:22.041052 18513 layer_factory.hpp:77] Creating layer inception_3a/relu_pool_proj
I0506 13:05:22.041122 18513 net.cpp:106] Creating Layer inception_3a/relu_pool_proj
I0506 13:05:22.041198 18513 net.cpp:454] inception_3a/relu_pool_proj <- inception_3a/pool_proj
I0506 13:05:22.041271 18513 net.cpp:397] inception_3a/relu_pool_proj -> inception_3a/pool_proj (in-place)
I0506 13:05:22.041615 18513 net.cpp:150] Setting up inception_3a/relu_pool_proj
I0506 13:05:22.041662 18513 net.cpp:157] Top shape: 140 32 28 28 (3512320)
I0506 13:05:22.041740 18513 net.cpp:165] Memory required for data: 3189186560
I0506 13:05:22.041811 18513 layer_factory.hpp:77] Creating layer inception_3a/output
I0506 13:05:22.041889 18513 net.cpp:106] Creating Layer inception_3a/output
I0506 13:05:22.041956 18513 net.cpp:454] inception_3a/output <- inception_3a/1x1
I0506 13:05:22.042037 18513 net.cpp:454] inception_3a/output <- inception_3a/3x3
I0506 13:05:22.042105 18513 net.cpp:454] inception_3a/output <- inception_3a/5x5
I0506 13:05:22.042181 18513 net.cpp:454] inception_3a/output <- inception_3a/pool_proj
I0506 13:05:22.042253 18513 net.cpp:411] inception_3a/output -> inception_3a/output
I0506 13:05:22.042351 18513 net.cpp:150] Setting up inception_3a/output
I0506 13:05:22.042410 18513 net.cpp:157] Top shape: 140 256 28 28 (28098560)
I0506 13:05:22.042546 18513 net.cpp:165] Memory required for data: 3301580800
I0506 13:05:22.042615 18513 layer_factory.hpp:77] Creating layer inception_3a/output_inception_3a/output_0_split
I0506 13:05:22.042688 18513 net.cpp:106] Creating Layer inception_3a/output_inception_3a/output_0_split
I0506 13:05:22.042768 18513 net.cpp:454] inception_3a/output_inception_3a/output_0_split <- inception_3a/output
I0506 13:05:22.042841 18513 net.cpp:411] inception_3a/output_inception_3a/output_0_split -> inception_3a/output_inception_3a/output_0_split_0
I0506 13:05:22.042917 18513 net.cpp:411] inception_3a/output_inception_3a/output_0_split -> inception_3a/output_inception_3a/output_0_split_1
I0506 13:05:22.042994 18513 net.cpp:411] inception_3a/output_inception_3a/output_0_split -> inception_3a/output_inception_3a/output_0_split_2
I0506 13:05:22.043067 18513 net.cpp:411] inception_3a/output_inception_3a/output_0_split -> inception_3a/output_inception_3a/output_0_split_3
I0506 13:05:22.043208 18513 net.cpp:150] Setting up inception_3a/output_inception_3a/output_0_split
I0506 13:05:22.043294 18513 net.cpp:157] Top shape: 140 256 28 28 (28098560)
I0506 13:05:22.043365 18513 net.cpp:157] Top shape: 140 256 28 28 (28098560)
I0506 13:05:22.043444 18513 net.cpp:157] Top shape: 140 256 28 28 (28098560)
I0506 13:05:22.043514 18513 net.cpp:157] Top shape: 140 256 28 28 (28098560)
I0506 13:05:22.043589 18513 net.cpp:165] Memory required for data: 3751157760
I0506 13:05:22.043659 18513 layer_factory.hpp:77] Creating layer inception_3b/1x1
I0506 13:05:22.043736 18513 net.cpp:106] Creating Layer inception_3b/1x1
I0506 13:05:22.043802 18513 net.cpp:454] inception_3b/1x1 <- inception_3a/output_inception_3a/output_0_split_0
I0506 13:05:22.043880 18513 net.cpp:411] inception_3b/1x1 -> inception_3b/1x1
I0506 13:05:22.045109 18513 net.cpp:150] Setting up inception_3b/1x1
I0506 13:05:22.045152 18513 net.cpp:157] Top shape: 140 128 28 28 (14049280)
I0506 13:05:22.045231 18513 net.cpp:165] Memory required for data: 3807354880
I0506 13:05:22.045305 18513 layer_factory.hpp:77] Creating layer inception_3b/relu_1x1
I0506 13:05:22.045379 18513 net.cpp:106] Creating Layer inception_3b/relu_1x1
I0506 13:05:22.045454 18513 net.cpp:454] inception_3b/relu_1x1 <- inception_3b/1x1
I0506 13:05:22.045524 18513 net.cpp:397] inception_3b/relu_1x1 -> inception_3b/1x1 (in-place)
I0506 13:05:22.045768 18513 net.cpp:150] Setting up inception_3b/relu_1x1
I0506 13:05:22.045835 18513 net.cpp:157] Top shape: 140 128 28 28 (14049280)
I0506 13:05:22.045910 18513 net.cpp:165] Memory required for data: 3863552000
I0506 13:05:22.045980 18513 layer_factory.hpp:77] Creating layer inception_3b/3x3_reduce
I0506 13:05:22.046056 18513 net.cpp:106] Creating Layer inception_3b/3x3_reduce
I0506 13:05:22.046123 18513 net.cpp:454] inception_3b/3x3_reduce <- inception_3a/output_inception_3a/output_0_split_1
I0506 13:05:22.046201 18513 net.cpp:411] inception_3b/3x3_reduce -> inception_3b/3x3_reduce
I0506 13:05:22.047451 18513 net.cpp:150] Setting up inception_3b/3x3_reduce
I0506 13:05:22.047505 18513 net.cpp:157] Top shape: 140 128 28 28 (14049280)
I0506 13:05:22.047582 18513 net.cpp:165] Memory required for data: 3919749120
I0506 13:05:22.047657 18513 layer_factory.hpp:77] Creating layer inception_3b/relu_3x3_reduce
I0506 13:05:22.047727 18513 net.cpp:106] Creating Layer inception_3b/relu_3x3_reduce
I0506 13:05:22.047801 18513 net.cpp:454] inception_3b/relu_3x3_reduce <- inception_3b/3x3_reduce
I0506 13:05:22.047873 18513 net.cpp:397] inception_3b/relu_3x3_reduce -> inception_3b/3x3_reduce (in-place)
I0506 13:05:22.048220 18513 net.cpp:150] Setting up inception_3b/relu_3x3_reduce
I0506 13:05:22.048265 18513 net.cpp:157] Top shape: 140 128 28 28 (14049280)
I0506 13:05:22.048343 18513 net.cpp:165] Memory required for data: 3975946240
I0506 13:05:22.048413 18513 layer_factory.hpp:77] Creating layer inception_3b/3x3
I0506 13:05:22.048488 18513 net.cpp:106] Creating Layer inception_3b/3x3
I0506 13:05:22.048557 18513 net.cpp:454] inception_3b/3x3 <- inception_3b/3x3_reduce
I0506 13:05:22.048691 18513 net.cpp:411] inception_3b/3x3 -> inception_3b/3x3
I0506 13:05:22.051329 18513 net.cpp:150] Setting up inception_3b/3x3
I0506 13:05:22.051373 18513 net.cpp:157] Top shape: 140 192 28 28 (21073920)
I0506 13:05:22.051452 18513 net.cpp:165] Memory required for data: 4060241920
I0506 13:05:22.051527 18513 layer_factory.hpp:77] Creating layer inception_3b/relu_3x3
I0506 13:05:22.051602 18513 net.cpp:106] Creating Layer inception_3b/relu_3x3
I0506 13:05:22.051674 18513 net.cpp:454] inception_3b/relu_3x3 <- inception_3b/3x3
I0506 13:05:22.051745 18513 net.cpp:397] inception_3b/relu_3x3 -> inception_3b/3x3 (in-place)
I0506 13:05:22.052098 18513 net.cpp:150] Setting up inception_3b/relu_3x3
I0506 13:05:22.052139 18513 net.cpp:157] Top shape: 140 192 28 28 (21073920)
I0506 13:05:22.052217 18513 net.cpp:165] Memory required for data: 4144537600
I0506 13:05:22.052287 18513 layer_factory.hpp:77] Creating layer inception_3b/5x5_reduce
I0506 13:05:22.052364 18513 net.cpp:106] Creating Layer inception_3b/5x5_reduce
I0506 13:05:22.052431 18513 net.cpp:454] inception_3b/5x5_reduce <- inception_3a/output_inception_3a/output_0_split_2
I0506 13:05:22.052513 18513 net.cpp:411] inception_3b/5x5_reduce -> inception_3b/5x5_reduce
I0506 13:05:22.053731 18513 net.cpp:150] Setting up inception_3b/5x5_reduce
I0506 13:05:22.053817 18513 net.cpp:157] Top shape: 140 32 28 28 (3512320)
I0506 13:05:22.053886 18513 net.cpp:165] Memory required for data: 4158586880
I0506 13:05:22.053969 18513 layer_factory.hpp:77] Creating layer inception_3b/relu_5x5_reduce
I0506 13:05:22.054041 18513 net.cpp:106] Creating Layer inception_3b/relu_5x5_reduce
I0506 13:05:22.054116 18513 net.cpp:454] inception_3b/relu_5x5_reduce <- inception_3b/5x5_reduce
I0506 13:05:22.054188 18513 net.cpp:397] inception_3b/relu_5x5_reduce -> inception_3b/5x5_reduce (in-place)
I0506 13:05:22.054433 18513 net.cpp:150] Setting up inception_3b/relu_5x5_reduce
I0506 13:05:22.054497 18513 net.cpp:157] Top shape: 140 32 28 28 (3512320)
I0506 13:05:22.054579 18513 net.cpp:165] Memory required for data: 4172636160
I0506 13:05:22.054649 18513 layer_factory.hpp:77] Creating layer inception_3b/5x5
I0506 13:05:22.054724 18513 net.cpp:106] Creating Layer inception_3b/5x5
I0506 13:05:22.054792 18513 net.cpp:454] inception_3b/5x5 <- inception_3b/5x5_reduce
I0506 13:05:22.054870 18513 net.cpp:411] inception_3b/5x5 -> inception_3b/5x5
I0506 13:05:22.056768 18513 net.cpp:150] Setting up inception_3b/5x5
I0506 13:05:22.056807 18513 net.cpp:157] Top shape: 140 96 28 28 (10536960)
I0506 13:05:22.056831 18513 net.cpp:165] Memory required for data: 4214784000
I0506 13:05:22.056860 18513 layer_factory.hpp:77] Creating layer inception_3b/relu_5x5
I0506 13:05:22.056888 18513 net.cpp:106] Creating Layer inception_3b/relu_5x5
I0506 13:05:22.056915 18513 net.cpp:454] inception_3b/relu_5x5 <- inception_3b/5x5
I0506 13:05:22.056943 18513 net.cpp:397] inception_3b/relu_5x5 -> inception_3b/5x5 (in-place)
I0506 13:05:22.057248 18513 net.cpp:150] Setting up inception_3b/relu_5x5
I0506 13:05:22.057282 18513 net.cpp:157] Top shape: 140 96 28 28 (10536960)
I0506 13:05:22.057308 18513 net.cpp:165] Memory required for data: 4256931840
I0506 13:05:22.057334 18513 layer_factory.hpp:77] Creating layer inception_3b/pool
I0506 13:05:22.057363 18513 net.cpp:106] Creating Layer inception_3b/pool
I0506 13:05:22.057389 18513 net.cpp:454] inception_3b/pool <- inception_3a/output_inception_3a/output_0_split_3
I0506 13:05:22.057416 18513 net.cpp:411] inception_3b/pool -> inception_3b/pool
I0506 13:05:22.057647 18513 net.cpp:150] Setting up inception_3b/pool
I0506 13:05:22.057682 18513 net.cpp:157] Top shape: 140 256 28 28 (28098560)
I0506 13:05:22.057708 18513 net.cpp:165] Memory required for data: 4369326080
I0506 13:05:22.057734 18513 layer_factory.hpp:77] Creating layer inception_3b/pool_proj
I0506 13:05:22.057765 18513 net.cpp:106] Creating Layer inception_3b/pool_proj
I0506 13:05:22.057792 18513 net.cpp:454] inception_3b/pool_proj <- inception_3b/pool
I0506 13:05:22.057821 18513 net.cpp:411] inception_3b/pool_proj -> inception_3b/pool_proj
I0506 13:05:22.058980 18513 net.cpp:150] Setting up inception_3b/pool_proj
I0506 13:05:22.059020 18513 net.cpp:157] Top shape: 140 64 28 28 (7024640)
I0506 13:05:22.059047 18513 net.cpp:165] Memory required for data: 4397424640
I0506 13:05:22.059077 18513 layer_factory.hpp:77] Creating layer inception_3b/relu_pool_proj
I0506 13:05:22.059106 18513 net.cpp:106] Creating Layer inception_3b/relu_pool_proj
I0506 13:05:22.059134 18513 net.cpp:454] inception_3b/relu_pool_proj <- inception_3b/pool_proj
I0506 13:05:22.059160 18513 net.cpp:397] inception_3b/relu_pool_proj -> inception_3b/pool_proj (in-place)
I0506 13:05:22.059360 18513 net.cpp:150] Setting up inception_3b/relu_pool_proj
I0506 13:05:22.059396 18513 net.cpp:157] Top shape: 140 64 28 28 (7024640)
I0506 13:05:22.059422 18513 net.cpp:165] Memory required for data: 4425523200
I0506 13:05:22.059447 18513 layer_factory.hpp:77] Creating layer inception_3b/output
I0506 13:05:22.059474 18513 net.cpp:106] Creating Layer inception_3b/output
I0506 13:05:22.059500 18513 net.cpp:454] inception_3b/output <- inception_3b/1x1
I0506 13:05:22.059526 18513 net.cpp:454] inception_3b/output <- inception_3b/3x3
I0506 13:05:22.059553 18513 net.cpp:454] inception_3b/output <- inception_3b/5x5
I0506 13:05:22.059578 18513 net.cpp:454] inception_3b/output <- inception_3b/pool_proj
I0506 13:05:22.059612 18513 net.cpp:411] inception_3b/output -> inception_3b/output
I0506 13:05:22.059664 18513 net.cpp:150] Setting up inception_3b/output
I0506 13:05:22.059696 18513 net.cpp:157] Top shape: 140 480 28 28 (52684800)
I0506 13:05:22.059721 18513 net.cpp:165] Memory required for data: 4636262400
I0506 13:05:22.059742 18513 layer_factory.hpp:77] Creating layer pool3/3x3_s2
I0506 13:05:22.059773 18513 net.cpp:106] Creating Layer pool3/3x3_s2
I0506 13:05:22.059800 18513 net.cpp:454] pool3/3x3_s2 <- inception_3b/output
I0506 13:05:22.059828 18513 net.cpp:411] pool3/3x3_s2 -> pool3/3x3_s2
I0506 13:05:22.060161 18513 net.cpp:150] Setting up pool3/3x3_s2
I0506 13:05:22.060196 18513 net.cpp:157] Top shape: 140 480 14 14 (13171200)
I0506 13:05:22.060223 18513 net.cpp:165] Memory required for data: 4688947200
I0506 13:05:22.060250 18513 layer_factory.hpp:77] Creating layer pool3/3x3_s2_pool3/3x3_s2_0_split
I0506 13:05:22.060277 18513 net.cpp:106] Creating Layer pool3/3x3_s2_pool3/3x3_s2_0_split
I0506 13:05:22.060305 18513 net.cpp:454] pool3/3x3_s2_pool3/3x3_s2_0_split <- pool3/3x3_s2
I0506 13:05:22.060333 18513 net.cpp:411] pool3/3x3_s2_pool3/3x3_s2_0_split -> pool3/3x3_s2_pool3/3x3_s2_0_split_0
I0506 13:05:22.060362 18513 net.cpp:411] pool3/3x3_s2_pool3/3x3_s2_0_split -> pool3/3x3_s2_pool3/3x3_s2_0_split_1
I0506 13:05:22.060391 18513 net.cpp:411] pool3/3x3_s2_pool3/3x3_s2_0_split -> pool3/3x3_s2_pool3/3x3_s2_0_split_2
I0506 13:05:22.060420 18513 net.cpp:411] pool3/3x3_s2_pool3/3x3_s2_0_split -> pool3/3x3_s2_pool3/3x3_s2_0_split_3
I0506 13:05:22.060510 18513 net.cpp:150] Setting up pool3/3x3_s2_pool3/3x3_s2_0_split
I0506 13:05:22.060544 18513 net.cpp:157] Top shape: 140 480 14 14 (13171200)
I0506 13:05:22.060570 18513 net.cpp:157] Top shape: 140 480 14 14 (13171200)
I0506 13:05:22.060596 18513 net.cpp:157] Top shape: 140 480 14 14 (13171200)
I0506 13:05:22.060622 18513 net.cpp:157] Top shape: 140 480 14 14 (13171200)
I0506 13:05:22.060652 18513 net.cpp:165] Memory required for data: 4899686400
I0506 13:05:22.060677 18513 layer_factory.hpp:77] Creating layer inception_4a/1x1
I0506 13:05:22.060706 18513 net.cpp:106] Creating Layer inception_4a/1x1
I0506 13:05:22.060734 18513 net.cpp:454] inception_4a/1x1 <- pool3/3x3_s2_pool3/3x3_s2_0_split_0
I0506 13:05:22.060762 18513 net.cpp:411] inception_4a/1x1 -> inception_4a/1x1
I0506 13:05:22.062417 18513 net.cpp:150] Setting up inception_4a/1x1
I0506 13:05:22.062455 18513 net.cpp:157] Top shape: 140 192 14 14 (5268480)
I0506 13:05:22.062482 18513 net.cpp:165] Memory required for data: 4920760320
I0506 13:05:22.062515 18513 layer_factory.hpp:77] Creating layer inception_4a/relu_1x1
I0506 13:05:22.062546 18513 net.cpp:106] Creating Layer inception_4a/relu_1x1
I0506 13:05:22.062589 18513 net.cpp:454] inception_4a/relu_1x1 <- inception_4a/1x1
I0506 13:05:22.062618 18513 net.cpp:397] inception_4a/relu_1x1 -> inception_4a/1x1 (in-place)
I0506 13:05:22.062821 18513 net.cpp:150] Setting up inception_4a/relu_1x1
I0506 13:05:22.062856 18513 net.cpp:157] Top shape: 140 192 14 14 (5268480)
I0506 13:05:22.062883 18513 net.cpp:165] Memory required for data: 4941834240
I0506 13:05:22.062908 18513 layer_factory.hpp:77] Creating layer inception_4a/3x3_reduce
I0506 13:05:22.062938 18513 net.cpp:106] Creating Layer inception_4a/3x3_reduce
I0506 13:05:22.062966 18513 net.cpp:454] inception_4a/3x3_reduce <- pool3/3x3_s2_pool3/3x3_s2_0_split_1
I0506 13:05:22.062997 18513 net.cpp:411] inception_4a/3x3_reduce -> inception_4a/3x3_reduce
I0506 13:05:22.064323 18513 net.cpp:150] Setting up inception_4a/3x3_reduce
I0506 13:05:22.064360 18513 net.cpp:157] Top shape: 140 96 14 14 (2634240)
I0506 13:05:22.064388 18513 net.cpp:165] Memory required for data: 4952371200
I0506 13:05:22.064422 18513 layer_factory.hpp:77] Creating layer inception_4a/relu_3x3_reduce
I0506 13:05:22.064452 18513 net.cpp:106] Creating Layer inception_4a/relu_3x3_reduce
I0506 13:05:22.064482 18513 net.cpp:454] inception_4a/relu_3x3_reduce <- inception_4a/3x3_reduce
I0506 13:05:22.064510 18513 net.cpp:397] inception_4a/relu_3x3_reduce -> inception_4a/3x3_reduce (in-place)
I0506 13:05:22.064815 18513 net.cpp:150] Setting up inception_4a/relu_3x3_reduce
I0506 13:05:22.064851 18513 net.cpp:157] Top shape: 140 96 14 14 (2634240)
I0506 13:05:22.064878 18513 net.cpp:165] Memory required for data: 4962908160
I0506 13:05:22.064903 18513 layer_factory.hpp:77] Creating layer inception_4a/3x3
I0506 13:05:22.064934 18513 net.cpp:106] Creating Layer inception_4a/3x3
I0506 13:05:22.064962 18513 net.cpp:454] inception_4a/3x3 <- inception_4a/3x3_reduce
I0506 13:05:22.064990 18513 net.cpp:411] inception_4a/3x3 -> inception_4a/3x3
I0506 13:05:22.067348 18513 net.cpp:150] Setting up inception_4a/3x3
I0506 13:05:22.067391 18513 net.cpp:157] Top shape: 140 208 14 14 (5707520)
I0506 13:05:22.067419 18513 net.cpp:165] Memory required for data: 4985738240
I0506 13:05:22.067447 18513 layer_factory.hpp:77] Creating layer inception_4a/relu_3x3
I0506 13:05:22.067478 18513 net.cpp:106] Creating Layer inception_4a/relu_3x3
I0506 13:05:22.067507 18513 net.cpp:454] inception_4a/relu_3x3 <- inception_4a/3x3
I0506 13:05:22.067533 18513 net.cpp:397] inception_4a/relu_3x3 -> inception_4a/3x3 (in-place)
I0506 13:05:22.067834 18513 net.cpp:150] Setting up inception_4a/relu_3x3
I0506 13:05:22.067875 18513 net.cpp:157] Top shape: 140 208 14 14 (5707520)
I0506 13:05:22.067903 18513 net.cpp:165] Memory required for data: 5008568320
I0506 13:05:22.067927 18513 layer_factory.hpp:77] Creating layer inception_4a/5x5_reduce
I0506 13:05:22.067958 18513 net.cpp:106] Creating Layer inception_4a/5x5_reduce
I0506 13:05:22.067986 18513 net.cpp:454] inception_4a/5x5_reduce <- pool3/3x3_s2_pool3/3x3_s2_0_split_2
I0506 13:05:22.068017 18513 net.cpp:411] inception_4a/5x5_reduce -> inception_4a/5x5_reduce
I0506 13:05:22.069124 18513 net.cpp:150] Setting up inception_4a/5x5_reduce
I0506 13:05:22.069166 18513 net.cpp:157] Top shape: 140 16 14 14 (439040)
I0506 13:05:22.069193 18513 net.cpp:165] Memory required for data: 5010324480
I0506 13:05:22.069221 18513 layer_factory.hpp:77] Creating layer inception_4a/relu_5x5_reduce
I0506 13:05:22.069250 18513 net.cpp:106] Creating Layer inception_4a/relu_5x5_reduce
I0506 13:05:22.069277 18513 net.cpp:454] inception_4a/relu_5x5_reduce <- inception_4a/5x5_reduce
I0506 13:05:22.069303 18513 net.cpp:397] inception_4a/relu_5x5_reduce -> inception_4a/5x5_reduce (in-place)
I0506 13:05:22.069506 18513 net.cpp:150] Setting up inception_4a/relu_5x5_reduce
I0506 13:05:22.069538 18513 net.cpp:157] Top shape: 140 16 14 14 (439040)
I0506 13:05:22.069564 18513 net.cpp:165] Memory required for data: 5012080640
I0506 13:05:22.069591 18513 layer_factory.hpp:77] Creating layer inception_4a/5x5
I0506 13:05:22.069619 18513 net.cpp:106] Creating Layer inception_4a/5x5
I0506 13:05:22.069664 18513 net.cpp:454] inception_4a/5x5 <- inception_4a/5x5_reduce
I0506 13:05:22.069696 18513 net.cpp:411] inception_4a/5x5 -> inception_4a/5x5
I0506 13:05:22.071009 18513 net.cpp:150] Setting up inception_4a/5x5
I0506 13:05:22.071048 18513 net.cpp:157] Top shape: 140 48 14 14 (1317120)
I0506 13:05:22.071074 18513 net.cpp:165] Memory required for data: 5017349120
I0506 13:05:22.071105 18513 layer_factory.hpp:77] Creating layer inception_4a/relu_5x5
I0506 13:05:22.071135 18513 net.cpp:106] Creating Layer inception_4a/relu_5x5
I0506 13:05:22.071163 18513 net.cpp:454] inception_4a/relu_5x5 <- inception_4a/5x5
I0506 13:05:22.071190 18513 net.cpp:397] inception_4a/relu_5x5 -> inception_4a/5x5 (in-place)
I0506 13:05:22.071497 18513 net.cpp:150] Setting up inception_4a/relu_5x5
I0506 13:05:22.071534 18513 net.cpp:157] Top shape: 140 48 14 14 (1317120)
I0506 13:05:22.071562 18513 net.cpp:165] Memory required for data: 5022617600
I0506 13:05:22.071586 18513 layer_factory.hpp:77] Creating layer inception_4a/pool
I0506 13:05:22.071614 18513 net.cpp:106] Creating Layer inception_4a/pool
I0506 13:05:22.071640 18513 net.cpp:454] inception_4a/pool <- pool3/3x3_s2_pool3/3x3_s2_0_split_3
I0506 13:05:22.071671 18513 net.cpp:411] inception_4a/pool -> inception_4a/pool
I0506 13:05:22.071903 18513 net.cpp:150] Setting up inception_4a/pool
I0506 13:05:22.071939 18513 net.cpp:157] Top shape: 140 480 14 14 (13171200)
I0506 13:05:22.071964 18513 net.cpp:165] Memory required for data: 5075302400
I0506 13:05:22.071990 18513 layer_factory.hpp:77] Creating layer inception_4a/pool_proj
I0506 13:05:22.072022 18513 net.cpp:106] Creating Layer inception_4a/pool_proj
I0506 13:05:22.072051 18513 net.cpp:454] inception_4a/pool_proj <- inception_4a/pool
I0506 13:05:22.072079 18513 net.cpp:411] inception_4a/pool_proj -> inception_4a/pool_proj
I0506 13:05:22.073318 18513 net.cpp:150] Setting up inception_4a/pool_proj
I0506 13:05:22.073359 18513 net.cpp:157] Top shape: 140 64 14 14 (1756160)
I0506 13:05:22.073386 18513 net.cpp:165] Memory required for data: 5082327040
I0506 13:05:22.073415 18513 layer_factory.hpp:77] Creating layer inception_4a/relu_pool_proj
I0506 13:05:22.073444 18513 net.cpp:106] Creating Layer inception_4a/relu_pool_proj
I0506 13:05:22.073472 18513 net.cpp:454] inception_4a/relu_pool_proj <- inception_4a/pool_proj
I0506 13:05:22.073498 18513 net.cpp:397] inception_4a/relu_pool_proj -> inception_4a/pool_proj (in-place)
I0506 13:05:22.073807 18513 net.cpp:150] Setting up inception_4a/relu_pool_proj
I0506 13:05:22.073843 18513 net.cpp:157] Top shape: 140 64 14 14 (1756160)
I0506 13:05:22.073869 18513 net.cpp:165] Memory required for data: 5089351680
I0506 13:05:22.073894 18513 layer_factory.hpp:77] Creating layer inception_4a/output
I0506 13:05:22.073918 18513 net.cpp:106] Creating Layer inception_4a/output
I0506 13:05:22.073943 18513 net.cpp:454] inception_4a/output <- inception_4a/1x1
I0506 13:05:22.073969 18513 net.cpp:454] inception_4a/output <- inception_4a/3x3
I0506 13:05:22.073995 18513 net.cpp:454] inception_4a/output <- inception_4a/5x5
I0506 13:05:22.074021 18513 net.cpp:454] inception_4a/output <- inception_4a/pool_proj
I0506 13:05:22.074048 18513 net.cpp:411] inception_4a/output -> inception_4a/output
I0506 13:05:22.074103 18513 net.cpp:150] Setting up inception_4a/output
I0506 13:05:22.074138 18513 net.cpp:157] Top shape: 140 512 14 14 (14049280)
I0506 13:05:22.074162 18513 net.cpp:165] Memory required for data: 5145548800
I0506 13:05:22.074187 18513 layer_factory.hpp:77] Creating layer inception_4a/output_inception_4a/output_0_split
I0506 13:05:22.074214 18513 net.cpp:106] Creating Layer inception_4a/output_inception_4a/output_0_split
I0506 13:05:22.074240 18513 net.cpp:454] inception_4a/output_inception_4a/output_0_split <- inception_4a/output
I0506 13:05:22.074267 18513 net.cpp:411] inception_4a/output_inception_4a/output_0_split -> inception_4a/output_inception_4a/output_0_split_0
I0506 13:05:22.074296 18513 net.cpp:411] inception_4a/output_inception_4a/output_0_split -> inception_4a/output_inception_4a/output_0_split_1
I0506 13:05:22.074344 18513 net.cpp:411] inception_4a/output_inception_4a/output_0_split -> inception_4a/output_inception_4a/output_0_split_2
I0506 13:05:22.074373 18513 net.cpp:411] inception_4a/output_inception_4a/output_0_split -> inception_4a/output_inception_4a/output_0_split_3
I0506 13:05:22.074471 18513 net.cpp:150] Setting up inception_4a/output_inception_4a/output_0_split
I0506 13:05:22.074502 18513 net.cpp:157] Top shape: 140 512 14 14 (14049280)
I0506 13:05:22.074534 18513 net.cpp:157] Top shape: 140 512 14 14 (14049280)
I0506 13:05:22.074561 18513 net.cpp:157] Top shape: 140 512 14 14 (14049280)
I0506 13:05:22.074587 18513 net.cpp:157] Top shape: 140 512 14 14 (14049280)
I0506 13:05:22.074612 18513 net.cpp:165] Memory required for data: 5370337280
I0506 13:05:22.074636 18513 layer_factory.hpp:77] Creating layer inception_4b/1x1
I0506 13:05:22.074668 18513 net.cpp:106] Creating Layer inception_4b/1x1
I0506 13:05:22.074692 18513 net.cpp:454] inception_4b/1x1 <- inception_4a/output_inception_4a/output_0_split_0
I0506 13:05:22.074723 18513 net.cpp:411] inception_4b/1x1 -> inception_4b/1x1
I0506 13:05:22.076146 18513 net.cpp:150] Setting up inception_4b/1x1
I0506 13:05:22.076186 18513 net.cpp:157] Top shape: 140 160 14 14 (4390400)
I0506 13:05:22.076212 18513 net.cpp:165] Memory required for data: 5387898880
I0506 13:05:22.076241 18513 layer_factory.hpp:77] Creating layer inception_4b/relu_1x1
I0506 13:05:22.076273 18513 net.cpp:106] Creating Layer inception_4b/relu_1x1
I0506 13:05:22.076300 18513 net.cpp:454] inception_4b/relu_1x1 <- inception_4b/1x1
I0506 13:05:22.076328 18513 net.cpp:397] inception_4b/relu_1x1 -> inception_4b/1x1 (in-place)
I0506 13:05:22.076635 18513 net.cpp:150] Setting up inception_4b/relu_1x1
I0506 13:05:22.076671 18513 net.cpp:157] Top shape: 140 160 14 14 (4390400)
I0506 13:05:22.076699 18513 net.cpp:165] Memory required for data: 5405460480
I0506 13:05:22.076722 18513 layer_factory.hpp:77] Creating layer inception_4b/3x3_reduce
I0506 13:05:22.076763 18513 net.cpp:106] Creating Layer inception_4b/3x3_reduce
I0506 13:05:22.076792 18513 net.cpp:454] inception_4b/3x3_reduce <- inception_4a/output_inception_4a/output_0_split_1
I0506 13:05:22.076820 18513 net.cpp:411] inception_4b/3x3_reduce -> inception_4b/3x3_reduce
I0506 13:05:22.078238 18513 net.cpp:150] Setting up inception_4b/3x3_reduce
I0506 13:05:22.078274 18513 net.cpp:157] Top shape: 140 112 14 14 (3073280)
I0506 13:05:22.078302 18513 net.cpp:165] Memory required for data: 5417753600
I0506 13:05:22.078332 18513 layer_factory.hpp:77] Creating layer inception_4b/relu_3x3_reduce
I0506 13:05:22.078362 18513 net.cpp:106] Creating Layer inception_4b/relu_3x3_reduce
I0506 13:05:22.078389 18513 net.cpp:454] inception_4b/relu_3x3_reduce <- inception_4b/3x3_reduce
I0506 13:05:22.078416 18513 net.cpp:397] inception_4b/relu_3x3_reduce -> inception_4b/3x3_reduce (in-place)
I0506 13:05:22.078621 18513 net.cpp:150] Setting up inception_4b/relu_3x3_reduce
I0506 13:05:22.078657 18513 net.cpp:157] Top shape: 140 112 14 14 (3073280)
I0506 13:05:22.078681 18513 net.cpp:165] Memory required for data: 5430046720
I0506 13:05:22.078707 18513 layer_factory.hpp:77] Creating layer inception_4b/3x3
I0506 13:05:22.078738 18513 net.cpp:106] Creating Layer inception_4b/3x3
I0506 13:05:22.078766 18513 net.cpp:454] inception_4b/3x3 <- inception_4b/3x3_reduce
I0506 13:05:22.078794 18513 net.cpp:411] inception_4b/3x3 -> inception_4b/3x3
I0506 13:05:22.081549 18513 net.cpp:150] Setting up inception_4b/3x3
I0506 13:05:22.081585 18513 net.cpp:157] Top shape: 140 224 14 14 (6146560)
I0506 13:05:22.081612 18513 net.cpp:165] Memory required for data: 5454632960
I0506 13:05:22.081640 18513 layer_factory.hpp:77] Creating layer inception_4b/relu_3x3
I0506 13:05:22.081668 18513 net.cpp:106] Creating Layer inception_4b/relu_3x3
I0506 13:05:22.081696 18513 net.cpp:454] inception_4b/relu_3x3 <- inception_4b/3x3
I0506 13:05:22.081723 18513 net.cpp:397] inception_4b/relu_3x3 -> inception_4b/3x3 (in-place)
I0506 13:05:22.082031 18513 net.cpp:150] Setting up inception_4b/relu_3x3
I0506 13:05:22.082093 18513 net.cpp:157] Top shape: 140 224 14 14 (6146560)
I0506 13:05:22.082120 18513 net.cpp:165] Memory required for data: 5479219200
I0506 13:05:22.082146 18513 layer_factory.hpp:77] Creating layer inception_4b/5x5_reduce
I0506 13:05:22.082177 18513 net.cpp:106] Creating Layer inception_4b/5x5_reduce
I0506 13:05:22.082204 18513 net.cpp:454] inception_4b/5x5_reduce <- inception_4a/output_inception_4a/output_0_split_2
I0506 13:05:22.082232 18513 net.cpp:411] inception_4b/5x5_reduce -> inception_4b/5x5_reduce
I0506 13:05:22.083304 18513 net.cpp:150] Setting up inception_4b/5x5_reduce
I0506 13:05:22.083340 18513 net.cpp:157] Top shape: 140 24 14 14 (658560)
I0506 13:05:22.083369 18513 net.cpp:165] Memory required for data: 5481853440
I0506 13:05:22.083397 18513 layer_factory.hpp:77] Creating layer inception_4b/relu_5x5_reduce
I0506 13:05:22.083433 18513 net.cpp:106] Creating Layer inception_4b/relu_5x5_reduce
I0506 13:05:22.083461 18513 net.cpp:454] inception_4b/relu_5x5_reduce <- inception_4b/5x5_reduce
I0506 13:05:22.083492 18513 net.cpp:397] inception_4b/relu_5x5_reduce -> inception_4b/5x5_reduce (in-place)
I0506 13:05:22.083803 18513 net.cpp:150] Setting up inception_4b/relu_5x5_reduce
I0506 13:05:22.083842 18513 net.cpp:157] Top shape: 140 24 14 14 (658560)
I0506 13:05:22.083868 18513 net.cpp:165] Memory required for data: 5484487680
I0506 13:05:22.083894 18513 layer_factory.hpp:77] Creating layer inception_4b/5x5
I0506 13:05:22.083925 18513 net.cpp:106] Creating Layer inception_4b/5x5
I0506 13:05:22.083953 18513 net.cpp:454] inception_4b/5x5 <- inception_4b/5x5_reduce
I0506 13:05:22.083986 18513 net.cpp:411] inception_4b/5x5 -> inception_4b/5x5
I0506 13:05:22.085670 18513 net.cpp:150] Setting up inception_4b/5x5
I0506 13:05:22.085705 18513 net.cpp:157] Top shape: 140 64 14 14 (1756160)
I0506 13:05:22.085731 18513 net.cpp:165] Memory required for data: 5491512320
I0506 13:05:22.085760 18513 layer_factory.hpp:77] Creating layer inception_4b/relu_5x5
I0506 13:05:22.085788 18513 net.cpp:106] Creating Layer inception_4b/relu_5x5
I0506 13:05:22.085814 18513 net.cpp:454] inception_4b/relu_5x5 <- inception_4b/5x5
I0506 13:05:22.085844 18513 net.cpp:397] inception_4b/relu_5x5 -> inception_4b/5x5 (in-place)
I0506 13:05:22.086047 18513 net.cpp:150] Setting up inception_4b/relu_5x5
I0506 13:05:22.086082 18513 net.cpp:157] Top shape: 140 64 14 14 (1756160)
I0506 13:05:22.086109 18513 net.cpp:165] Memory required for data: 5498536960
I0506 13:05:22.086135 18513 layer_factory.hpp:77] Creating layer inception_4b/pool
I0506 13:05:22.086163 18513 net.cpp:106] Creating Layer inception_4b/pool
I0506 13:05:22.086189 18513 net.cpp:454] inception_4b/pool <- inception_4a/output_inception_4a/output_0_split_3
I0506 13:05:22.086215 18513 net.cpp:411] inception_4b/pool -> inception_4b/pool
I0506 13:05:22.086571 18513 net.cpp:150] Setting up inception_4b/pool
I0506 13:05:22.086612 18513 net.cpp:157] Top shape: 140 512 14 14 (14049280)
I0506 13:05:22.086639 18513 net.cpp:165] Memory required for data: 5554734080
I0506 13:05:22.086664 18513 layer_factory.hpp:77] Creating layer inception_4b/pool_proj
I0506 13:05:22.086695 18513 net.cpp:106] Creating Layer inception_4b/pool_proj
I0506 13:05:22.086719 18513 net.cpp:454] inception_4b/pool_proj <- inception_4b/pool
I0506 13:05:22.086747 18513 net.cpp:411] inception_4b/pool_proj -> inception_4b/pool_proj
I0506 13:05:22.088140 18513 net.cpp:150] Setting up inception_4b/pool_proj
I0506 13:05:22.088179 18513 net.cpp:157] Top shape: 140 64 14 14 (1756160)
I0506 13:05:22.088202 18513 net.cpp:165] Memory required for data: 5561758720
I0506 13:05:22.088232 18513 layer_factory.hpp:77] Creating layer inception_4b/relu_pool_proj
I0506 13:05:22.088258 18513 net.cpp:106] Creating Layer inception_4b/relu_pool_proj
I0506 13:05:22.088285 18513 net.cpp:454] inception_4b/relu_pool_proj <- inception_4b/pool_proj
I0506 13:05:22.088312 18513 net.cpp:397] inception_4b/relu_pool_proj -> inception_4b/pool_proj (in-place)
I0506 13:05:22.088528 18513 net.cpp:150] Setting up inception_4b/relu_pool_proj
I0506 13:05:22.088582 18513 net.cpp:157] Top shape: 140 64 14 14 (1756160)
I0506 13:05:22.088609 18513 net.cpp:165] Memory required for data: 5568783360
I0506 13:05:22.088635 18513 layer_factory.hpp:77] Creating layer inception_4b/output
I0506 13:05:22.088662 18513 net.cpp:106] Creating Layer inception_4b/output
I0506 13:05:22.088688 18513 net.cpp:454] inception_4b/output <- inception_4b/1x1
I0506 13:05:22.088714 18513 net.cpp:454] inception_4b/output <- inception_4b/3x3
I0506 13:05:22.088740 18513 net.cpp:454] inception_4b/output <- inception_4b/5x5
I0506 13:05:22.088765 18513 net.cpp:454] inception_4b/output <- inception_4b/pool_proj
I0506 13:05:22.088791 18513 net.cpp:411] inception_4b/output -> inception_4b/output
I0506 13:05:22.088842 18513 net.cpp:150] Setting up inception_4b/output
I0506 13:05:22.088876 18513 net.cpp:157] Top shape: 140 512 14 14 (14049280)
I0506 13:05:22.088901 18513 net.cpp:165] Memory required for data: 5624980480
I0506 13:05:22.088925 18513 layer_factory.hpp:77] Creating layer inception_4b/output_inception_4b/output_0_split
I0506 13:05:22.088960 18513 net.cpp:106] Creating Layer inception_4b/output_inception_4b/output_0_split
I0506 13:05:22.088989 18513 net.cpp:454] inception_4b/output_inception_4b/output_0_split <- inception_4b/output
I0506 13:05:22.089015 18513 net.cpp:411] inception_4b/output_inception_4b/output_0_split -> inception_4b/output_inception_4b/output_0_split_0
I0506 13:05:22.089045 18513 net.cpp:411] inception_4b/output_inception_4b/output_0_split -> inception_4b/output_inception_4b/output_0_split_1
I0506 13:05:22.089076 18513 net.cpp:411] inception_4b/output_inception_4b/output_0_split -> inception_4b/output_inception_4b/output_0_split_2
I0506 13:05:22.089107 18513 net.cpp:411] inception_4b/output_inception_4b/output_0_split -> inception_4b/output_inception_4b/output_0_split_3
I0506 13:05:22.089205 18513 net.cpp:150] Setting up inception_4b/output_inception_4b/output_0_split
I0506 13:05:22.089243 18513 net.cpp:157] Top shape: 140 512 14 14 (14049280)
I0506 13:05:22.089272 18513 net.cpp:157] Top shape: 140 512 14 14 (14049280)
I0506 13:05:22.089298 18513 net.cpp:157] Top shape: 140 512 14 14 (14049280)
I0506 13:05:22.089323 18513 net.cpp:157] Top shape: 140 512 14 14 (14049280)
I0506 13:05:22.089349 18513 net.cpp:165] Memory required for data: 5849768960
I0506 13:05:22.089372 18513 layer_factory.hpp:77] Creating layer inception_4c/1x1
I0506 13:05:22.089402 18513 net.cpp:106] Creating Layer inception_4c/1x1
I0506 13:05:22.089428 18513 net.cpp:454] inception_4c/1x1 <- inception_4b/output_inception_4b/output_0_split_0
I0506 13:05:22.089457 18513 net.cpp:411] inception_4c/1x1 -> inception_4c/1x1
I0506 13:05:22.090942 18513 net.cpp:150] Setting up inception_4c/1x1
I0506 13:05:22.090977 18513 net.cpp:157] Top shape: 140 128 14 14 (3512320)
I0506 13:05:22.091004 18513 net.cpp:165] Memory required for data: 5863818240
I0506 13:05:22.091033 18513 layer_factory.hpp:77] Creating layer inception_4c/relu_1x1
I0506 13:05:22.091061 18513 net.cpp:106] Creating Layer inception_4c/relu_1x1
I0506 13:05:22.091089 18513 net.cpp:454] inception_4c/relu_1x1 <- inception_4c/1x1
I0506 13:05:22.091115 18513 net.cpp:397] inception_4c/relu_1x1 -> inception_4c/1x1 (in-place)
I0506 13:05:22.091315 18513 net.cpp:150] Setting up inception_4c/relu_1x1
I0506 13:05:22.091346 18513 net.cpp:157] Top shape: 140 128 14 14 (3512320)
I0506 13:05:22.091372 18513 net.cpp:165] Memory required for data: 5877867520
I0506 13:05:22.091397 18513 layer_factory.hpp:77] Creating layer inception_4c/3x3_reduce
I0506 13:05:22.091426 18513 net.cpp:106] Creating Layer inception_4c/3x3_reduce
I0506 13:05:22.091454 18513 net.cpp:454] inception_4c/3x3_reduce <- inception_4b/output_inception_4b/output_0_split_1
I0506 13:05:22.091486 18513 net.cpp:411] inception_4c/3x3_reduce -> inception_4c/3x3_reduce
I0506 13:05:22.092949 18513 net.cpp:150] Setting up inception_4c/3x3_reduce
I0506 13:05:22.092986 18513 net.cpp:157] Top shape: 140 128 14 14 (3512320)
I0506 13:05:22.093014 18513 net.cpp:165] Memory required for data: 5891916800
I0506 13:05:22.093060 18513 layer_factory.hpp:77] Creating layer inception_4c/relu_3x3_reduce
I0506 13:05:22.093091 18513 net.cpp:106] Creating Layer inception_4c/relu_3x3_reduce
I0506 13:05:22.093118 18513 net.cpp:454] inception_4c/relu_3x3_reduce <- inception_4c/3x3_reduce
I0506 13:05:22.093147 18513 net.cpp:397] inception_4c/relu_3x3_reduce -> inception_4c/3x3_reduce (in-place)
I0506 13:05:22.093463 18513 net.cpp:150] Setting up inception_4c/relu_3x3_reduce
I0506 13:05:22.093499 18513 net.cpp:157] Top shape: 140 128 14 14 (3512320)
I0506 13:05:22.093525 18513 net.cpp:165] Memory required for data: 5905966080
I0506 13:05:22.093551 18513 layer_factory.hpp:77] Creating layer inception_4c/3x3
I0506 13:05:22.093582 18513 net.cpp:106] Creating Layer inception_4c/3x3
I0506 13:05:22.093611 18513 net.cpp:454] inception_4c/3x3 <- inception_4c/3x3_reduce
I0506 13:05:22.093641 18513 net.cpp:411] inception_4c/3x3 -> inception_4c/3x3
I0506 13:05:22.096840 18513 net.cpp:150] Setting up inception_4c/3x3
I0506 13:05:22.096879 18513 net.cpp:157] Top shape: 140 256 14 14 (7024640)
I0506 13:05:22.096905 18513 net.cpp:165] Memory required for data: 5934064640
I0506 13:05:22.096935 18513 layer_factory.hpp:77] Creating layer inception_4c/relu_3x3
I0506 13:05:22.096962 18513 net.cpp:106] Creating Layer inception_4c/relu_3x3
I0506 13:05:22.096989 18513 net.cpp:454] inception_4c/relu_3x3 <- inception_4c/3x3
I0506 13:05:22.097023 18513 net.cpp:397] inception_4c/relu_3x3 -> inception_4c/3x3 (in-place)
I0506 13:05:22.097229 18513 net.cpp:150] Setting up inception_4c/relu_3x3
I0506 13:05:22.097265 18513 net.cpp:157] Top shape: 140 256 14 14 (7024640)
I0506 13:05:22.097291 18513 net.cpp:165] Memory required for data: 5962163200
I0506 13:05:22.097313 18513 layer_factory.hpp:77] Creating layer inception_4c/5x5_reduce
I0506 13:05:22.097344 18513 net.cpp:106] Creating Layer inception_4c/5x5_reduce
I0506 13:05:22.097371 18513 net.cpp:454] inception_4c/5x5_reduce <- inception_4b/output_inception_4b/output_0_split_2
I0506 13:05:22.097404 18513 net.cpp:411] inception_4c/5x5_reduce -> inception_4c/5x5_reduce
I0506 13:05:22.098623 18513 net.cpp:150] Setting up inception_4c/5x5_reduce
I0506 13:05:22.098656 18513 net.cpp:157] Top shape: 140 24 14 14 (658560)
I0506 13:05:22.098685 18513 net.cpp:165] Memory required for data: 5964797440
I0506 13:05:22.098713 18513 layer_factory.hpp:77] Creating layer inception_4c/relu_5x5_reduce
I0506 13:05:22.098742 18513 net.cpp:106] Creating Layer inception_4c/relu_5x5_reduce
I0506 13:05:22.098768 18513 net.cpp:454] inception_4c/relu_5x5_reduce <- inception_4c/5x5_reduce
I0506 13:05:22.098798 18513 net.cpp:397] inception_4c/relu_5x5_reduce -> inception_4c/5x5_reduce (in-place)
I0506 13:05:22.098996 18513 net.cpp:150] Setting up inception_4c/relu_5x5_reduce
I0506 13:05:22.099031 18513 net.cpp:157] Top shape: 140 24 14 14 (658560)
I0506 13:05:22.099057 18513 net.cpp:165] Memory required for data: 5967431680
I0506 13:05:22.099082 18513 layer_factory.hpp:77] Creating layer inception_4c/5x5
I0506 13:05:22.099113 18513 net.cpp:106] Creating Layer inception_4c/5x5
I0506 13:05:22.099141 18513 net.cpp:454] inception_4c/5x5 <- inception_4c/5x5_reduce
I0506 13:05:22.099171 18513 net.cpp:411] inception_4c/5x5 -> inception_4c/5x5
I0506 13:05:22.100512 18513 net.cpp:150] Setting up inception_4c/5x5
I0506 13:05:22.100551 18513 net.cpp:157] Top shape: 140 64 14 14 (1756160)
I0506 13:05:22.100579 18513 net.cpp:165] Memory required for data: 5974456320
I0506 13:05:22.100608 18513 layer_factory.hpp:77] Creating layer inception_4c/relu_5x5
I0506 13:05:22.100637 18513 net.cpp:106] Creating Layer inception_4c/relu_5x5
I0506 13:05:22.100663 18513 net.cpp:454] inception_4c/relu_5x5 <- inception_4c/5x5
I0506 13:05:22.100690 18513 net.cpp:397] inception_4c/relu_5x5 -> inception_4c/5x5 (in-place)
I0506 13:05:22.101009 18513 net.cpp:150] Setting up inception_4c/relu_5x5
I0506 13:05:22.101045 18513 net.cpp:157] Top shape: 140 64 14 14 (1756160)
I0506 13:05:22.101069 18513 net.cpp:165] Memory required for data: 5981480960
I0506 13:05:22.101094 18513 layer_factory.hpp:77] Creating layer inception_4c/pool
I0506 13:05:22.101140 18513 net.cpp:106] Creating Layer inception_4c/pool
I0506 13:05:22.101167 18513 net.cpp:454] inception_4c/pool <- inception_4b/output_inception_4b/output_0_split_3
I0506 13:05:22.101194 18513 net.cpp:411] inception_4c/pool -> inception_4c/pool
I0506 13:05:22.101443 18513 net.cpp:150] Setting up inception_4c/pool
I0506 13:05:22.101477 18513 net.cpp:157] Top shape: 140 512 14 14 (14049280)
I0506 13:05:22.101503 18513 net.cpp:165] Memory required for data: 6037678080
I0506 13:05:22.101529 18513 layer_factory.hpp:77] Creating layer inception_4c/pool_proj
I0506 13:05:22.101559 18513 net.cpp:106] Creating Layer inception_4c/pool_proj
I0506 13:05:22.101586 18513 net.cpp:454] inception_4c/pool_proj <- inception_4c/pool
I0506 13:05:22.101619 18513 net.cpp:411] inception_4c/pool_proj -> inception_4c/pool_proj
I0506 13:05:22.103302 18513 net.cpp:150] Setting up inception_4c/pool_proj
I0506 13:05:22.103338 18513 net.cpp:157] Top shape: 140 64 14 14 (1756160)
I0506 13:05:22.103364 18513 net.cpp:165] Memory required for data: 6044702720
I0506 13:05:22.103405 18513 layer_factory.hpp:77] Creating layer inception_4c/relu_pool_proj
I0506 13:05:22.103440 18513 net.cpp:106] Creating Layer inception_4c/relu_pool_proj
I0506 13:05:22.103466 18513 net.cpp:454] inception_4c/relu_pool_proj <- inception_4c/pool_proj
I0506 13:05:22.103492 18513 net.cpp:397] inception_4c/relu_pool_proj -> inception_4c/pool_proj (in-place)
I0506 13:05:22.103807 18513 net.cpp:150] Setting up inception_4c/relu_pool_proj
I0506 13:05:22.103849 18513 net.cpp:157] Top shape: 140 64 14 14 (1756160)
I0506 13:05:22.103875 18513 net.cpp:165] Memory required for data: 6051727360
I0506 13:05:22.103901 18513 layer_factory.hpp:77] Creating layer inception_4c/output
I0506 13:05:22.103931 18513 net.cpp:106] Creating Layer inception_4c/output
I0506 13:05:22.103958 18513 net.cpp:454] inception_4c/output <- inception_4c/1x1
I0506 13:05:22.103986 18513 net.cpp:454] inception_4c/output <- inception_4c/3x3
I0506 13:05:22.104012 18513 net.cpp:454] inception_4c/output <- inception_4c/5x5
I0506 13:05:22.104039 18513 net.cpp:454] inception_4c/output <- inception_4c/pool_proj
I0506 13:05:22.104068 18513 net.cpp:411] inception_4c/output -> inception_4c/output
I0506 13:05:22.104125 18513 net.cpp:150] Setting up inception_4c/output
I0506 13:05:22.104156 18513 net.cpp:157] Top shape: 140 512 14 14 (14049280)
I0506 13:05:22.104183 18513 net.cpp:165] Memory required for data: 6107924480
I0506 13:05:22.104208 18513 layer_factory.hpp:77] Creating layer inception_4c/output_inception_4c/output_0_split
I0506 13:05:22.104235 18513 net.cpp:106] Creating Layer inception_4c/output_inception_4c/output_0_split
I0506 13:05:22.104261 18513 net.cpp:454] inception_4c/output_inception_4c/output_0_split <- inception_4c/output
I0506 13:05:22.104291 18513 net.cpp:411] inception_4c/output_inception_4c/output_0_split -> inception_4c/output_inception_4c/output_0_split_0
I0506 13:05:22.104321 18513 net.cpp:411] inception_4c/output_inception_4c/output_0_split -> inception_4c/output_inception_4c/output_0_split_1
I0506 13:05:22.104351 18513 net.cpp:411] inception_4c/output_inception_4c/output_0_split -> inception_4c/output_inception_4c/output_0_split_2
I0506 13:05:22.104379 18513 net.cpp:411] inception_4c/output_inception_4c/output_0_split -> inception_4c/output_inception_4c/output_0_split_3
I0506 13:05:22.104481 18513 net.cpp:150] Setting up inception_4c/output_inception_4c/output_0_split
I0506 13:05:22.104514 18513 net.cpp:157] Top shape: 140 512 14 14 (14049280)
I0506 13:05:22.104542 18513 net.cpp:157] Top shape: 140 512 14 14 (14049280)
I0506 13:05:22.104568 18513 net.cpp:157] Top shape: 140 512 14 14 (14049280)
I0506 13:05:22.104594 18513 net.cpp:157] Top shape: 140 512 14 14 (14049280)
I0506 13:05:22.104619 18513 net.cpp:165] Memory required for data: 6332712960
I0506 13:05:22.104645 18513 layer_factory.hpp:77] Creating layer inception_4d/1x1
I0506 13:05:22.104676 18513 net.cpp:106] Creating Layer inception_4d/1x1
I0506 13:05:22.104710 18513 net.cpp:454] inception_4d/1x1 <- inception_4c/output_inception_4c/output_0_split_0
I0506 13:05:22.104756 18513 net.cpp:411] inception_4d/1x1 -> inception_4d/1x1
I0506 13:05:22.106086 18513 net.cpp:150] Setting up inception_4d/1x1
I0506 13:05:22.106120 18513 net.cpp:157] Top shape: 140 112 14 14 (3073280)
I0506 13:05:22.106148 18513 net.cpp:165] Memory required for data: 6345006080
I0506 13:05:22.106176 18513 layer_factory.hpp:77] Creating layer inception_4d/relu_1x1
I0506 13:05:22.106206 18513 net.cpp:106] Creating Layer inception_4d/relu_1x1
I0506 13:05:22.106235 18513 net.cpp:454] inception_4d/relu_1x1 <- inception_4d/1x1
I0506 13:05:22.106261 18513 net.cpp:397] inception_4d/relu_1x1 -> inception_4d/1x1 (in-place)
I0506 13:05:22.106591 18513 net.cpp:150] Setting up inception_4d/relu_1x1
I0506 13:05:22.106631 18513 net.cpp:157] Top shape: 140 112 14 14 (3073280)
I0506 13:05:22.106657 18513 net.cpp:165] Memory required for data: 6357299200
I0506 13:05:22.106683 18513 layer_factory.hpp:77] Creating layer inception_4d/3x3_reduce
I0506 13:05:22.106714 18513 net.cpp:106] Creating Layer inception_4d/3x3_reduce
I0506 13:05:22.106741 18513 net.cpp:454] inception_4d/3x3_reduce <- inception_4c/output_inception_4c/output_0_split_1
I0506 13:05:22.106772 18513 net.cpp:411] inception_4d/3x3_reduce -> inception_4d/3x3_reduce
I0506 13:05:22.108449 18513 net.cpp:150] Setting up inception_4d/3x3_reduce
I0506 13:05:22.108485 18513 net.cpp:157] Top shape: 140 144 14 14 (3951360)
I0506 13:05:22.108512 18513 net.cpp:165] Memory required for data: 6373104640
I0506 13:05:22.108541 18513 layer_factory.hpp:77] Creating layer inception_4d/relu_3x3_reduce
I0506 13:05:22.108572 18513 net.cpp:106] Creating Layer inception_4d/relu_3x3_reduce
I0506 13:05:22.108599 18513 net.cpp:454] inception_4d/relu_3x3_reduce <- inception_4d/3x3_reduce
I0506 13:05:22.108625 18513 net.cpp:397] inception_4d/relu_3x3_reduce -> inception_4d/3x3_reduce (in-place)
I0506 13:05:22.108832 18513 net.cpp:150] Setting up inception_4d/relu_3x3_reduce
I0506 13:05:22.108867 18513 net.cpp:157] Top shape: 140 144 14 14 (3951360)
I0506 13:05:22.108894 18513 net.cpp:165] Memory required for data: 6388910080
I0506 13:05:22.108918 18513 layer_factory.hpp:77] Creating layer inception_4d/3x3
I0506 13:05:22.108950 18513 net.cpp:106] Creating Layer inception_4d/3x3
I0506 13:05:22.108975 18513 net.cpp:454] inception_4d/3x3 <- inception_4d/3x3_reduce
I0506 13:05:22.109002 18513 net.cpp:411] inception_4d/3x3 -> inception_4d/3x3
I0506 13:05:22.112768 18513 net.cpp:150] Setting up inception_4d/3x3
I0506 13:05:22.112805 18513 net.cpp:157] Top shape: 140 288 14 14 (7902720)
I0506 13:05:22.112833 18513 net.cpp:165] Memory required for data: 6420520960
I0506 13:05:22.112861 18513 layer_factory.hpp:77] Creating layer inception_4d/relu_3x3
I0506 13:05:22.112892 18513 net.cpp:106] Creating Layer inception_4d/relu_3x3
I0506 13:05:22.112920 18513 net.cpp:454] inception_4d/relu_3x3 <- inception_4d/3x3
I0506 13:05:22.112951 18513 net.cpp:397] inception_4d/relu_3x3 -> inception_4d/3x3 (in-place)
I0506 13:05:22.113266 18513 net.cpp:150] Setting up inception_4d/relu_3x3
I0506 13:05:22.113303 18513 net.cpp:157] Top shape: 140 288 14 14 (7902720)
I0506 13:05:22.113330 18513 net.cpp:165] Memory required for data: 6452131840
I0506 13:05:22.113355 18513 layer_factory.hpp:77] Creating layer inception_4d/5x5_reduce
I0506 13:05:22.113387 18513 net.cpp:106] Creating Layer inception_4d/5x5_reduce
I0506 13:05:22.113415 18513 net.cpp:454] inception_4d/5x5_reduce <- inception_4c/output_inception_4c/output_0_split_2
I0506 13:05:22.113445 18513 net.cpp:411] inception_4d/5x5_reduce -> inception_4d/5x5_reduce
I0506 13:05:22.114578 18513 net.cpp:150] Setting up inception_4d/5x5_reduce
I0506 13:05:22.114615 18513 net.cpp:157] Top shape: 140 32 14 14 (878080)
I0506 13:05:22.114641 18513 net.cpp:165] Memory required for data: 6455644160
I0506 13:05:22.114670 18513 layer_factory.hpp:77] Creating layer inception_4d/relu_5x5_reduce
I0506 13:05:22.114697 18513 net.cpp:106] Creating Layer inception_4d/relu_5x5_reduce
I0506 13:05:22.114740 18513 net.cpp:454] inception_4d/relu_5x5_reduce <- inception_4d/5x5_reduce
I0506 13:05:22.114773 18513 net.cpp:397] inception_4d/relu_5x5_reduce -> inception_4d/5x5_reduce (in-place)
I0506 13:05:22.115092 18513 net.cpp:150] Setting up inception_4d/relu_5x5_reduce
I0506 13:05:22.115123 18513 net.cpp:157] Top shape: 140 32 14 14 (878080)
I0506 13:05:22.115149 18513 net.cpp:165] Memory required for data: 6459156480
I0506 13:05:22.115173 18513 layer_factory.hpp:77] Creating layer inception_4d/5x5
I0506 13:05:22.115202 18513 net.cpp:106] Creating Layer inception_4d/5x5
I0506 13:05:22.115229 18513 net.cpp:454] inception_4d/5x5 <- inception_4d/5x5_reduce
I0506 13:05:22.115260 18513 net.cpp:411] inception_4d/5x5 -> inception_4d/5x5
I0506 13:05:22.116695 18513 net.cpp:150] Setting up inception_4d/5x5
I0506 13:05:22.116731 18513 net.cpp:157] Top shape: 140 64 14 14 (1756160)
I0506 13:05:22.116757 18513 net.cpp:165] Memory required for data: 6466181120
I0506 13:05:22.116786 18513 layer_factory.hpp:77] Creating layer inception_4d/relu_5x5
I0506 13:05:22.116812 18513 net.cpp:106] Creating Layer inception_4d/relu_5x5
I0506 13:05:22.116838 18513 net.cpp:454] inception_4d/relu_5x5 <- inception_4d/5x5
I0506 13:05:22.116868 18513 net.cpp:397] inception_4d/relu_5x5 -> inception_4d/5x5 (in-place)
I0506 13:05:22.117075 18513 net.cpp:150] Setting up inception_4d/relu_5x5
I0506 13:05:22.117106 18513 net.cpp:157] Top shape: 140 64 14 14 (1756160)
I0506 13:05:22.117132 18513 net.cpp:165] Memory required for data: 6473205760
I0506 13:05:22.117156 18513 layer_factory.hpp:77] Creating layer inception_4d/pool
I0506 13:05:22.117183 18513 net.cpp:106] Creating Layer inception_4d/pool
I0506 13:05:22.117208 18513 net.cpp:454] inception_4d/pool <- inception_4c/output_inception_4c/output_0_split_3
I0506 13:05:22.117240 18513 net.cpp:411] inception_4d/pool -> inception_4d/pool
I0506 13:05:22.117614 18513 net.cpp:150] Setting up inception_4d/pool
I0506 13:05:22.117652 18513 net.cpp:157] Top shape: 140 512 14 14 (14049280)
I0506 13:05:22.117679 18513 net.cpp:165] Memory required for data: 6529402880
I0506 13:05:22.117704 18513 layer_factory.hpp:77] Creating layer inception_4d/pool_proj
I0506 13:05:22.117735 18513 net.cpp:106] Creating Layer inception_4d/pool_proj
I0506 13:05:22.117763 18513 net.cpp:454] inception_4d/pool_proj <- inception_4d/pool
I0506 13:05:22.117792 18513 net.cpp:411] inception_4d/pool_proj -> inception_4d/pool_proj
I0506 13:05:22.119139 18513 net.cpp:150] Setting up inception_4d/pool_proj
I0506 13:05:22.119175 18513 net.cpp:157] Top shape: 140 64 14 14 (1756160)
I0506 13:05:22.119202 18513 net.cpp:165] Memory required for data: 6536427520
I0506 13:05:22.119231 18513 layer_factory.hpp:77] Creating layer inception_4d/relu_pool_proj
I0506 13:05:22.119262 18513 net.cpp:106] Creating Layer inception_4d/relu_pool_proj
I0506 13:05:22.119290 18513 net.cpp:454] inception_4d/relu_pool_proj <- inception_4d/pool_proj
I0506 13:05:22.119318 18513 net.cpp:397] inception_4d/relu_pool_proj -> inception_4d/pool_proj (in-place)
I0506 13:05:22.119527 18513 net.cpp:150] Setting up inception_4d/relu_pool_proj
I0506 13:05:22.119562 18513 net.cpp:157] Top shape: 140 64 14 14 (1756160)
I0506 13:05:22.119587 18513 net.cpp:165] Memory required for data: 6543452160
I0506 13:05:22.119613 18513 layer_factory.hpp:77] Creating layer inception_4d/output
I0506 13:05:22.119639 18513 net.cpp:106] Creating Layer inception_4d/output
I0506 13:05:22.119665 18513 net.cpp:454] inception_4d/output <- inception_4d/1x1
I0506 13:05:22.119690 18513 net.cpp:454] inception_4d/output <- inception_4d/3x3
I0506 13:05:22.119721 18513 net.cpp:454] inception_4d/output <- inception_4d/5x5
I0506 13:05:22.119746 18513 net.cpp:454] inception_4d/output <- inception_4d/pool_proj
I0506 13:05:22.119776 18513 net.cpp:411] inception_4d/output -> inception_4d/output
I0506 13:05:22.119833 18513 net.cpp:150] Setting up inception_4d/output
I0506 13:05:22.119873 18513 net.cpp:157] Top shape: 140 528 14 14 (14488320)
I0506 13:05:22.119897 18513 net.cpp:165] Memory required for data: 6601405440
I0506 13:05:22.119940 18513 layer_factory.hpp:77] Creating layer inception_4d/output_inception_4d/output_0_split
I0506 13:05:22.119968 18513 net.cpp:106] Creating Layer inception_4d/output_inception_4d/output_0_split
I0506 13:05:22.119993 18513 net.cpp:454] inception_4d/output_inception_4d/output_0_split <- inception_4d/output
I0506 13:05:22.120020 18513 net.cpp:411] inception_4d/output_inception_4d/output_0_split -> inception_4d/output_inception_4d/output_0_split_0
I0506 13:05:22.120050 18513 net.cpp:411] inception_4d/output_inception_4d/output_0_split -> inception_4d/output_inception_4d/output_0_split_1
I0506 13:05:22.120084 18513 net.cpp:411] inception_4d/output_inception_4d/output_0_split -> inception_4d/output_inception_4d/output_0_split_2
I0506 13:05:22.120112 18513 net.cpp:411] inception_4d/output_inception_4d/output_0_split -> inception_4d/output_inception_4d/output_0_split_3
I0506 13:05:22.120223 18513 net.cpp:150] Setting up inception_4d/output_inception_4d/output_0_split
I0506 13:05:22.120255 18513 net.cpp:157] Top shape: 140 528 14 14 (14488320)
I0506 13:05:22.120281 18513 net.cpp:157] Top shape: 140 528 14 14 (14488320)
I0506 13:05:22.120308 18513 net.cpp:157] Top shape: 140 528 14 14 (14488320)
I0506 13:05:22.120334 18513 net.cpp:157] Top shape: 140 528 14 14 (14488320)
I0506 13:05:22.120359 18513 net.cpp:165] Memory required for data: 6833218560
I0506 13:05:22.120383 18513 layer_factory.hpp:77] Creating layer inception_4e/1x1
I0506 13:05:22.120414 18513 net.cpp:106] Creating Layer inception_4e/1x1
I0506 13:05:22.120441 18513 net.cpp:454] inception_4e/1x1 <- inception_4d/output_inception_4d/output_0_split_0
I0506 13:05:22.120471 18513 net.cpp:411] inception_4e/1x1 -> inception_4e/1x1
I0506 13:05:22.122768 18513 net.cpp:150] Setting up inception_4e/1x1
I0506 13:05:22.122807 18513 net.cpp:157] Top shape: 140 256 14 14 (7024640)
I0506 13:05:22.122833 18513 net.cpp:165] Memory required for data: 6861317120
I0506 13:05:22.122862 18513 layer_factory.hpp:77] Creating layer inception_4e/relu_1x1
I0506 13:05:22.122890 18513 net.cpp:106] Creating Layer inception_4e/relu_1x1
I0506 13:05:22.122915 18513 net.cpp:454] inception_4e/relu_1x1 <- inception_4e/1x1
I0506 13:05:22.122946 18513 net.cpp:397] inception_4e/relu_1x1 -> inception_4e/1x1 (in-place)
I0506 13:05:22.123155 18513 net.cpp:150] Setting up inception_4e/relu_1x1
I0506 13:05:22.123193 18513 net.cpp:157] Top shape: 140 256 14 14 (7024640)
I0506 13:05:22.123220 18513 net.cpp:165] Memory required for data: 6889415680
I0506 13:05:22.123245 18513 layer_factory.hpp:77] Creating layer inception_4e/3x3_reduce
I0506 13:05:22.123273 18513 net.cpp:106] Creating Layer inception_4e/3x3_reduce
I0506 13:05:22.123301 18513 net.cpp:454] inception_4e/3x3_reduce <- inception_4d/output_inception_4d/output_0_split_1
I0506 13:05:22.123332 18513 net.cpp:411] inception_4e/3x3_reduce -> inception_4e/3x3_reduce
I0506 13:05:22.124968 18513 net.cpp:150] Setting up inception_4e/3x3_reduce
I0506 13:05:22.125001 18513 net.cpp:157] Top shape: 140 160 14 14 (4390400)
I0506 13:05:22.125028 18513 net.cpp:165] Memory required for data: 6906977280
I0506 13:05:22.125056 18513 layer_factory.hpp:77] Creating layer inception_4e/relu_3x3_reduce
I0506 13:05:22.125087 18513 net.cpp:106] Creating Layer inception_4e/relu_3x3_reduce
I0506 13:05:22.125115 18513 net.cpp:454] inception_4e/relu_3x3_reduce <- inception_4e/3x3_reduce
I0506 13:05:22.125141 18513 net.cpp:397] inception_4e/relu_3x3_reduce -> inception_4e/3x3_reduce (in-place)
I0506 13:05:22.125460 18513 net.cpp:150] Setting up inception_4e/relu_3x3_reduce
I0506 13:05:22.125504 18513 net.cpp:157] Top shape: 140 160 14 14 (4390400)
I0506 13:05:22.125531 18513 net.cpp:165] Memory required for data: 6924538880
I0506 13:05:22.125556 18513 layer_factory.hpp:77] Creating layer inception_4e/3x3
I0506 13:05:22.125586 18513 net.cpp:106] Creating Layer inception_4e/3x3
I0506 13:05:22.125615 18513 net.cpp:454] inception_4e/3x3 <- inception_4e/3x3_reduce
I0506 13:05:22.125643 18513 net.cpp:411] inception_4e/3x3 -> inception_4e/3x3
I0506 13:05:22.130022 18513 net.cpp:150] Setting up inception_4e/3x3
I0506 13:05:22.130076 18513 net.cpp:157] Top shape: 140 320 14 14 (8780800)
I0506 13:05:22.130103 18513 net.cpp:165] Memory required for data: 6959662080
I0506 13:05:22.130132 18513 layer_factory.hpp:77] Creating layer inception_4e/relu_3x3
I0506 13:05:22.130164 18513 net.cpp:106] Creating Layer inception_4e/relu_3x3
I0506 13:05:22.130192 18513 net.cpp:454] inception_4e/relu_3x3 <- inception_4e/3x3
I0506 13:05:22.130219 18513 net.cpp:397] inception_4e/relu_3x3 -> inception_4e/3x3 (in-place)
I0506 13:05:22.130422 18513 net.cpp:150] Setting up inception_4e/relu_3x3
I0506 13:05:22.130457 18513 net.cpp:157] Top shape: 140 320 14 14 (8780800)
I0506 13:05:22.130483 18513 net.cpp:165] Memory required for data: 6994785280
I0506 13:05:22.130542 18513 layer_factory.hpp:77] Creating layer inception_4e/5x5_reduce
I0506 13:05:22.130635 18513 net.cpp:106] Creating Layer inception_4e/5x5_reduce
I0506 13:05:22.130749 18513 net.cpp:454] inception_4e/5x5_reduce <- inception_4d/output_inception_4d/output_0_split_2
I0506 13:05:22.130833 18513 net.cpp:411] inception_4e/5x5_reduce -> inception_4e/5x5_reduce
I0506 13:05:22.134600 18513 net.cpp:150] Setting up inception_4e/5x5_reduce
I0506 13:05:22.134683 18513 net.cpp:157] Top shape: 140 32 14 14 (878080)
I0506 13:05:22.134799 18513 net.cpp:165] Memory required for data: 6998297600
I0506 13:05:22.134871 18513 layer_factory.hpp:77] Creating layer inception_4e/relu_5x5_reduce
I0506 13:05:22.134943 18513 net.cpp:106] Creating Layer inception_4e/relu_5x5_reduce
I0506 13:05:22.135012 18513 net.cpp:454] inception_4e/relu_5x5_reduce <- inception_4e/5x5_reduce
I0506 13:05:22.135083 18513 net.cpp:397] inception_4e/relu_5x5_reduce -> inception_4e/5x5_reduce (in-place)
I0506 13:05:22.135287 18513 net.cpp:150] Setting up inception_4e/relu_5x5_reduce
I0506 13:05:22.135365 18513 net.cpp:157] Top shape: 140 32 14 14 (878080)
I0506 13:05:22.135434 18513 net.cpp:165] Memory required for data: 7001809920
I0506 13:05:22.135504 18513 layer_factory.hpp:77] Creating layer inception_4e/5x5
I0506 13:05:22.135578 18513 net.cpp:106] Creating Layer inception_4e/5x5
I0506 13:05:22.135648 18513 net.cpp:454] inception_4e/5x5 <- inception_4e/5x5_reduce
I0506 13:05:22.135723 18513 net.cpp:411] inception_4e/5x5 -> inception_4e/5x5
I0506 13:05:22.137312 18513 net.cpp:150] Setting up inception_4e/5x5
I0506 13:05:22.137403 18513 net.cpp:157] Top shape: 140 128 14 14 (3512320)
I0506 13:05:22.137477 18513 net.cpp:165] Memory required for data: 7015859200
I0506 13:05:22.137554 18513 layer_factory.hpp:77] Creating layer inception_4e/relu_5x5
I0506 13:05:22.137678 18513 net.cpp:106] Creating Layer inception_4e/relu_5x5
I0506 13:05:22.137754 18513 net.cpp:454] inception_4e/relu_5x5 <- inception_4e/5x5
I0506 13:05:22.137825 18513 net.cpp:397] inception_4e/relu_5x5 -> inception_4e/5x5 (in-place)
I0506 13:05:22.138276 18513 net.cpp:150] Setting up inception_4e/relu_5x5
I0506 13:05:22.138365 18513 net.cpp:157] Top shape: 140 128 14 14 (3512320)
I0506 13:05:22.138443 18513 net.cpp:165] Memory required for data: 7029908480
I0506 13:05:22.138520 18513 layer_factory.hpp:77] Creating layer inception_4e/pool
I0506 13:05:22.138597 18513 net.cpp:106] Creating Layer inception_4e/pool
I0506 13:05:22.138708 18513 net.cpp:454] inception_4e/pool <- inception_4d/output_inception_4d/output_0_split_3
I0506 13:05:22.138793 18513 net.cpp:411] inception_4e/pool -> inception_4e/pool
I0506 13:05:22.139883 18513 net.cpp:150] Setting up inception_4e/pool
I0506 13:05:22.139961 18513 net.cpp:157] Top shape: 140 528 14 14 (14488320)
I0506 13:05:22.140028 18513 net.cpp:165] Memory required for data: 7087861760
I0506 13:05:22.140097 18513 layer_factory.hpp:77] Creating layer inception_4e/pool_proj
I0506 13:05:22.140172 18513 net.cpp:106] Creating Layer inception_4e/pool_proj
I0506 13:05:22.140282 18513 net.cpp:454] inception_4e/pool_proj <- inception_4e/pool
I0506 13:05:22.140368 18513 net.cpp:411] inception_4e/pool_proj -> inception_4e/pool_proj
I0506 13:05:22.145999 18513 net.cpp:150] Setting up inception_4e/pool_proj
I0506 13:05:22.146137 18513 net.cpp:157] Top shape: 140 128 14 14 (3512320)
I0506 13:05:22.146251 18513 net.cpp:165] Memory required for data: 7101911040
I0506 13:05:22.146337 18513 layer_factory.hpp:77] Creating layer inception_4e/relu_pool_proj
I0506 13:05:22.146456 18513 net.cpp:106] Creating Layer inception_4e/relu_pool_proj
I0506 13:05:22.146536 18513 net.cpp:454] inception_4e/relu_pool_proj <- inception_4e/pool_proj
I0506 13:05:22.146608 18513 net.cpp:397] inception_4e/relu_pool_proj -> inception_4e/pool_proj (in-place)
I0506 13:05:22.147536 18513 net.cpp:150] Setting up inception_4e/relu_pool_proj
I0506 13:05:22.147619 18513 net.cpp:157] Top shape: 140 128 14 14 (3512320)
I0506 13:05:22.147696 18513 net.cpp:165] Memory required for data: 7115960320
I0506 13:05:22.147766 18513 layer_factory.hpp:77] Creating layer inception_4e/output
I0506 13:05:22.147840 18513 net.cpp:106] Creating Layer inception_4e/output
I0506 13:05:22.147909 18513 net.cpp:454] inception_4e/output <- inception_4e/1x1
I0506 13:05:22.147980 18513 net.cpp:454] inception_4e/output <- inception_4e/3x3
I0506 13:05:22.148049 18513 net.cpp:454] inception_4e/output <- inception_4e/5x5
I0506 13:05:22.148119 18513 net.cpp:454] inception_4e/output <- inception_4e/pool_proj
I0506 13:05:22.148190 18513 net.cpp:411] inception_4e/output -> inception_4e/output
I0506 13:05:22.148289 18513 net.cpp:150] Setting up inception_4e/output
I0506 13:05:22.148362 18513 net.cpp:157] Top shape: 140 832 14 14 (22830080)
I0506 13:05:22.148430 18513 net.cpp:165] Memory required for data: 7207280640
I0506 13:05:22.148500 18513 layer_factory.hpp:77] Creating layer pool4/3x3_s2
I0506 13:05:22.148571 18513 net.cpp:106] Creating Layer pool4/3x3_s2
I0506 13:05:22.148640 18513 net.cpp:454] pool4/3x3_s2 <- inception_4e/output
I0506 13:05:22.148712 18513 net.cpp:411] pool4/3x3_s2 -> pool4/3x3_s2
I0506 13:05:22.148947 18513 net.cpp:150] Setting up pool4/3x3_s2
I0506 13:05:22.149027 18513 net.cpp:157] Top shape: 140 832 7 7 (5707520)
I0506 13:05:22.149098 18513 net.cpp:165] Memory required for data: 7230110720
I0506 13:05:22.149169 18513 layer_factory.hpp:77] Creating layer pool4/3x3_s2_pool4/3x3_s2_0_split
I0506 13:05:22.149245 18513 net.cpp:106] Creating Layer pool4/3x3_s2_pool4/3x3_s2_0_split
I0506 13:05:22.149313 18513 net.cpp:454] pool4/3x3_s2_pool4/3x3_s2_0_split <- pool4/3x3_s2
I0506 13:05:22.149385 18513 net.cpp:411] pool4/3x3_s2_pool4/3x3_s2_0_split -> pool4/3x3_s2_pool4/3x3_s2_0_split_0
I0506 13:05:22.149457 18513 net.cpp:411] pool4/3x3_s2_pool4/3x3_s2_0_split -> pool4/3x3_s2_pool4/3x3_s2_0_split_1
I0506 13:05:22.149530 18513 net.cpp:411] pool4/3x3_s2_pool4/3x3_s2_0_split -> pool4/3x3_s2_pool4/3x3_s2_0_split_2
I0506 13:05:22.149607 18513 net.cpp:411] pool4/3x3_s2_pool4/3x3_s2_0_split -> pool4/3x3_s2_pool4/3x3_s2_0_split_3
I0506 13:05:22.149739 18513 net.cpp:150] Setting up pool4/3x3_s2_pool4/3x3_s2_0_split
I0506 13:05:22.149812 18513 net.cpp:157] Top shape: 140 832 7 7 (5707520)
I0506 13:05:22.149883 18513 net.cpp:157] Top shape: 140 832 7 7 (5707520)
I0506 13:05:22.149951 18513 net.cpp:157] Top shape: 140 832 7 7 (5707520)
I0506 13:05:22.150020 18513 net.cpp:157] Top shape: 140 832 7 7 (5707520)
I0506 13:05:22.150087 18513 net.cpp:165] Memory required for data: 7321431040
I0506 13:05:22.150156 18513 layer_factory.hpp:77] Creating layer inception_5a/1x1
I0506 13:05:22.150229 18513 net.cpp:106] Creating Layer inception_5a/1x1
I0506 13:05:22.150297 18513 net.cpp:454] inception_5a/1x1 <- pool4/3x3_s2_pool4/3x3_s2_0_split_0
I0506 13:05:22.150372 18513 net.cpp:411] inception_5a/1x1 -> inception_5a/1x1
I0506 13:05:22.152530 18513 net.cpp:150] Setting up inception_5a/1x1
I0506 13:05:22.152621 18513 net.cpp:157] Top shape: 140 256 7 7 (1756160)
I0506 13:05:22.152693 18513 net.cpp:165] Memory required for data: 7328455680
I0506 13:05:22.152770 18513 layer_factory.hpp:77] Creating layer inception_5a/relu_1x1
I0506 13:05:22.152887 18513 net.cpp:106] Creating Layer inception_5a/relu_1x1
I0506 13:05:22.152966 18513 net.cpp:454] inception_5a/relu_1x1 <- inception_5a/1x1
I0506 13:05:22.153018 18513 net.cpp:397] inception_5a/relu_1x1 -> inception_5a/1x1 (in-place)
I0506 13:05:22.154103 18513 net.cpp:150] Setting up inception_5a/relu_1x1
I0506 13:05:22.154225 18513 net.cpp:157] Top shape: 140 256 7 7 (1756160)
I0506 13:05:22.154301 18513 net.cpp:165] Memory required for data: 7335480320
I0506 13:05:22.154371 18513 layer_factory.hpp:77] Creating layer inception_5a/3x3_reduce
I0506 13:05:22.154445 18513 net.cpp:106] Creating Layer inception_5a/3x3_reduce
I0506 13:05:22.154568 18513 net.cpp:454] inception_5a/3x3_reduce <- pool4/3x3_s2_pool4/3x3_s2_0_split_1
I0506 13:05:22.154695 18513 net.cpp:411] inception_5a/3x3_reduce -> inception_5a/3x3_reduce
I0506 13:05:22.156741 18513 net.cpp:150] Setting up inception_5a/3x3_reduce
I0506 13:05:22.156839 18513 net.cpp:157] Top shape: 140 160 7 7 (1097600)
I0506 13:05:22.156922 18513 net.cpp:165] Memory required for data: 7339870720
I0506 13:05:22.156999 18513 layer_factory.hpp:77] Creating layer inception_5a/relu_3x3_reduce
I0506 13:05:22.157119 18513 net.cpp:106] Creating Layer inception_5a/relu_3x3_reduce
I0506 13:05:22.157198 18513 net.cpp:454] inception_5a/relu_3x3_reduce <- inception_5a/3x3_reduce
I0506 13:05:22.157274 18513 net.cpp:397] inception_5a/relu_3x3_reduce -> inception_5a/3x3_reduce (in-place)
I0506 13:05:22.158429 18513 net.cpp:150] Setting up inception_5a/relu_3x3_reduce
I0506 13:05:22.158519 18513 net.cpp:157] Top shape: 140 160 7 7 (1097600)
I0506 13:05:22.158630 18513 net.cpp:165] Memory required for data: 7344261120
I0506 13:05:22.158711 18513 layer_factory.hpp:77] Creating layer inception_5a/3x3
I0506 13:05:22.158787 18513 net.cpp:106] Creating Layer inception_5a/3x3
I0506 13:05:22.158900 18513 net.cpp:454] inception_5a/3x3 <- inception_5a/3x3_reduce
I0506 13:05:22.158985 18513 net.cpp:411] inception_5a/3x3 -> inception_5a/3x3
I0506 13:05:22.163558 18513 net.cpp:150] Setting up inception_5a/3x3
I0506 13:05:22.163661 18513 net.cpp:157] Top shape: 140 320 7 7 (2195200)
I0506 13:05:22.163743 18513 net.cpp:165] Memory required for data: 7353041920
I0506 13:05:22.163820 18513 layer_factory.hpp:77] Creating layer inception_5a/relu_3x3
I0506 13:05:22.163944 18513 net.cpp:106] Creating Layer inception_5a/relu_3x3
I0506 13:05:22.164021 18513 net.cpp:454] inception_5a/relu_3x3 <- inception_5a/3x3
I0506 13:05:22.164093 18513 net.cpp:397] inception_5a/relu_3x3 -> inception_5a/3x3 (in-place)
I0506 13:05:22.164942 18513 net.cpp:150] Setting up inception_5a/relu_3x3
I0506 13:05:22.165019 18513 net.cpp:157] Top shape: 140 320 7 7 (2195200)
I0506 13:05:22.165087 18513 net.cpp:165] Memory required for data: 7361822720
I0506 13:05:22.165158 18513 layer_factory.hpp:77] Creating layer inception_5a/5x5_reduce
I0506 13:05:22.165274 18513 net.cpp:106] Creating Layer inception_5a/5x5_reduce
I0506 13:05:22.165344 18513 net.cpp:454] inception_5a/5x5_reduce <- pool4/3x3_s2_pool4/3x3_s2_0_split_2
I0506 13:05:22.165428 18513 net.cpp:411] inception_5a/5x5_reduce -> inception_5a/5x5_reduce
I0506 13:05:22.170547 18513 net.cpp:150] Setting up inception_5a/5x5_reduce
I0506 13:05:22.170624 18513 net.cpp:157] Top shape: 140 32 7 7 (219520)
I0506 13:05:22.170698 18513 net.cpp:165] Memory required for data: 7362700800
I0506 13:05:22.170771 18513 layer_factory.hpp:77] Creating layer inception_5a/relu_5x5_reduce
I0506 13:05:22.170891 18513 net.cpp:106] Creating Layer inception_5a/relu_5x5_reduce
I0506 13:05:22.170966 18513 net.cpp:454] inception_5a/relu_5x5_reduce <- inception_5a/5x5_reduce
I0506 13:05:22.171037 18513 net.cpp:397] inception_5a/relu_5x5_reduce -> inception_5a/5x5_reduce (in-place)
I0506 13:05:22.171437 18513 net.cpp:150] Setting up inception_5a/relu_5x5_reduce
I0506 13:05:22.171525 18513 net.cpp:157] Top shape: 140 32 7 7 (219520)
I0506 13:05:22.171604 18513 net.cpp:165] Memory required for data: 7363578880
I0506 13:05:22.171675 18513 layer_factory.hpp:77] Creating layer inception_5a/5x5
I0506 13:05:22.171793 18513 net.cpp:106] Creating Layer inception_5a/5x5
I0506 13:05:22.171862 18513 net.cpp:454] inception_5a/5x5 <- inception_5a/5x5_reduce
I0506 13:05:22.171936 18513 net.cpp:411] inception_5a/5x5 -> inception_5a/5x5
I0506 13:05:22.173313 18513 net.cpp:150] Setting up inception_5a/5x5
I0506 13:05:22.173403 18513 net.cpp:157] Top shape: 140 128 7 7 (878080)
I0506 13:05:22.173476 18513 net.cpp:165] Memory required for data: 7367091200
I0506 13:05:22.173553 18513 layer_factory.hpp:77] Creating layer inception_5a/relu_5x5
I0506 13:05:22.173671 18513 net.cpp:106] Creating Layer inception_5a/relu_5x5
I0506 13:05:22.173753 18513 net.cpp:454] inception_5a/relu_5x5 <- inception_5a/5x5
I0506 13:05:22.173804 18513 net.cpp:397] inception_5a/relu_5x5 -> inception_5a/5x5 (in-place)
I0506 13:05:22.174927 18513 net.cpp:150] Setting up inception_5a/relu_5x5
I0506 13:05:22.175015 18513 net.cpp:157] Top shape: 140 128 7 7 (878080)
I0506 13:05:22.175128 18513 net.cpp:165] Memory required for data: 7370603520
I0506 13:05:22.175209 18513 layer_factory.hpp:77] Creating layer inception_5a/pool
I0506 13:05:22.175343 18513 net.cpp:106] Creating Layer inception_5a/pool
I0506 13:05:22.175415 18513 net.cpp:454] inception_5a/pool <- pool4/3x3_s2_pool4/3x3_s2_0_split_3
I0506 13:05:22.175487 18513 net.cpp:411] inception_5a/pool -> inception_5a/pool
I0506 13:05:22.176154 18513 net.cpp:150] Setting up inception_5a/pool
I0506 13:05:22.176239 18513 net.cpp:157] Top shape: 140 832 7 7 (5707520)
I0506 13:05:22.176316 18513 net.cpp:165] Memory required for data: 7393433600
I0506 13:05:22.176388 18513 layer_factory.hpp:77] Creating layer inception_5a/pool_proj
I0506 13:05:22.176465 18513 net.cpp:106] Creating Layer inception_5a/pool_proj
I0506 13:05:22.176534 18513 net.cpp:454] inception_5a/pool_proj <- inception_5a/pool
I0506 13:05:22.176607 18513 net.cpp:411] inception_5a/pool_proj -> inception_5a/pool_proj
I0506 13:05:22.178277 18513 net.cpp:150] Setting up inception_5a/pool_proj
I0506 13:05:22.178367 18513 net.cpp:157] Top shape: 140 128 7 7 (878080)
I0506 13:05:22.178442 18513 net.cpp:165] Memory required for data: 7396945920
I0506 13:05:22.178527 18513 layer_factory.hpp:77] Creating layer inception_5a/relu_pool_proj
I0506 13:05:22.178606 18513 net.cpp:106] Creating Layer inception_5a/relu_pool_proj
I0506 13:05:22.178681 18513 net.cpp:454] inception_5a/relu_pool_proj <- inception_5a/pool_proj
I0506 13:05:22.178753 18513 net.cpp:397] inception_5a/relu_pool_proj -> inception_5a/pool_proj (in-place)
I0506 13:05:22.179127 18513 net.cpp:150] Setting up inception_5a/relu_pool_proj
I0506 13:05:22.179208 18513 net.cpp:157] Top shape: 140 128 7 7 (878080)
I0506 13:05:22.179291 18513 net.cpp:165] Memory required for data: 7400458240
I0506 13:05:22.179361 18513 layer_factory.hpp:77] Creating layer inception_5a/output
I0506 13:05:22.179436 18513 net.cpp:106] Creating Layer inception_5a/output
I0506 13:05:22.179505 18513 net.cpp:454] inception_5a/output <- inception_5a/1x1
I0506 13:05:22.179582 18513 net.cpp:454] inception_5a/output <- inception_5a/3x3
I0506 13:05:22.179651 18513 net.cpp:454] inception_5a/output <- inception_5a/5x5
I0506 13:05:22.179729 18513 net.cpp:454] inception_5a/output <- inception_5a/pool_proj
I0506 13:05:22.179800 18513 net.cpp:411] inception_5a/output -> inception_5a/output
I0506 13:05:22.179911 18513 net.cpp:150] Setting up inception_5a/output
I0506 13:05:22.179960 18513 net.cpp:157] Top shape: 140 832 7 7 (5707520)
I0506 13:05:22.180035 18513 net.cpp:165] Memory required for data: 7423288320
I0506 13:05:22.180105 18513 layer_factory.hpp:77] Creating layer inception_5a/output_inception_5a/output_0_split
I0506 13:05:22.180178 18513 net.cpp:106] Creating Layer inception_5a/output_inception_5a/output_0_split
I0506 13:05:22.180245 18513 net.cpp:454] inception_5a/output_inception_5a/output_0_split <- inception_5a/output
I0506 13:05:22.180328 18513 net.cpp:411] inception_5a/output_inception_5a/output_0_split -> inception_5a/output_inception_5a/output_0_split_0
I0506 13:05:22.180399 18513 net.cpp:411] inception_5a/output_inception_5a/output_0_split -> inception_5a/output_inception_5a/output_0_split_1
I0506 13:05:22.180476 18513 net.cpp:411] inception_5a/output_inception_5a/output_0_split -> inception_5a/output_inception_5a/output_0_split_2
I0506 13:05:22.180608 18513 net.cpp:411] inception_5a/output_inception_5a/output_0_split -> inception_5a/output_inception_5a/output_0_split_3
I0506 13:05:22.180763 18513 net.cpp:150] Setting up inception_5a/output_inception_5a/output_0_split
I0506 13:05:22.180831 18513 net.cpp:157] Top shape: 140 832 7 7 (5707520)
I0506 13:05:22.180909 18513 net.cpp:157] Top shape: 140 832 7 7 (5707520)
I0506 13:05:22.180980 18513 net.cpp:157] Top shape: 140 832 7 7 (5707520)
I0506 13:05:22.181059 18513 net.cpp:157] Top shape: 140 832 7 7 (5707520)
I0506 13:05:22.181128 18513 net.cpp:165] Memory required for data: 7514608640
I0506 13:05:22.181197 18513 layer_factory.hpp:77] Creating layer inception_5b/1x1
I0506 13:05:22.181274 18513 net.cpp:106] Creating Layer inception_5b/1x1
I0506 13:05:22.181341 18513 net.cpp:454] inception_5b/1x1 <- inception_5a/output_inception_5a/output_0_split_0
I0506 13:05:22.181421 18513 net.cpp:411] inception_5b/1x1 -> inception_5b/1x1
I0506 13:05:22.184963 18513 net.cpp:150] Setting up inception_5b/1x1
I0506 13:05:22.185005 18513 net.cpp:157] Top shape: 140 384 7 7 (2634240)
I0506 13:05:22.185084 18513 net.cpp:165] Memory required for data: 7525145600
I0506 13:05:22.185159 18513 layer_factory.hpp:77] Creating layer inception_5b/relu_1x1
I0506 13:05:22.185282 18513 net.cpp:106] Creating Layer inception_5b/relu_1x1
I0506 13:05:22.185359 18513 net.cpp:454] inception_5b/relu_1x1 <- inception_5b/1x1
I0506 13:05:22.185431 18513 net.cpp:397] inception_5b/relu_1x1 -> inception_5b/1x1 (in-place)
I0506 13:05:22.186218 18513 net.cpp:150] Setting up inception_5b/relu_1x1
I0506 13:05:22.186290 18513 net.cpp:157] Top shape: 140 384 7 7 (2634240)
I0506 13:05:22.186360 18513 net.cpp:165] Memory required for data: 7535682560
I0506 13:05:22.186430 18513 layer_factory.hpp:77] Creating layer inception_5b/3x3_reduce
I0506 13:05:22.186550 18513 net.cpp:106] Creating Layer inception_5b/3x3_reduce
I0506 13:05:22.186621 18513 net.cpp:454] inception_5b/3x3_reduce <- inception_5a/output_inception_5a/output_0_split_1
I0506 13:05:22.186707 18513 net.cpp:411] inception_5b/3x3_reduce -> inception_5b/3x3_reduce
I0506 13:05:22.191876 18513 net.cpp:150] Setting up inception_5b/3x3_reduce
I0506 13:05:22.191961 18513 net.cpp:157] Top shape: 140 192 7 7 (1317120)
I0506 13:05:22.192042 18513 net.cpp:165] Memory required for data: 7540951040
I0506 13:05:22.192116 18513 layer_factory.hpp:77] Creating layer inception_5b/relu_3x3_reduce
I0506 13:05:22.192188 18513 net.cpp:106] Creating Layer inception_5b/relu_3x3_reduce
I0506 13:05:22.192262 18513 net.cpp:454] inception_5b/relu_3x3_reduce <- inception_5b/3x3_reduce
I0506 13:05:22.192337 18513 net.cpp:397] inception_5b/relu_3x3_reduce -> inception_5b/3x3_reduce (in-place)
I0506 13:05:22.192594 18513 net.cpp:150] Setting up inception_5b/relu_3x3_reduce
I0506 13:05:22.192648 18513 net.cpp:157] Top shape: 140 192 7 7 (1317120)
I0506 13:05:22.192725 18513 net.cpp:165] Memory required for data: 7546219520
I0506 13:05:22.192795 18513 layer_factory.hpp:77] Creating layer inception_5b/3x3
I0506 13:05:22.192870 18513 net.cpp:106] Creating Layer inception_5b/3x3
I0506 13:05:22.192984 18513 net.cpp:454] inception_5b/3x3 <- inception_5b/3x3_reduce
I0506 13:05:22.193071 18513 net.cpp:411] inception_5b/3x3 -> inception_5b/3x3
I0506 13:05:22.200184 18513 net.cpp:150] Setting up inception_5b/3x3
I0506 13:05:22.200273 18513 net.cpp:157] Top shape: 140 384 7 7 (2634240)
I0506 13:05:22.200348 18513 net.cpp:165] Memory required for data: 7556756480
I0506 13:05:22.200422 18513 layer_factory.hpp:77] Creating layer inception_5b/relu_3x3
I0506 13:05:22.200541 18513 net.cpp:106] Creating Layer inception_5b/relu_3x3
I0506 13:05:22.200616 18513 net.cpp:454] inception_5b/relu_3x3 <- inception_5b/3x3
I0506 13:05:22.200687 18513 net.cpp:397] inception_5b/relu_3x3 -> inception_5b/3x3 (in-place)
I0506 13:05:22.201812 18513 net.cpp:150] Setting up inception_5b/relu_3x3
I0506 13:05:22.201896 18513 net.cpp:157] Top shape: 140 384 7 7 (2634240)
I0506 13:05:22.202009 18513 net.cpp:165] Memory required for data: 7567293440
I0506 13:05:22.202143 18513 layer_factory.hpp:77] Creating layer inception_5b/5x5_reduce
I0506 13:05:22.202230 18513 net.cpp:106] Creating Layer inception_5b/5x5_reduce
I0506 13:05:22.202342 18513 net.cpp:454] inception_5b/5x5_reduce <- inception_5a/output_inception_5a/output_0_split_2
I0506 13:05:22.202469 18513 net.cpp:411] inception_5b/5x5_reduce -> inception_5b/5x5_reduce
I0506 13:05:22.207931 18513 net.cpp:150] Setting up inception_5b/5x5_reduce
I0506 13:05:22.208009 18513 net.cpp:157] Top shape: 140 48 7 7 (329280)
I0506 13:05:22.208122 18513 net.cpp:165] Memory required for data: 7568610560
I0506 13:05:22.208207 18513 layer_factory.hpp:77] Creating layer inception_5b/relu_5x5_reduce
I0506 13:05:22.208324 18513 net.cpp:106] Creating Layer inception_5b/relu_5x5_reduce
I0506 13:05:22.208402 18513 net.cpp:454] inception_5b/relu_5x5_reduce <- inception_5b/5x5_reduce
I0506 13:05:22.208477 18513 net.cpp:397] inception_5b/relu_5x5_reduce -> inception_5b/5x5_reduce (in-place)
I0506 13:05:22.209379 18513 net.cpp:150] Setting up inception_5b/relu_5x5_reduce
I0506 13:05:22.209461 18513 net.cpp:157] Top shape: 140 48 7 7 (329280)
I0506 13:05:22.209573 18513 net.cpp:165] Memory required for data: 7569927680
I0506 13:05:22.209655 18513 layer_factory.hpp:77] Creating layer inception_5b/5x5
I0506 13:05:22.209728 18513 net.cpp:106] Creating Layer inception_5b/5x5
I0506 13:05:22.209841 18513 net.cpp:454] inception_5b/5x5 <- inception_5b/5x5_reduce
I0506 13:05:22.209969 18513 net.cpp:411] inception_5b/5x5 -> inception_5b/5x5
I0506 13:05:22.212520 18513 net.cpp:150] Setting up inception_5b/5x5
I0506 13:05:22.212586 18513 net.cpp:157] Top shape: 140 128 7 7 (878080)
I0506 13:05:22.212666 18513 net.cpp:165] Memory required for data: 7573440000
I0506 13:05:22.212739 18513 layer_factory.hpp:77] Creating layer inception_5b/relu_5x5
I0506 13:05:22.212815 18513 net.cpp:106] Creating Layer inception_5b/relu_5x5
I0506 13:05:22.212888 18513 net.cpp:454] inception_5b/relu_5x5 <- inception_5b/5x5
I0506 13:05:22.212959 18513 net.cpp:397] inception_5b/relu_5x5 -> inception_5b/5x5 (in-place)
I0506 13:05:22.213222 18513 net.cpp:150] Setting up inception_5b/relu_5x5
I0506 13:05:22.213276 18513 net.cpp:157] Top shape: 140 128 7 7 (878080)
I0506 13:05:22.213353 18513 net.cpp:165] Memory required for data: 7576952320
I0506 13:05:22.213424 18513 layer_factory.hpp:77] Creating layer inception_5b/pool
I0506 13:05:22.213496 18513 net.cpp:106] Creating Layer inception_5b/pool
I0506 13:05:22.213565 18513 net.cpp:454] inception_5b/pool <- inception_5a/output_inception_5a/output_0_split_3
I0506 13:05:22.213649 18513 net.cpp:411] inception_5b/pool -> inception_5b/pool
I0506 13:05:22.214341 18513 net.cpp:150] Setting up inception_5b/pool
I0506 13:05:22.214427 18513 net.cpp:157] Top shape: 140 832 7 7 (5707520)
I0506 13:05:22.214514 18513 net.cpp:165] Memory required for data: 7599782400
I0506 13:05:22.214588 18513 layer_factory.hpp:77] Creating layer inception_5b/pool_proj
I0506 13:05:22.214664 18513 net.cpp:106] Creating Layer inception_5b/pool_proj
I0506 13:05:22.214777 18513 net.cpp:454] inception_5b/pool_proj <- inception_5b/pool
I0506 13:05:22.214865 18513 net.cpp:411] inception_5b/pool_proj -> inception_5b/pool_proj
I0506 13:05:22.221194 18513 net.cpp:150] Setting up inception_5b/pool_proj
I0506 13:05:22.221293 18513 net.cpp:157] Top shape: 140 128 7 7 (878080)
I0506 13:05:22.221374 18513 net.cpp:165] Memory required for data: 7603294720
I0506 13:05:22.221449 18513 layer_factory.hpp:77] Creating layer inception_5b/relu_pool_proj
I0506 13:05:22.221570 18513 net.cpp:106] Creating Layer inception_5b/relu_pool_proj
I0506 13:05:22.221647 18513 net.cpp:454] inception_5b/relu_pool_proj <- inception_5b/pool_proj
I0506 13:05:22.221719 18513 net.cpp:397] inception_5b/relu_pool_proj -> inception_5b/pool_proj (in-place)
I0506 13:05:22.221967 18513 net.cpp:150] Setting up inception_5b/relu_pool_proj
I0506 13:05:22.222050 18513 net.cpp:157] Top shape: 140 128 7 7 (878080)
I0506 13:05:22.222128 18513 net.cpp:165] Memory required for data: 7606807040
I0506 13:05:22.222198 18513 layer_factory.hpp:77] Creating layer inception_5b/output
I0506 13:05:22.222327 18513 net.cpp:106] Creating Layer inception_5b/output
I0506 13:05:22.222398 18513 net.cpp:454] inception_5b/output <- inception_5b/1x1
I0506 13:05:22.222468 18513 net.cpp:454] inception_5b/output <- inception_5b/3x3
I0506 13:05:22.222543 18513 net.cpp:454] inception_5b/output <- inception_5b/5x5
I0506 13:05:22.222615 18513 net.cpp:454] inception_5b/output <- inception_5b/pool_proj
I0506 13:05:22.222686 18513 net.cpp:411] inception_5b/output -> inception_5b/output
I0506 13:05:22.222786 18513 net.cpp:150] Setting up inception_5b/output
I0506 13:05:22.222862 18513 net.cpp:157] Top shape: 140 1024 7 7 (7024640)
I0506 13:05:22.222929 18513 net.cpp:165] Memory required for data: 7634905600
I0506 13:05:22.222997 18513 layer_factory.hpp:77] Creating layer pool5/7x7_s1
I0506 13:05:22.223069 18513 net.cpp:106] Creating Layer pool5/7x7_s1
I0506 13:05:22.223139 18513 net.cpp:454] pool5/7x7_s1 <- inception_5b/output
I0506 13:05:22.223212 18513 net.cpp:411] pool5/7x7_s1 -> pool5/7x7_s1
I0506 13:05:22.223613 18513 net.cpp:150] Setting up pool5/7x7_s1
I0506 13:05:22.223700 18513 net.cpp:157] Top shape: 140 1024 1 1 (143360)
I0506 13:05:22.223772 18513 net.cpp:165] Memory required for data: 7635479040
I0506 13:05:22.223840 18513 net.cpp:228] pool5/7x7_s1 does not need backward computation.
I0506 13:05:22.223911 18513 net.cpp:228] inception_5b/output does not need backward computation.
I0506 13:05:22.223980 18513 net.cpp:228] inception_5b/relu_pool_proj does not need backward computation.
I0506 13:05:22.224050 18513 net.cpp:228] inception_5b/pool_proj does not need backward computation.
…
